.lr_find_4e134791-fe05-43d3-90a8-618ac657d984.ckpt (torch, 150567 bytes, 166 tensors)

prescalers.encoder_length.weight f4 [8, 1]
0	0x3f43b8cc	0.7645385
1	0x3f547b66	0.8300079
2	0xbe6fe520	-0.23427248
3	0x3f6b2a1c	0.9186113
4	0xbe605cb0	-0.21910357
5	0x3e4ea238	0.20179069
6	0xbef94510	-0.48685503
7	0x3f165828	0.58728266

prescalers.encoder_length.bias f4 [8]
0	0x3f61accc	0.8815429
1	0xbf3bcf0e	-0.73362815
2	0x3f5e83a4	0.8691962
3	0x3e3fa6b0	0.1871593
4	0x3f3d2294	0.7388089
5	0x3e0aae50	0.13543057
6	0x3ef6e15c	0.4821881
7	0xbe109460	-0.141191

prescalers.views_center.weight f4 [8, 1]
0	0x3f4558c6	0.7708858
1	0x3e175b38	0.14780891
2	0xbeef05a4	-0.4668399
3	0x3e828208	0.2548983
4	0xbeebe5ac	-0.46073663
5	0xbdf02cc0	-0.117272854
6	0xbecff3fc	-0.40615833
7	0x3f29d2ae	0.66337097

prescalers.views_center.bias f4 [8]
0	0xbf4a142a	-0.7893702
1	0xbeec098c	-0.46101034
2	0xbe90936c	-0.28237474
3	0xbf19ecfe	-0.60127246
4	0x3dc14bf0	0.09438312
5	0xbf7cd88a	-0.9876791
6	0x3f673228	0.9031091
7	0xbf5976c0	-0.84946823

prescalers.views_scale.weight f4 [8, 1]
0	0x3f45a396	0.7720274
1	0x3e2a69c8	0.16641915
2	0xbea63fac	-0.32470453
3	0x3f1e31f8	0.61794996
4	0x3e1f9758	0.15585077
5	0x3f4ed6b0	0.8079634
6	0x3ddfe300	0.10931969
7	0xbea17898	-0.31537318

prescalers.views_scale.bias f4 [8]
0	0x3e8990e8	0.26868367
1	0xbe8ad808	-0.27117944
2	0x3ed77aa4	0.42085755
3	0x3f648ffe	0.89282215
4	0x3f13fbb6	0.57805955
5	0xbedfd514	-0.43717253
6	0x3f13c79e	0.57726467
7	0x3e373870	0.17892623

prescalers.relative_time_idx.weight f4 [8, 1]
0	0x3f02017a	0.50783503
1	0xbf1c0886	-0.60950506
2	0xbf7d6aa4	-0.98990846
3	0xbec5d10c	-0.38636053
4	0xbf445b9c	-0.76702285
5	0x3f520ed6	0.8205389
6	0x3e9378d8	0.28803134
7	0x3ed413cc	0.41421354

prescalers.relative_time_idx.bias f4 [8]
0	0x3ea1ecfc	0.31626117
1	0xbc8e8200	-0.017395973
2	0x3f485904	0.7826083
3	0xbf35e438	-0.7105136
4	0x3d80f320	0.062963724
5	0xbf2ebaf4	-0.6825402
6	0x3e9de050	0.308352
7	0xbeb052e0	-0.3443823

static_variable_selection.flattened_grn.resample_norm.mask f4 [3]
0	0x00000000	0.0
1	0x00000000	0.0
2	0x00000000	0.0

static_variable_selection.flattened_grn.resample_norm.norm.weight f4 [3]
0	0x3f800000	1.0
1	0x3f800000	1.0
2	0x3f800000	1.0

static_variable_selection.flattened_grn.resample_norm.norm.bias f4 [3]
0	0x00000000	0.0
1	0x00000000	0.0
2	0x00000000	0.0

static_variable_selection.flattened_grn.fc1.weight f4 [3, 24]
0	0x3cf6a573	0.03010819
1	0x3e99ebba	0.30062658
2	0xbdec52cb	-0.11539229
3	0xbf297ab5	-0.6620286
4	0x3e1314c7	0.14363395
5	0xbdfbb0ba	-0.12289567
6	0xbec5a1ef	-0.38600108
7	0xbd649a89	-0.05581144
8	0x3e702127	0.23450147
9	0xbdb512e6	-0.08841495
10	0xbdc3311c	-0.09530851
11	0xbe90f6e2	-0.28313357
12	0x3d664170	0.05621475
13	0xbef464a6	-0.4773304
14	0x3e496e0b	0.19670884
15	0x3ed7f4b5	0.42178884
16	0xbea1af40	-0.31579018
17	0x3e8e6210	0.2780919
18	0xbdb6ff16	-0.089353725
19	0x3e28d971	0.16489197
20	0x3ea53aa0	0.3227129
21	0xbebf7cd3	-0.3739992
22	0x3c6dca42	0.014513554
23	0xbe2d11f9	-0.16901387
24	0x3f15c33e	0.5850104
25	0x3e91063b	0.28325066
26	0xbe3d38a8	-0.18478644
27	0xbe111800	-0.14169312
28	0x3d75f596	0.060048662
29	0xbeab3d95	-0.3344542
30	0xbe8e6e4f	-0.27818534
31	0xbdddb35b	-0.10825225
32	0xbe1a7b4a	-0.15086094
33	0x3e53cf88	0.20684636
34	0x3ee2a626	0.44267386
35	0xbed67502	-0.41886145
36	0xbe686258	-0.22693765
37	0xbe8d5855	-0.27606454
38	0xbeb865ce	-0.3601517
39	0xbe5daf6f	-0.21648954
40	0x3e51d77a	0.20492354
41	0xbee285fe	-0.44242853
42	0xbe5659ea	-0.20932737
43	0x3e09ded8	0.13463914
44	0x3e45160a	0.19246688
45	0xbc4f7f02	-0.012664558
46	0x3d8c0097	0.0683605
47	0xbe50b74f	-0.20382427
48	0x3ec81441	0.39077953
49	0xbd3c652a	-0.045994915
50	0xbdfb3ac3	-0.12267067
51	0x3e8b8f15	0.272576
52	0xbd5aab47	-0.053386
53	0x3e9cc9b2	0.3062263
54	0x3d764d00	0.060132027
55	0xbe2ad056	-0.16681036
56	0x3e505248	0.20343888
57	0xbaaa756b	-0.0013004964
58	0x3ef65acd	0.4811615
59	0x3d35ff4e	0.04443293
60	0xbe9cb509	-0.3060687
61	0xbe29478d	-0.165312
62	0x3cc59fb9	0.024124013
63	0x3dec6d3d	0.11544273
64	0xbe5606e0	-0.2090106
65	0xbcaa3cec	-0.020781003
66	0xbe85ec1a	-0.26156694
67	0xbf1766cb	-0.59141225
68	0xbe9fc825	-0.31207386
69	0x3ba6b3be	0.005087345
70	0x3cb8fdab	0.022581896
71	0x3d646498	0.055759996

static_variable_selection.flattened_grn.fc1.bias f4 [3]
0	0x00000000	0.0
1	0x00000000	0.0
2	0x00000000	0.0

static_variable_selection.flattened_grn.fc2.weight f4 [3, 3]
0	0xbc44231b	-0.01197126
1	0x3e627c7c	0.221178
2	0xbe2b87d3	-0.16751032
3	0xbefcfb85	-0.49410644
4	0xbeda8107	-0.42676565
5	0x3f506a79	0.81412464
6	0x3e87dcc0	0.26535606
7	0x3dee2487	0.11628061
8	0x3e4f625d	0.20252366

static_variable_selection.flattened_grn.fc2.bias f4 [3]
0	0x00000000	0.0
1	0x00000000	0.0
2	0x00000000	0.0

static_variable_selection.flattened_grn.gate_norm.glu.fc.weight f4 [6, 3]
0	0xbecdc49c	-0.40189064
1	0xbeaae23e	-0.33375734
2	0xbe84b666	-0.2592041
3	0xbf46a2b2	-0.77592003
4	0x3f2b814c	0.66994166
5	0x3f2f3b0a	0.6844946
6	0xbe032834	-0.12808305
7	0xbdbe6e90	-0.09298432
8	0xbeaa9cee	-0.33322853
9	0xbf3cc2d2	-0.7373477
10	0xbf4b68e2	-0.79456913
11	0x3e9b5ed4	0.30345786
12	0xbee586d6	-0.44829434
13	0xbf06604c	-0.5249069
14	0xbd827820	-0.06370568
15	0xbe8b36ce	-0.2719025
16	0xbe873f24	-0.2641536
17	0x3cd6eac0	0.026234984

static_variable_selection.flattened_grn.gate_norm.glu.fc.bias f4 [6]
0	0x00000000	0.0
1	0x00000000	0.0
2	0x00000000	0.0
3	0x00000000	0.0
4	0x00000000	0.0
5	0x00000000	0.0

static_variable_selection.flattened_grn.gate_norm.add_norm.norm.weight f4 [3]
0	0x3f800000	1.0
1	0x3f800000	1.0
2	0x3f800000	1.0

static_variable_selection.flattened_grn.gate_norm.add_norm.norm.bias f4 [3]
0	0x00000000	0.0
1	0x00000000	0.0
2	0x00000000	0.0

static_variable_selection.single_variable_grns.encoder_length.resample_norm.mask f4 [16]
0	0x00000000	0.0
1	0x00000000	0.0
2	0x00000000	0.0
3	0x00000000	0.0
4	0x00000000	0.0
5	0x00000000	0.0
6	0x00000000	0.0
7	0x00000000	0.0
8	0x00000000	0.0
9	0x00000000	0.0
10	0x00000000	0.0
11	0x00000000	0.0
12	0x00000000	0.0
13	0x00000000	0.0
14	0x00000000	0.0
15	0x00000000	0.0

static_variable_selection.single_variable_grns.encoder_length.resample_norm.norm.weight f4 [16]
0	0x3f800000	1.0
1	0x3f800000	1.0
2	0x3f800000	1.0
3	0x3f800000	1.0
4	0x3f800000	1.0
5	0x3f800000	1.0
6	0x3f800000	1.0
7	0x3f800000	1.0
8	0x3f800000	1.0
9	0x3f800000	1.0
10	0x3f800000	1.0
11	0x3f800000	1.0
12	0x3f800000	1.0
13	0x3f800000	1.0
14	0x3f800000	1.0
15	0x3f800000	1.0

static_variable_selection.single_variable_grns.encoder_length.resample_norm.norm.bias f4 [16]
0	0x00000000	0.0
1	0x00000000	0.0
2	0x00000000	0.0
3	0x00000000	0.0
4	0x00000000	0.0
5	0x00000000	0.0
6	0x00000000	0.0
7	0x00000000	0.0
8	0x00000000	0.0
9	0x00000000	0.0
10	0x00000000	0.0
11	0x00000000	0.0
12	0x00000000	0.0
13	0x00000000	0.0
14	0x00000000	0.0
15	0x00000000	0.0

static_variable_selection.single_variable_grns.encoder_length.fc1.weight f4 [8, 8]
0	0xbea1e141	-0.31617168
1	0xbe3918c6	-0.18075857
2	0xbf58886f	-0.8458318
3	0xbf312321	-0.6919423
4	0x3e79473b	0.24343579
5	0xbf004282	-0.5010148
6	0x3c86f557	0.016474409
7	0xbe5bbf91	-0.21459796
8	0xbe60bb37	-0.21946417
9	0xbe4cc06f	-0.19995283
10	0xbf2a2111	-0.66456705
11	0x3f4bb2da	0.7956978
12	0xbd776cf6	-0.060406648
13	0xbe774e7d	-0.24151035
14	0x3d6808bb	0.05664895
15	0x3d1e0146	0.038575433
16	0x3f1fe27a	0.6245495
17	0x3f35ae2c	0.7096889
18	0x3d9b939e	0.07596515
19	0x3f0c5ebd	0.5483206
20	0xbeaf0689	-0.34184673
21	0x3d0741be	0.03302168
22	0xb9cad8c7	-0.00038689954
23	0x3da5f32c	0.08103022
24	0xbe9cd495	-0.30630937
25	0xbe7793c3	-0.2417746
26	0xbe8ab922	-0.2709437
27	0xbf07a4e9	-0.5298601
28	0x3e1c88a4	0.152865
29	0x3e548280	0.20752907
30	0xbeb7a87a	-0.35870725
31	0x3fb55fbb	1.416984
32	0x3e0b5da9	0.13609947
33	0x3cf9433f	0.030427573
34	0xbf16b64d	-0.5887192
35	0x3f4f93b0	0.8108473
36	0x3ed9ec8c	0.42563283
37	0xbe4d0a5d	-0.20023485
38	0xbe9bdc19	-0.3044136
39	0xbe82128a	-0.2540477
40	0x3e87a3f1	0.26492265
41	0xbee8fe49	-0.45506504
42	0x3eafb206	0.3431551
43	0xbe668e79	-0.22515287
44	0xbd156f3b	-0.03648303
45	0xbe8c46c6	-0.27397746
46	0xbf123f2f	-0.5712766
47	0xbe65c2d6	-0.22437605
48	0xbd013a5c	-0.031549796
49	0xbef5ef31	-0.4803405
50	0x3ed4d60e	0.4156956
51	0x3f170857	0.589971
52	0xbe29b0e8	-0.1657139
53	0x3ea645e9	0.32475212
54	0x3d42799c	0.047479257
55	0xbec0a992	-0.37629372
56	0x3f183360	0.5945339
57	0xbe917c4d	-0.28415146
58	0xbed9a3b4	-0.42507708
59	0xbef6bec7	-0.48192427
60	0xbfa4465b	-1.2833971
61	0x3eb5a930	0.35480642
62	0x3ed1e136	0.40992135
63	0x3e9f1715	0.31072298

static_variable_selection.single_variable_grns.encoder_length.fc1.bias f4 [8]
0	0x00000000	0.0
1	0x00000000	0.0
2	0x00000000	0.0
3	0x00000000	0.0
4	0x00000000	0.0
5	0x00000000	0.0
6	0x00000000	0.0
7	0x00000000	0.0

static_variable_selection.single_variable_grns.encoder_length.fc2.weight f4 [8, 8]
0	0x3f013771	0.5047522
1	0x3ee505d7	0.44731018
2	0xbe135a32	-0.14389876
3	0xbf2e9002	-0.6818849
4	0x3dc596bc	0.09647891
5	0xbe9c3ede	-0.30516714
6	0x3da726ef	0.08161723
7	0x3f414d4e	0.7550858
8	0x3dadee31	0.08492697
9	0xbeded2d6	-0.4352023
10	0x3c79ebd1	0.015253977
11	0x3e858dc2	0.26084715
12	0xbe6d8005	-0.23193367
13	0x3dbac127	0.09118872
14	0xbe45f866	-0.19333038
15	0xbf6534e6	-0.8953384
16	0x3e3abb16	0.1823543
17	0x3eca1098	0.39465785
18	0xbf2ac24b	-0.6670272
19	0x3f2c034f	0.6719255
20	0xbf2567d2	-0.6461154
21	0x3ec42893	0.38312206
22	0x3ea538f5	0.32270017
23	0x3e34e5d8	0.17665803
24	0xbcec0639	-0.028811561
25	0xbf2897ce	-0.65856636
26	0x3da1fbab	0.0790933
27	0x3e02105d	0.12701555
28	0xbdb75b4c	-0.0895296
29	0x3f198227	0.5996422
30	0xbe5bc25b	-0.2146086
31	0x3f0150fe	0.5051421
32	0xbe857b7b	-0.2607077
33	0xbec1eef8	-0.3787763
34	0xbd1ae28c	-0.03781371
35	0xbf5e69c5	-0.8688014
36	0xbd805c2d	-0.06267581
37	0xbf2ed305	-0.6829074
38	0x3f0e4db2	0.55587304
39	0xbe9f6f9a	-0.31139833
40	0x3efcc75b	0.49370846
41	0x3ea43974	0.32075083
42	0xbf2a69ac	-0.6656749
43	0x3f807421	1.003544
44	0xbf2065a5	-0.626551
45	0x3f0f371d	0.5594347
46	0x3f62fac3	0.8866388
47	0xbf849615	-1.0358301
48	0x3e796d94	0.24358207
49	0x3f3ef866	0.74597776
50	0x3bd95115	0.00663198
51	0x3f6e0406	0.9297489
52	0x3fa7d141	1.3110734
53	0x3e3cf475	0.18452628
54	0x3e42b652	0.19014862
55	0x3dcbc17f	0.09949016
56	0x3f1bd092	0.6086513
57	0x3e957db0	0.29197454
58	0x3fd898fa	1.6921685
59	0x3e72a392	0.2369521
60	0x3ea67c73	0.32516822
61	0x3f15474a	0.58311903
62	0x3c0abd5c	0.008467998
63	0x3e88579c	0.2662934

static_variable_selection.single_variable_grns.encoder_length.fc2.bias f4 [8]
0	0x00000000	0.0
1	0x00000000	0.0
2	0x00000000	0.0
3	0x00000000	0.0
4	0x00000000	0.0
5	0x00000000	0.0
6	0x00000000	0.0
7	0x00000000	0.0

static_variable_selection.single_variable_grns.encoder_length.gate_norm.glu.fc.weight f4 [32, 8]
0	0xbe907c7e	-0.2821998
1	0x3eb12aa0	0.34602833
2	0xbe3c2e94	-0.18377143
3	0xbe3b5516	-0.18294176
4	0x3ea5ee34	0.32408297
5	0x3e99a472	0.30008274
6	0x3defa998	0.11702269
7	0x3cc6e140	0.02427733
8	0xbea6cceb	-0.32578215
9	0xbd24ac10	-0.040203154
10	0x3ebe3110	0.37146807
11	0x3dc9fdf8	0.09862894
12	0x3d07d278	0.033159703
13	0xbda4b4c4	-0.08042291
14	0xbe0a5326	-0.13508281
15	0x3e6c60f4	0.2308386
16	0x3cc3a8a0	0.023884118
17	0x3e8101ba	0.2519663
18	0xbd8c649c	-0.06855127
19	0x3e2d467c	0.16921419
20	0x3e23b3ac	0.15986508
21	0x3d7cf840	0.061760187
22	0x3e79356c	0.24336785
23	0x3e788610	0.24269891
24	0x3eb7ce4e	0.35899585
25	0x3e98721e	0.29774565
26	0xbdcad0b4	-0.09903088
27	0xbea7e1cd	-0.3278946
28	0x3d910228	0.070804894
29	0xbb5d8a80	-0.0033804476
30	0xbdcee220	-0.10101724
31	0xbd84d2ac	-0.06485495
32	0x3c953930	0.018215746
33	0x3e90aee8	0.28258443
34	0x3df744e0	0.12073684
35	0xbe0cd3fe	-0.13752744
36	0xbe2316d2	-0.15926674
37	0xbdc46b00	-0.09590721
38	0xbe1948da	-0.14969197
39	0x3eb2501e	0.3482675
40	0x3e520dcc	0.20513076
41	0x3eb30ea2	0.349721
42	0x3aa21f00	0.0012368858
43	0x3d9ff674	0.07810679
44	0x3e09864c	0.13430136
45	0xbebbb2cb	-0.36659846
46	0x3d0da860	0.034584403
47	0xbcd439a0	-0.025906384
48	0xbe5e5a0c	-0.21714038
49	0xbe99de2a	-0.3005231
50	0x3eaf8c0a	0.3428653
51	0x3ea13a76	0.31489915
52	0x3e37cf04	0.17950064
53	0x3ebd3982	0.36957937
54	0xbe20f0d6	-0.15716872
55	0xbd89005c	-0.06689522
56	0x3e16285c	0.14663833
57	0xbd830e3c	-0.06399199
58	0xbd9ba6a4	-0.076001436
59	0xbea3e78a	-0.32012588
60	0x3dd51940	0.10405207
61	0xbe6fac18	-0.23405492
62	0x3c66c300	0.014084578
63	0x3ec155a2	0.37760645
64	0xbdf427b4	-0.11921635
65	0xbdfa0188	-0.12207323
66	0x3e6f451c	0.23366207
67	0xbe11cf14	-0.1423915
68	0xbd083bd8	-0.033260196
69	0x3eb92846	0.3616354
70	0xbe2297ca	-0.15878215
71	0xbe8ddd10	-0.2770772
72	0xbe5df37a	-0.2167491
73	0xbddbe85c	-0.107376784
74	0xbe3c2ee1	-0.18377258
75	0xbe4dce12	-0.20098141
76	0x3e2033a8	0.15644705
77	0x3d86cadc	0.06581661
78	0xbdfdde60	-0.1239593
79	0xbe9a0f1b	-0.3008965
80	0xbdf9be24	-0.121944696
81	0xbe2760c4	-0.16345507
82	0xbe010f1e	-0.12603423
83	0xbeb2e358	-0.34939075
84	0x3daae024	0.08343533
85	0xbe91b17c	-0.28455722
86	0xbe9a6ef0	-0.30162764
87	0xbea203d9	-0.3164356
88	0x3e25881c	0.16165203
89	0xbe6ec287	-0.23316394
90	0xbe23b1be	-0.15985772
91	0x3e9b6edc	0.30358016
92	0x3e5293b4	0.20564157
93	0x3e636738	0.22207344
94	0xbebc48b8	-0.3677423
95	0xbe8e32d5	-0.27773157
96	0xbe15b7ea	-0.14620939
97	0x3ea3cffe	0.31994623
98	0x3d224968	0.039620787
99	0xbe944e3a	-0.28965932
100	0x3b1ef000	0.0024251938
101	0xbe9a02e4	-0.3008033
102	0xbdadc964	-0.08485678
103	0xbdda1b4c	-0.10649738
104	0x3eaba86c	0.33526933
105	0x3df5ade0	0.11996055
106	0xbd8a4f14	-0.06753364
107	0x3d85fdf8	0.06542581
108	0xbde4f73c	-0.11179969
109	0x3e1bd25c	0.15216964
110	0x3e1ce0c8	0.15320122
111	0x3dd501dc	0.10400745
112	0xbe1a9540	-0.15095997
113	0x3ea92d52	0.3304239
114	0xbd650658	-0.055914253
115	0xbe1a6685	-0.1507817
116	0x3e786460	0.2425704
117	0x3ea19f84	0.31567013
118	0x3ec55642	0.38542372
119	0x3deafd00	0.11474037
120	0xbe073240	-0.13202763
121	0x3e496d3c	0.19670576
122	0x3eaa212c	0.33228433
123	0xbec27f08	-0.37987542
124	0xbd4487f0	-0.047981203
125	0xbe873b46	-0.2641241
126	0x3d93d170	0.072176814
127	0x3e24066c	0.16018075
128	0xbda3dce4	-0.08001116
129	0xbd04b628	-0.03240028
130	0x3e3282d4	0.1743272
131	0xbd854f8c	-0.06509313
132	0xbea6868a	-0.3252452
133	0x3e9eaa14	0.30989134
134	0xbe479c7c	-0.19493288
135	0xbd2e46d8	-0.04254803
136	0x3d15a310	0.03653246
137	0xbcbeac10	-0.023275405
138	0xbeba88f4	-0.36432612
139	0x3e35f504	0.17769247
140	0xbe342530	-0.17592311
141	0xbe4db270	-0.200876
142	0x3dbd8130	0.09253156
143	0xbe4ef793	-0.2021163
144	0xbe374a1d	-0.17899366
145	0xbe05a1d6	-0.13050017
146	0xbe14fdc5	-0.1454993
147	0xbe25a1df	-0.1617503
148	0xbdd5e94c	-0.104448885
149	0x3dce214c	0.100649446
150	0xbea0771d	-0.31340876
151	0xbe700cdc	-0.23442405
152	0x3bb92e00	0.0056512356
153	0x3d5c9d30	0.053860843
154	0x3e5b091c	0.21390194
155	0xbe8b4ad8	-0.2720554
156	0x3dfd2ed0	0.123624444
157	0x3e616b70	0.2201364
158	0x3e5c366c	0.21505135
159	0xbeb8b2a7	-0.360738
160	0xbe17577d	-0.14779468
161	0xbeaa72f6	-0.33290833
162	0xbe7af80a	-0.24508682
163	0x3e5ce554	0.21571857
164	0xbd6ce038	-0.05783102
165	0x3e287010	0.16448998
166	0xbe68cd8b	-0.22734658
167	0x3d7110b0	0.058853805
168	0xbe6fe1fa	-0.23426047
169	0x3e464100	0.19360733
170	0xbe2d7630	-0.16939616
171	0xbdc6e61c	-0.09711859
172	0xbeac0c69	-0.33603218
173	0x3aa7b300	0.0012794435
174	0x3ebc4762	0.3677321
175	0x3e407f70	0.18798614
176	0xbe539950	-0.20663953
177	0x3baaad80	0.005208671
178	0xbd2df188	-0.04246667
179	0xbe9fa4c3	-0.3118039
180	0x3e9b7b94	0.3036772
181	0x3bcc9640	0.006243497
182	0x3da70af8	0.08156389
183	0xbe2027ec	-0.15640229
184	0xbe3992dd	-0.1812243
185	0x3d82c9cc	0.06386146
186	0x3e129ffc	0.14318842
187	0x3db1e908	0.08687025
188	0xbe3f22e3	-0.18665652
189	0x3ec086a0	0.3760271
190	0xbd698570	-0.05701202
191	0xbe72e13d	-0.23718734
192	0xbe397de6	-0.18114433
193	0x3ec3351c	0.38126457
194	0x379c8000	1.8656254e-05
195	0xbd575750	-0.052573502
196	0xbe250c0c	-0.16117877
197	0xbdcfee28	-0.101528466
198	0xbea702dd	-0.32619372
199	0xbe9d9549	-0.30777958
200	0x3e681f3c	0.22668165
201	0x3ea9a202	0.33131415
202	0x3ebd3c14	0.36959898
203	0xbe8f28a8	-0.27960706
204	0x3e5680bc	0.20947546
205	0xbe757a66	-0.23972473
206	0x3e6c9788	0.2310468
207	0x3e8f14f6	0.2794568
208	0x3e9974c2	0.29971892
209	0x3e8ec8aa	0.2788747
210	0x3e78192c	0.24228352
211	0x3bf70340	0.007538229
212	0x3e363a4c	0.17795676
213	0xbe0de3be	-0.13856408
214	0x3e2cb0cc	0.16864318
215	0xbdfeee90	-0.12447846
216	0xbbd51940	-0.006503254
217	0xbeac97e2	-0.33709627
218	0xbdcf65f4	-0.10126868
219	0xbe508ecc	-0.20366973
220	0xbe05c77c	-0.13064378
221	0xbe7d425f	-0.2473235
222	0xbeb25b5c	-0.34835327
223	0x3cce9930	0.02521953
224	0x3e80b0c2	0.25134856
225	0x3eb49942	0.35273176
226	0x3e676f0c	0.22600955
227	0xbe4d91b9	-0.2007512
228	0xbec41e0f	-0.38304183
229	0x3e166ef4	0.14690763
230	0x3e5e3784	0.21700865
231	0xbeaa3d7a	-0.33250028
232	0x3e0e3680	0.13887978
233	0x3ea7a7c8	0.32745194
234	0x3cc031b0	0.023461193
235	0xbe6eee67	-0.23333131
236	0x3ea2942c	0.3175367
237	0x3e295a0c	0.16538256
238	0x3e834ff6	0.25646943
239	0xbe861af0	-0.26192427
240	0x3e66cbbc	0.22538656
241	0xbe877388	-0.2645533
242	0x3ec436a8	0.3832295
243	0xbe28095c	-0.1640982
244	0x3e6ef964	0.23337322
245	0x3d9ed438	0.07755321
246	0x3dd233f0	0.102638125
247	0xbd734748	-0.05939415
248	0x3e22e51c	0.15907711
249	0xbe2549fe	-0.16141507
250	0xbebae911	-0.3650594
251	0xbe185f59	-0.14880122
252	0x3e9b5f88	0.30346322
253	0xbdd0d274	-0.10196391
254	0x3df95030	0.12173498
255	0xbe12a190	-0.14319444

static_variable_selection.single_variable_grns.encoder_length.gate_norm.glu.fc.bias f4 [32]
0	0x00000000	0.0
1	0x00000000	0.0
2	0x00000000	0.0
3	0x00000000	0.0
4	0x00000000	0.0
5	0x00000000	0.0
6	0x00000000	0.0
7	0x00000000	0.0
8	0x00000000	0.0
9	0x00000000	0.0
10	0x00000000	0.0
11	0x00000000	0.0
12	0x00000000	0.0
13	0x00000000	0.0
14	0x00000000	0.0
15	0x00000000	0.0
16	0x00000000	0.0
17	0x00000000	0.0
18	0x00000000	0.0
19	0x00000000	0.0
20	0x00000000	0.0
21	0x00000000	0.0
22	0x00000000	0.0
23	0x00000000	0.0
24	0x00000000	0.0
25	0x00000000	0.0
26	0x00000000	0.0
27	0x00000000	0.0
28	0x00000000	0.0
29	0x00000000	0.0
30	0x00000000	0.0
31	0x00000000	0.0

static_variable_selection.single_variable_grns.encoder_length.gate_norm.add_norm.norm.weight f4 [16]
0	0x3f800000	1.0
1	0x3f800000	1.0
2	0x3f800000	1.0
3	0x3f800000	1.0
4	0x3f800000	1.0
5	0x3f800000	1.0
6	0x3f800000	1.0
7	0x3f800000	1.0
8	0x3f800000	1.0
9	0x3f800000	1.0
10	0x3f800000	1.0
11	0x3f800000	1.0
12	0x3f800000	1.0
13	0x3f800000	1.0
14	0x3f800000	1.0
15	0x3f800000	1.0

static_variable_selection.single_variable_grns.encoder_length.gate_norm.add_norm.norm.bias f4 [16]
0	0x00000000	0.0
1	0x00000000	0.0
2	0x00000000	0.0
3	0x00000000	0.0
4	0x00000000	0.0
5	0x00000000	0.0
6	0x00000000	0.0
7	0x00000000	0.0
8	0x00000000	0.0
9	0x00000000	0.0
10	0x00000000	0.0
11	0x00000000	0.0
12	0x00000000	0.0
13	0x00000000	0.0
14	0x00000000	0.0
15	0x00000000	0.0

static_variable_selection.single_variable_grns.views_center.resample_norm.mask f4 [16]
0	0x00000000	0.0
1	0x00000000	0.0
2	0x00000000	0.0
3	0x00000000	0.0
4	0x00000000	0.0
5	0x00000000	0.0
6	0x00000000	0.0
7	0x00000000	0.0
8	0x00000000	0.0
9	0x00000000	0.0
10	0x00000000	0.0
11	0x00000000	0.0
12	0x00000000	0.0
13	0x00000000	0.0
14	0x00000000	0.0
15	0x00000000	0.0

static_variable_selection.single_variable_grns.views_center.resample_norm.norm.weight f4 [16]
0	0x3f800000	1.0
1	0x3f800000	1.0
2	0x3f800000	1.0
3	0x3f800000	1.0
4	0x3f800000	1.0
5	0x3f800000	1.0
6	0x3f800000	1.0
7	0x3f800000	1.0
8	0x3f800000	1.0
9	0x3f800000	1.0
10	0x3f800000	1.0
11	0x3f800000	1.0
12	0x3f800000	1.0
13	0x3f800000	1.0
14	0x3f800000	1.0
15	0x3f800000	1.0

static_variable_selection.single_variable_grns.views_center.resample_norm.norm.bias f4 [16]
0	0x00000000	0.0
1	0x00000000	0.0
2	0x00000000	0.0
3	0x00000000	0.0
4	0x00000000	0.0
5	0x00000000	0.0
6	0x00000000	0.0
7	0x00000000	0.0
8	0x00000000	0.0
9	0x00000000	0.0
10	0x00000000	0.0
11	0x00000000	0.0
12	0x00000000	0.0
13	0x00000000	0.0
14	0x00000000	0.0
15	0x00000000	0.0

static_variable_selection.single_variable_grns.views_center.fc1.weight f4 [8, 8]
0	0x3f8dc0f2	1.1074507
1	0xbe996384	-0.29958737
2	0xbe288278	-0.1645602
3	0xbf62fa9a	-0.8866364
4	0xbefda052	-0.49536377
5	0x3ea28647	0.3174307
6	0x3f030d79	0.5119243
7	0x3ef51d0c	0.47873724
8	0x3d48a56a	0.048985876
9	0xbd9392da	-0.07205744
10	0xbe87a948	-0.2649634
11	0x3f9c2a19	1.2200347
12	0xbf74d8a7	-0.95643085
13	0x3e1f1cb8	0.15538299
14	0xbf3cf634	-0.73813176
15	0xbe74e2f1	-0.23914696
16	0x3ee47457	0.4462001
17	0x3eb4a3d7	0.3528125
18	0x3f35672b	0.70860547
19	0xbe16f70b	-0.14742677
20	0xbe0f4a29	-0.13993134
21	0x3f0ab717	0.5418562
22	0x3db122b0	0.08649194
23	0x3e832984	0.2561761
24	0xbf3d9284	-0.7405169
25	0xbf0fab62	-0.56120884
26	0x3e574bc3	0.21024995
27	0xbe6af47c	-0.22944826
28	0xbeedaa38	-0.4641893
29	0xbdafe016	-0.08587663
30	0xbeafc94d	-0.34333268
31	0xbd87df6f	-0.066344135
32	0xbeda0fd9	-0.42590216
33	0xbf79692d	-0.9742611
34	0xbf433340	-0.76250076
35	0x3c63e111	0.0139086405
36	0x3d3a8534	0.04553719
37	0x3eabfe8e	0.33592647
38	0x3efc34d6	0.4925906
39	0xbec2cf2f	-0.38048694
40	0xbe1d38ee	-0.15353748
41	0x3b9198d3	0.004443267
42	0xbf470ca8	-0.77753687
43	0x3df1a559	0.11799116
44	0xbe64a450	-0.22328305
45	0xbf16c238	-0.58890104
46	0x3f34cd40	0.70625687
47	0xbc3dc7eb	-0.011583309
48	0xbf138cbc	-0.5763662
49	0x3f09c599	0.53817135
50	0xbf9ca974	-1.2239213
51	0x3ec45c0d	0.3835148
52	0xbeefed0b	-0.46860537
53	0xbf952689	-1.1652385
54	0xbec7e7fa	-0.39044172
55	0x3ed333a0	0.41250324
56	0xbe009254	-0.1255582
57	0x3f002723	0.5005972
58	0xbedefb09	-0.435509
59	0x3f1c5b5a	0.6107689
60	0xbe20a0c7	-0.15686332
61	0xbeb93267	-0.36171266
62	0xbe39b859	-0.1813673
63	0x3e628e22	0.22124532

static_variable_selection.single_variable_grns.views_center.fc1.bias f4 [8]
0	0x00000000	0.0
1	0x00000000	0.0
2	0x00000000	0.0
3	0x00000000	0.0
4	0x00000000	0.0
5	0x00000000	0.0
6	0x00000000	0.0
7	0x00000000	0.0

static_variable_selection.single_variable_grns.views_center.fc2.weight f4 [8, 8]
0	0x3da7a6b8	0.08186096
1	0x3f098bf0	0.5372915
2	0x3ed62e6f	0.418323
3	0x3c4364be	0.011925874
4	0xbf429be6	-0.7601913
5	0x3e8786c1	0.26469997
6	0xbe481aaf	-0.19541429
7	0xbf76ecde	-0.9645518
8	0xbd9ecf27	-0.07754355
9	0x3f1ae4f9	0.60505635
10	0xbf89087a	-1.0705712
11	0xbe2de518	-0.16981924
12	0x3b701044	0.0036630789
13	0xbcd5bb1d	-0.0260902
14	0x3f157050	0.583745
15	0x3f5d7776	0.8651041
16	0xbeaa5354	-0.332667
17	0xbf26577f	-0.6497726
18	0xbe54a165	-0.20764692
19	0xbe843e7c	-0.25828922
20	0xbeb02c30	-0.34408712
21	0x3e73753c	0.2377519
22	0xbf373fc5	-0.7158168
23	0x3d92333d	0.07138679
24	0x3e355f82	0.17712215
25	0x3d3983ad	0.04529159
26	0x3f2d1bcc	0.6762054
27	0xbf112075	-0.5669015
28	0xbd90ac6f	-0.07064139
29	0xbea547ca	-0.32281333
30	0x3e51fd8e	0.2050688
31	0x3e2747c2	0.16335967
32	0x3f685825	0.907595
33	0x3e9b4abb	0.30330452
34	0x3e98ad44	0.2981969
35	0x3e8943e3	0.26809606
36	0x3f1e147b	0.6175
37	0xbdd93ba2	-0.10607077
38	0x3f31948c	0.6936729
39	0xbed32925	-0.41242328
40	0x3ebcba3a	0.3686083
41	0x3f13036e	0.5742711
42	0x3eb9d3ee	0.36294502
43	0xbe165b17	-0.14683186
44	0xbea0f0ce	-0.3143372
45	0xbcad20af	-0.021133749
46	0xbe0a43cc	-0.13502425
47	0x3f382a49	0.7193952
48	0x3daf81b9	0.085696645
49	0x3f23100d	0.63696367
50	0x3f2c291d	0.67250234
51	0x3fb870d3	1.4409431
52	0xbf1566e2	-0.5836011
53	0x3f787dae	0.9706677
54	0xbf14f126	-0.58180463
55	0xbf4c5f34	-0.7983277
56	0x3b075149	0.0020647815
57	0xbeca078c	-0.39458883
58	0x3eac1c7c	0.33615482
59	0xbef8af9b	-0.48571476
60	0x3d9c7d48	0.07641083
61	0x3eb9a014	0.36254942
62	0xbf31dbfb	-0.6947629
63	0x3f17fe20	0.5937214

static_variable_selection.single_variable_grns.views_center.fc2.bias f4 [8]
0	0x00000000	0.0
1	0x00000000	0.0
2	0x00000000	0.0
3	0x00000000	0.0
4	0x00000000	0.0
5	0x00000000	0.0
6	0x00000000	0.0
7	0x00000000	0.0

static_variable_selection.single_variable_grns.views_center.gate_norm.glu.fc.weight f4 [32, 8]
0	0xbead9532	-0.3390289
1	0x3e8ea364	0.27859032
2	0xbdf610b4	-0.120149046
3	0xbdea7e98	-0.11449927
4	0xbd2a7038	-0.041610926
5	0x3e90fb50	0.28316736
6	0x3e9879c4	0.297804
7	0x3d74f488	0.059803516
8	0x3e3d3c40	0.18480015
9	0xbeb8cfdd	-0.36096087
10	0x3a6fd600	0.0009149015
11	0xbeaf6e0d	-0.3426365
12	0x3e06fafc	0.1318168
13	0xbe8d46c3	-0.2759305
14	0xbe0d5908	-0.13803494
15	0x3e8a9d9a	0.27073365
16	0x3ebd82ea	0.37013942
17	0xbe6e1b63	-0.23252635
18	0xbe5c1d1d	-0.21495481
19	0x3d447758	0.047965378
20	0x3e1be72c	0.15224904
21	0xbd813030	-0.06308019
22	0xbdf7b460	-0.12094951
23	0xbe823ffe	-0.25439447
24	0x3e294bd0	0.16532826
25	0x3ec2489a	0.37946016
26	0xbe3ffb8e	-0.18748304
27	0x3e3b0f0c	0.18267459
28	0x3e41b1b4	0.18915445
29	0x3e9f63ee	0.31130928
30	0xbd349d60	-0.044095397
31	0x3c47dea0	0.012199074
32	0x3e91b03c	0.2845477
33	0x3e7ab138	0.24481666
34	0x3ec3dbf0	0.38253736
35	0xbde34dbc	-0.11098811
36	0x3e1ced40	0.15324879
37	0x3e8a7744	0.27044117
38	0xbe869b64	-0.2629043
39	0x3d9d92d8	0.07694024
40	0xbdb17a50	-0.086659074
41	0x3e7ef0a0	0.24896479
42	0xbe321ef5	-0.17394622
43	0x3cde8830	0.027164549
44	0x3e6d4940	0.23172474
45	0xbeb5a9bc	-0.3548106
46	0xbea76f2c	-0.32702005
47	0xbe4b20fd	-0.19836803
48	0x3e7e61c4	0.24841982
49	0x3e84f6a8	0.25969434
50	0xbe876e45	-0.26451316
51	0x3d97402c	0.07385287
52	0xbe5225b7	-0.205222
53	0xbe381477	-0.17976557
54	0x3eab03bc	0.33401287
55	0x3e3f8eec	0.18706864
56	0xbdd8ec50	-0.10591948
57	0x3d698448	0.05701092
58	0x3d99af7c	0.07504174
59	0x3db9cc04	0.09072116
60	0xbe07beda	-0.13256398
61	0xbe698c56	-0.2280744
62	0x3e8348fc	0.2564162
63	0x3d552a48	0.052042276
64	0x3e25fe7c	0.1621036
65	0xbe1633a5	-0.14668138
66	0x3e401908	0.18759549
67	0x3e905046	0.28186244
68	0x3e713298	0.23554456
69	0x3dd7aa08	0.10530478
70	0x3ec319ce	0.38105625
71	0xba5e0c00	-0.0008470416
72	0x3da8de00	0.08245468
73	0x3ebc685c	0.3679837
74	0x3ec0b95a	0.37641412
75	0xbe277323	-0.16352515
76	0x3eb2a05a	0.34887964
77	0x3e125de8	0.14293635
78	0xbd319330	-0.04335326
79	0x3ead245c	0.33816803
80	0xbe4d7270	-0.20063186
81	0x3e80d7d0	0.25164652
82	0x3ec48042	0.38379103
83	0xbe88c405	-0.2671205
84	0xbe6a06ea	-0.228542
85	0xbec47ebc	-0.3837794
86	0xbd8ebe6c	-0.06969914
87	0xbeb41805	-0.35174575
88	0xbe04d3f0	-0.12971473
89	0x3df0cec8	0.117581904
90	0x3e8c2bea	0.27377254
91	0x3e5ceaa4	0.21573883
92	0x3e5c2438	0.21498191
93	0x3e248844	0.16067606
94	0xbe75fb02	-0.24021533
95	0xbe9d7255	-0.3075129
96	0x3c8385b0	0.016054958
97	0x3ebc4c98	0.36777186
98	0x3cb2a4e0	0.021807134
99	0xbd0871a0	-0.033311486
100	0xbe869768	-0.2628739
101	0xbe44a570	-0.19203734
102	0xbe98dc19	-0.2985542
103	0x3e9ec51a	0.31009752
104	0xbd813bd4	-0.063102394
105	0xbeaf2d54	-0.3421427
106	0x3d2a2d80	0.0415473
107	0x3ce63d90	0.028105527
108	0xbd43fe90	-0.04785019
109	0x3e0df758	0.13863885
110	0x3e55479c	0.20828098
111	0xbeba7af3	-0.36421928
112	0xbe97e9db	-0.29670605
113	0xbc986b20	-0.018605769
114	0xbeb7d931	-0.3590789
115	0xbeb41ff2	-0.35180622
116	0x3eaf140a	0.34194976
117	0xbcf15150	-0.029457718
118	0xbe44126f	-0.19147657
119	0xbe0809cc	-0.13284987
120	0xbe9ad092	-0.30237252
121	0x3e9abe76	0.30223435
122	0xbdabfe68	-0.083981335
123	0xbe5efadd	-0.21775384
124	0xbe96640c	-0.29373205
125	0x3e67ce14	0.22637206
126	0xbd5b4968	-0.053536803
127	0xbd26a8f8	-0.040688485
128	0xbdcebb1c	-0.10094282
129	0xbe3f71dc	-0.18695778
130	0x3d8d19ac	0.06889662
131	0x3e98904c	0.2979759
132	0xbe65db95	-0.22447045
133	0x3c9803d0	0.018556505
134	0xbe96ceac	-0.29454553
135	0xbe39f628	-0.18160307
136	0x3eae0f16	0.33995885
137	0x3b8510c0	0.0040608346
138	0x3ebf05e6	0.37309188
139	0xbd8af83c	-0.06785628
140	0xbe582936	-0.2110947
141	0xbe6cf5c1	-0.23140623
142	0x3eafc0da	0.34326822
143	0xbe987cd4	-0.29782736
144	0x3e502148	0.20325196
145	0x3dc52c14	0.09627548
146	0x3dea1340	0.11429453
147	0x3e5fc620	0.21852922
148	0xbdcf8410	-0.10132611
149	0x3e7565c8	0.23964608
150	0xbe9dfccc	-0.3085693
151	0xbe0b89ba	-0.13626757
152	0x3e912954	0.28351843
153	0x3deb66e0	0.11494231
154	0xbd5342f0	-0.05157751
155	0xbdb93bc4	-0.090446025
156	0xbe722a6f	-0.23649
157	0x3e712a4c	0.23551291
158	0xbc49c9a0	-0.012316138
159	0xbc56b160	-0.013103813
160	0x3dbb9564	0.091593534
161	0x3e925530	0.28580618
162	0xbe4a55dd	-0.19759317
163	0xbe0895f6	-0.13338456
164	0x3e865f3e	0.2624454
165	0x3e5ffc30	0.21873546
166	0xbe43194b	-0.19052617
167	0xbec42ac5	-0.3831388
168	0x3d93252c	0.07184824
169	0x3e5090f0	0.2036779
170	0x3dbd7558	0.09250897
171	0x3e8ca79c	0.27471626
172	0xbe9d57e5	-0.3073112
173	0x3e47ff20	0.19530916
174	0xbe768dd1	-0.24077536
175	0x3e5f349c	0.21797413
176	0x3e9379e4	0.28803933
177	0x3dfb3710	0.12266362
178	0x3ea06fd6	0.31335324
179	0xbe82b526	-0.2552883
180	0xbeb15a11	-0.34639028
181	0xbebea9d2	-0.37238938
182	0x3e78fe70	0.2431581
183	0x3e0aee40	0.13567448
184	0xbe9134c5	-0.28360572
185	0x3e401008	0.18756115
186	0x3eb4edac	0.3533758
187	0xbec38985	-0.38190857
188	0x3e8fd940	0.28095436
189	0x3d734e88	0.059401065
190	0x3d1390e0	0.036026835
191	0x3eb26d12	0.3484884
192	0x3eb3935a	0.35073358
193	0x3e271aec	0.16318864
194	0x3e9cae62	0.30601794
195	0x3e24fe1c	0.1611256
196	0x3d813e40	0.06310701
197	0xbeae4e17	-0.34043953
198	0x3d942754	0.07234064
199	0xbe8d13d6	-0.27554196
200	0x3df43208	0.11923605
201	0x3d8bf1f0	0.06833255
202	0x3c0e8e60	0.008700937
203	0xbe8794ae	-0.2648062
204	0xbe7069f5	-0.2347792
205	0x3e929190	0.2862668
206	0x3e41260c	0.1886217
207	0x3e511990	0.20419908
208	0xbdec59f4	-0.11540595
209	0xbd889578	-0.06669134
210	0xbdcb46b0	-0.09925592
211	0x3e885e0c	0.26634252
212	0xbe2b3460	-0.16719198
213	0x3e79cce0	0.2439456
214	0x3e88b970	0.26703978
215	0xbeb55a7e	-0.35420603
216	0x3b1aff80	0.0023650825
217	0xbd9710b4	-0.07376233
218	0xbe5b3eea	-0.21410719
219	0x3e2b3764	0.16720349
220	0xbd40bc90	-0.047054827
221	0x3ead9c46	0.3390829
222	0xbe783abd	-0.24241157
223	0x3e384514	0.17995101
224	0xbea94de8	-0.3306725
225	0xbe46c800	-0.19412231
226	0x3cd86c30	0.026418775
227	0x3e9cac44	0.30600178
228	0x3e50e4b8	0.2039975
229	0xbea2d18e	-0.31800503
230	0x3d2fb728	0.04289928
231	0xbe69c9af	-0.22830842
232	0x3c897970	0.016781539
233	0xbea5321b	-0.3226479
234	0xbde8b334	-0.11362305
235	0x3e88014e	0.26563495
236	0xbeb5f1c7	-0.35536024
237	0xbebd0f85	-0.36925903
238	0x3d907978	0.07054418
239	0x3d597790	0.05309254
240	0xbd910ffc	-0.07083127
241	0x3ead27b6	0.3381936
242	0xbe6ec8d9	-0.23318805
243	0xbe70c39a	-0.23512116
244	0xbe9438da	-0.28949624
245	0xbd93a148	-0.07208496
246	0xbdca6cdc	-0.098840445
247	0x3e756418	0.23963964
248	0xbcb22590	-0.021746427
249	0x3dfd4ea0	0.12368512
250	0xbe24ce9d	-0.16094442
251	0x3ea0db58	0.31417346
252	0x3ea72afa	0.32649976
253	0xbeb196a3	-0.3468524
254	0xbdcbd948	-0.099535525
255	0xbea84118	-0.32862163

static_variable_selection.single_variable_grns.views_center.gate_norm.glu.fc.bias f4 [32]
0	0x00000000	0.0
1	0x00000000	0.0
2	0x00000000	0.0
3	0x00000000	0.0
4	0x00000000	0.0
5	0x00000000	0.0
6	0x00000000	0.0
7	0x00000000	0.0
8	0x00000000	0.0
9	0x00000000	0.0
10	0x00000000	0.0
11	0x00000000	0.0
12	0x00000000	0.0
13	0x00000000	0.0
14	0x00000000	0.0
15	0x00000000	0.0
16	0x00000000	0.0
17	0x00000000	0.0
18	0x00000000	0.0
19	0x00000000	0.0
20	0x00000000	0.0
21	0x00000000	0.0
22	0x00000000	0.0
23	0x00000000	0.0
24	0x00000000	0.0
25	0x00000000	0.0
26	0x00000000	0.0
27	0x00000000	0.0
28	0x00000000	0.0
29	0x00000000	0.0
30	0x00000000	0.0
31	0x00000000	0.0

static_variable_selection.single_variable_grns.views_center.gate_norm.add_norm.norm.weight f4 [16]
0	0x3f800000	1.0
1	0x3f800000	1.0
2	0x3f800000	1.0
3	0x3f800000	1.0
4	0x3f800000	1.0
5	0x3f800000	1.0
6	0x3f800000	1.0
7	0x3f800000	1.0
8	0x3f800000	1.0
9	0x3f800000	1.0
10	0x3f800000	1.0
11	0x3f800000	1.0
12	0x3f800000	1.0
13	0x3f800000	1.0
14	0x3f800000	1.0
15	0x3f800000	1.0

static_variable_selection.single_variable_grns.views_center.gate_norm.add_norm.norm.bias f4 [16]
0	0x00000000	0.0
1	0x00000000	0.0
2	0x00000000	0.0
3	0x00000000	0.0
4	0x00000000	0.0
5	0x00000000	0.0
6	0x00000000	0.0
7	0x00000000	0.0
8	0x00000000	0.0
9	0x00000000	0.0
10	0x00000000	0.0
11	0x00000000	0.0
12	0x00000000	0.0
13	0x00000000	0.0
14	0x00000000	0.0
15	0x00000000	0.0

static_variable_selection.single_variable_grns.views_scale.resample_norm.mask f4 [16]
0	0x00000000	0.0
1	0x00000000	0.0
2	0x00000000	0.0
3	0x00000000	0.0
4	0x00000000	0.0
5	0x00000000	0.0
6	0x00000000	0.0
7	0x00000000	0.0
8	0x00000000	0.0
9	0x00000000	0.0
10	0x00000000	0.0
11	0x00000000	0.0
12	0x00000000	0.0
13	0x00000000	0.0
14	0x00000000	0.0
15	0x00000000	0.0

static_variable_selection.single_variable_grns.views_scale.resample_norm.norm.weight f4 [16]
0	0x3f800000	1.0
1	0x3f800000	1.0
2	0x3f800000	1.0
3	0x3f800000	1.0
4	0x3f800000	1.0
5	0x3f800000	1.0
6	0x3f800000	1.0
7	0x3f800000	1.0
8	0x3f800000	1.0
9	0x3f800000	1.0
10	0x3f800000	1.0
11	0x3f800000	1.0
12	0x3f800000	1.0
13	0x3f800000	1.0
14	0x3f800000	1.0
15	0x3f800000	1.0

static_variable_selection.single_variable_grns.views_scale.resample_norm.norm.bias f4 [16]
0	0x00000000	0.0
1	0x00000000	0.0
2	0x00000000	0.0
3	0x00000000	0.0
4	0x00000000	0.0
5	0x00000000	0.0
6	0x00000000	0.0
7	0x00000000	0.0
8	0x00000000	0.0
9	0x00000000	0.0
10	0x00000000	0.0
11	0x00000000	0.0
12	0x00000000	0.0
13	0x00000000	0.0
14	0x00000000	0.0
15	0x00000000	0.0

static_variable_selection.single_variable_grns.views_scale.fc1.weight f4 [8, 8]
0	0x3ef7b569	0.48380592
1	0x3ddd6991	0.10811151
2	0x3ef599ae	0.4796881
3	0x3db6a8d8	0.08918923
4	0xbdb7a74c	-0.08967456
5	0xbe8ef140	-0.27918434
6	0xbee162bb	-0.44020638
7	0xbee10e6d	-0.43956318
8	0xbeca1e16	-0.3947608
9	0x3f48b8b8	0.7840686
10	0x3f49e914	0.78871274
11	0xbe65649b	-0.22401659
12	0x3f702e7e	0.9382094
13	0xbee45239	-0.4459398
14	0x3e60ee13	0.21965818
15	0xbf03f73c	-0.51549125
16	0xbf83435d	-1.0254933
17	0xbea149d3	-0.31501636
18	0xbddb387e	-0.107041344
19	0xbf2c4dcb	-0.673062
20	0xbcdbf313	-0.026849305
21	0xbf0a8854	-0.5411427
22	0x3e22ea60	0.1590972
23	0xbf8ec713	-1.1154503
24	0x3dfb0ecf	0.12258684
25	0x3e52b76d	0.20577784
26	0x3ebdbae7	0.37056658
27	0x3ef5feec	0.48046052
28	0xbf1c8f44	-0.61156106
29	0x3d205206	0.039140724
30	0xbd9f5bb1	-0.077811606
31	0x3e517a24	0.20456749
32	0x3e72d133	0.23712616
33	0xbf0cf077	-0.5505442
34	0xbe883497	-0.26602623
35	0xbe88d8cc	-0.26727903
36	0xbf33dc06	-0.70257604
37	0x3f7212b8	0.9455981
38	0x3f2e058b	0.6797721
39	0xbed948fd	-0.42438498
40	0xbef1f3dc	-0.47256362
41	0xbf2d72ba	-0.67753184
42	0xbf034b1d	-0.5128649
43	0xbedbb5ad	-0.42912045
44	0xbe731ba3	-0.23741011
45	0xbef5468b	-0.47905383
46	0xbe2b6c20	-0.16740465
47	0xbf5f8589	-0.87313133
48	0x3eb486f0	0.352592
49	0xbe741069	-0.23834385
50	0xbe281cba	-0.16417208
51	0x3e55991d	0.2085919
52	0x3f553815	0.832887
53	0xbf685071	-0.90747744
54	0xbe7a48de	-0.24441859
55	0x3e235baf	0.15952943
56	0xbee3c2ab	-0.44484457
57	0x3f98c2d3	1.1934456
58	0xbe3690fd	-0.17828746
59	0xbf7bb286	-0.9831928
60	0x3e31f2bc	0.17377752
61	0xbe4498a3	-0.19198851
62	0x3effe85e	0.4998197
63	0xbe52ef3c	-0.20599073

static_variable_selection.single_variable_grns.views_scale.fc1.bias f4 [8]
0	0x00000000	0.0
1	0x00000000	0.0
2	0x00000000	0.0
3	0x00000000	0.0
4	0x00000000	0.0
5	0x00000000	0.0
6	0x00000000	0.0
7	0x00000000	0.0

static_variable_selection.single_variable_grns.views_scale.fc2.weight f4 [8, 8]
0	0xbe9b7047	-0.30359098
1	0xbf667c5e	-0.9003352
2	0x3f6759ae	0.90371215
3	0xbf28707b	-0.6579663
4	0xbd83a031	-0.064270385
5	0x3f274375	0.65337306
6	0x3dc3eeab	0.09567007
7	0x3f30393f	0.6883735
8	0xbdb7eada	-0.08980341
9	0xbd663685	-0.056204338
10	0x3e0adcca	0.13560787
11	0x3f0fa34c	0.56108546
12	0x3fb2d5e3	1.3971523
13	0xbd2d582a	-0.042320408
14	0xbdf94bfe	-0.121726975
15	0xbf34b8f2	-0.70594704
16	0xbf736a32	-0.95083916
17	0x3e9ca56c	0.30594957
18	0xbe808773	-0.2510334
19	0x3e81bbac	0.25338495
20	0x3e10d38e	0.14143202
21	0xbf1738a8	-0.59070826
22	0xbee6715b	-0.45008358
23	0x3f868ac0	1.0511093
24	0x3e1020d3	0.14075021
25	0x3dde6a82	0.108601585
26	0x3ea5d4c9	0.32388905
27	0xbeaf4e03	-0.34239206
28	0xbecb874d	-0.39751664
29	0xbf5ddf5b	-0.8666894
30	0x3f17cb01	0.59294134
31	0x3e64a621	0.22328998
32	0xbeb8b113	-0.36072597
33	0xbe9e37f9	-0.3090208
34	0x3ed4af17	0.41539833
35	0xbf377f39	-0.716785
36	0xbee02860	-0.43780804
37	0x3b99bfd1	0.0046920558
38	0x3ea163d3	0.31521472
39	0x3edd0123	0.4316493
40	0x3d1ac685	0.03778698
41	0x3f497e77	0.78708595
42	0x3d8aa8dd	0.06770489
43	0xbecb9ea6	-0.39769477
44	0xbf0f8775	-0.56066066
45	0x3edba460	0.42898846
46	0xbf58bedf	-0.84666246
47	0x3e1426ce	0.14467928
48	0xbdc2f2c7	-0.09518962
49	0xbe612406	-0.21986398
50	0x3ee3df9e	0.44506544
51	0x3e44f6d2	0.1923478
52	0x3daec1ef	0.08533084
53	0x3f2e4089	0.6806722
54	0xbe03ce3f	-0.12871645
55	0x3b5aaeb2	0.0033368287
56	0xbba9ddd0	-0.005183913
57	0xbe761284	-0.240305
58	0xbc07a173	-0.008278239
59	0xbf01c262	-0.5068723
60	0x3f003e62	0.5009519
61	0x3ede025b	0.43361172
62	0x3dfad79d	0.12248156
63	0x3f2720cb	0.65284413

static_variable_selection.single_variable_grns.views_scale.fc2.bias f4 [8]
0	0x00000000	0.0
1	0x00000000	0.0
2	0x00000000	0.0
3	0x00000000	0.0
4	0x00000000	0.0
5	0x00000000	0.0
6	0x00000000	0.0
7	0x00000000	0.0

static_variable_selection.single_variable_grns.views_scale.gate_norm.glu.fc.weight f4 [32, 8]
0	0xbe19156d	-0.1494958
1	0xbe09754c	-0.13423651
2	0xbd5e03b0	-0.054202735
3	0x3e3c0628	0.18361723
4	0x3e110fa0	0.14166117
5	0x3e8fc1e0	0.28077602
6	0xbc8ef450	-0.017450482
7	0x3ea40282	0.32033163
8	0xbe21175c	-0.15731567
9	0xbe36a703	-0.17837147
10	0xbe127600	-0.14302826
11	0xbeba0b29	-0.3633664
12	0xbe822b80	-0.25423813
13	0xbeb36f09	-0.3504565
14	0xbcbb8080	-0.022888422
15	0x3b6f4980	0.0036512315
16	0xbdcddd8c	-0.10052022
17	0xbe878343	-0.26467332
18	0x3eb3e992	0.35139138
19	0xbe03684a	-0.12832752
20	0x3e3cff6c	0.1845681
21	0x3e8a188c	0.26971853
22	0xbe825a0b	-0.25459322
23	0xbd465560	-0.048421264
24	0x3e6537d4	0.22384578
25	0x3ec03884	0.37543118
26	0xbd482380	-0.04886198
27	0x3e8fb0c0	0.28064537
28	0xbe9ba2ec	-0.30397737
29	0xbe80d75a	-0.251643
30	0x3ea310fe	0.31848902
31	0xbd163280	-0.036669254
32	0x3ec3e6de	0.38262075
33	0x3ce6b6a0	0.028163254
34	0xbe24788f	-0.16061614
35	0x3ebc5354	0.36782324
36	0x3ead6842	0.33868605
37	0x3d133998	0.035943598
38	0xbe706ac7	-0.23478232
39	0xbc895ed0	-0.016768843
40	0xbe3eba7f	-0.1862583
41	0x3e907ec0	0.28221703
42	0x3c92f910	0.017941028
43	0x3da6fba0	0.081534624
44	0x3e708524	0.23488289
45	0x3e035e44	0.12828928
46	0xbe77947b	-0.24177735
47	0x3ea4badc	0.32173812
48	0x3e73a524	0.23793465
49	0xbe74d4e1	-0.23909332
50	0x3e95eec8	0.29283738
51	0x3de107a8	0.109877884
52	0xbd9c2350	-0.07623923
53	0xbe8dd088	-0.2769816
54	0xbd839b9c	-0.064261645
55	0xbec26b32	-0.3797241
56	0x3e625c30	0.22105479
57	0x3e8f9dfc	0.2805022
58	0xbde45b64	-0.11150244
59	0x3eb7d4b8	0.3590448
60	0xbe12daeb	-0.14341323
61	0x3d87d500	0.066324234
62	0xbe8a311c	-0.26990592
63	0xbc862380	-0.01637435
64	0x3e2050a0	0.15655756
65	0x3e2ad398	0.16682279
66	0xbc54c7c0	-0.012987077
67	0xbe47fcb7	-0.19529997
68	0x3e8a9b46	0.2707159
69	0x3e834918	0.25641704
70	0x3d7e9508	0.062153846
71	0xbe366241	-0.17810918
72	0x3da82d08	0.08211714
73	0x3a87be00	0.0010356307
74	0x3eb52a1c	0.3538369
75	0x3d6b16d0	0.057394803
76	0x3cf4b650	0.02987209
77	0x3cd8e330	0.026475519
78	0x3e52fdcc	0.20604628
79	0xbb9ccec0	-0.0047853887
80	0x3ea9f80c	0.33197057
81	0x3e4e9f08	0.20177853
82	0xbe95d6a0	-0.29265308
83	0xb6950000	-4.440546e-06
84	0xbea850ce	-0.3287415
85	0xbe984102	-0.29737097
86	0x3d9a1c5c	0.0752494
87	0x3db23e74	0.08703318
88	0xbd0ad3c0	-0.033893347
89	0x3ebc7940	0.36811256
90	0xbe550e01	-0.20806123
91	0xbe2634e9	-0.16231121
92	0xbd7e0d08	-0.062024146
93	0x3b19e500	0.0023482442
94	0xbd065ea0	-0.032805085
95	0x3eb28b50	0.34871912
96	0xbe277ff4	-0.16357404
97	0xbe4f72b9	-0.20258607
98	0x3d085950	0.0332883
99	0x3e94efea	0.2908929
100	0x3dbc4474	0.09192744
101	0x3e55a868	0.20865023
102	0x3d998ca0	0.07497525
103	0x3ea9018c	0.33008993
104	0x3e6e3414	0.23262054
105	0x3e8de51c	0.2771386
106	0xbd55ab38	-0.05216524
107	0xbea42b43	-0.32064256
108	0xbe3c213a	-0.1837205
109	0x3e071b5c	0.1319403
110	0x3e8b1d4c	0.2717079
111	0xbe1af369	-0.15131916
112	0x3ea41314	0.32045805
113	0x3d6400e8	0.055664927
114	0x3ac9a300	0.0015383661
115	0x3c776020	0.015098602
116	0xbd8c2268	-0.068425
117	0x3eb9a4a6	0.3625843
118	0x3c89cef0	0.016822308
119	0x3e72eac4	0.23722368
120	0xbea75d7e	-0.32688516
121	0xbe4c5553	-0.19954424
122	0x3d325dd8	0.043546528
123	0x3e9e5704	0.30925763
124	0x3e3cd02c	0.18438786
125	0x3d9711ec	0.07376465
126	0xbec3ea60	-0.3826475
127	0x3bee95c0	0.007281035
128	0xbe82e561	-0.25565627
129	0xbea951ee	-0.3307032
130	0x3d58ed20	0.052960515
131	0xbe7aed44	-0.24504572
132	0x3eb3fb5e	0.35152715
133	0xbe5790ad	-0.21051283
134	0x3dff9e70	0.124813914
135	0x3e68c920	0.22732973
136	0xbe9a1fa5	-0.30102268
137	0x3e4af7f8	0.19821155
138	0xbd5468c8	-0.05185774
139	0x3e4d8000	0.2006836
140	0x3ebfe60e	0.37480205
141	0xbe2903b3	-0.16505317
142	0xbe2bc426	-0.16774043
143	0x3e9d8e78	0.30772758
144	0x3d3067d0	0.043067753
145	0xbd1e36a8	-0.038626343
146	0x3e967104	0.293831
147	0xbe3f9c9e	-0.18712088
148	0xbc9ca870	-0.019123286
149	0x3e88348a	0.26602584
150	0x3e1afe3c	0.15136045
151	0xbe8042e3	-0.2505103
152	0x3dce2994	0.10066524
153	0xbe973051	-0.2952905
154	0xbe576120	-0.21033144
155	0x3e7f03a8	0.24903738
156	0xbdd364e4	-0.10321978
157	0xbe4a01fa	-0.19727316
158	0x3ce0e450	0.027452618
159	0x3dc1d4d4	0.09464422
160	0xbe76877a	-0.24075118
161	0xbe85b95c	-0.2611798
162	0xbec00b56	-0.3750865
163	0x3dccf24c	0.10007152
164	0xbe7fe4d1	-0.2498963
165	0x3cf1ca30	0.029515356
166	0xbdb1671c	-0.08662245
167	0xbe81a887	-0.2532389
168	0xbdfd1ae4	-0.123586446
169	0xbe986dc1	-0.29771236
170	0xbe51ee13	-0.20500974
171	0xbc45cc00	-0.012072563
172	0xbea986e3	-0.33110723
173	0xbeade9b2	-0.33967358
174	0x3e948948	0.29010987
175	0x3d154658	0.03644404
176	0xbe2f651e	-0.17128417
177	0xbc52fac0	-0.012877166
178	0x3e930cca	0.28720695
179	0xbea56ea2	-0.3231097
180	0xbe524471	-0.20533921
181	0xbe8f657b	-0.2800711
182	0xbce6a970	-0.028156966
183	0xbc5a5de0	-0.013328046
184	0xbe9a88a8	-0.30182385
185	0x3e89a274	0.26881754
186	0xbe9846a8	-0.29741406
187	0x3eb9230e	0.36159557
188	0xbe888058	-0.2666042
189	0xbd5967c8	-0.05307749
190	0x3d9450cc	0.07241973
191	0xbe3046e1	-0.17214538
192	0x3eb65cae	0.35617584
193	0xbe88b66c	-0.26701677
194	0xbcafdc40	-0.021467328
195	0xbe919a01	-0.28437808
196	0x3ddc2e68	0.10751039
197	0x3ea910b4	0.33020556
198	0x3eb7eff4	0.35925257
199	0x3d3c5308	0.045977622
200	0xbe468d7c	-0.1938991
201	0x3ec0b6b6	0.37639397
202	0x3cecc890	0.02890423
203	0x3e8629bc	0.26203716
204	0xbe4dff61	-0.2011695
205	0xbe380e70	-0.17974257
206	0xbea49cdd	-0.32150927
207	0x3eb6753e	0.35636324
208	0x3d8393c4	0.064246684
209	0xbe8e6a24	-0.27815354
210	0x3d084078	0.033264607
211	0xbe2a19da	-0.16611424
212	0x3c9e7fd0	0.019348055
213	0x3e03a374	0.12855321
214	0xbe44cdb1	-0.1921909
215	0x3d8a6920	0.06758332
216	0xbe7a66e0	-0.24453306
217	0x3d98d800	0.07463074
218	0xbebf7675	-0.37395063
219	0x3d7cca80	0.061716557
220	0x3ec502fa	0.38478833
221	0x3eb6a756	0.35674542
222	0x3e10ab7c	0.14127916
223	0x3e91e9a0	0.28498554
224	0x3ec0cbaa	0.37655383
225	0x3de0c3cc	0.10974845
226	0x3e044568	0.12917101
227	0x3d4e4860	0.05036199
228	0x3eaf8eda	0.34288675
229	0x3eaa5850	0.33270502
230	0xbe3a8091	-0.18213107
231	0xbc826e20	-0.015921652
232	0xbe47d229	-0.19513763
233	0x3e0e4f4c	0.13897437
234	0xbec025de	-0.3752889
235	0x3e0c5784	0.1370526
236	0xbdd9b05c	-0.10629341
237	0x3e0fd350	0.14045453
238	0x3df78f00	0.12087822
239	0xbe455a36	-0.19272694
240	0x3e4dc1c4	0.20093447
241	0x3e2869d8	0.16446626
242	0xbea88f72	-0.3292194
243	0x3ec5d9da	0.3864277
244	0x3eaaaf40	0.3333683
245	0x3e76c0e0	0.24097013
246	0xbd210450	-0.039310753
247	0x3e0c821c	0.13721508
248	0xbe569030	-0.2095344
249	0xbe06c31c	-0.13160366
250	0x3e3b2cfc	0.18278879
251	0x3e308cfc	0.17241281
252	0x3e1d0b90	0.15336442
253	0xbebd1f83	-0.36938104
254	0x3ea4530a	0.32094604
255	0xbe25a6e2	-0.16176942

static_variable_selection.single_variable_grns.views_scale.gate_norm.glu.fc.bias f4 [32]
0	0x00000000	0.0
1	0x00000000	0.0
2	0x00000000	0.0
3	0x00000000	0.0
4	0x00000000	0.0
5	0x00000000	0.0
6	0x00000000	0.0
7	0x00000000	0.0
8	0x00000000	0.0
9	0x00000000	0.0
10	0x00000000	0.0
11	0x00000000	0.0
12	0x00000000	0.0
13	0x00000000	0.0
14	0x00000000	0.0
15	0x00000000	0.0
16	0x00000000	0.0
17	0x00000000	0.0
18	0x00000000	0.0
19	0x00000000	0.0
20	0x00000000	0.0
21	0x00000000	0.0
22	0x00000000	0.0
23	0x00000000	0.0
24	0x00000000	0.0
25	0x00000000	0.0
26	0x00000000	0.0
27	0x00000000	0.0
28	0x00000000	0.0
29	0x00000000	0.0
30	0x00000000	0.0
31	0x00000000	0.0

static_variable_selection.single_variable_grns.views_scale.gate_norm.add_norm.norm.weight f4 [16]
0	0x3f800000	1.0
1	0x3f800000	1.0
2	0x3f800000	1.0
3	0x3f800000	1.0
4	0x3f800000	1.0
5	0x3f800000	1.0
6	0x3f800000	1.0
7	0x3f800000	1.0
8	0x3f800000	1.0
9	0x3f800000	1.0
10	0x3f800000	1.0
11	0x3f800000	1.0
12	0x3f800000	1.0
13	0x3f800000	1.0
14	0x3f800000	1.0
15	0x3f800000	1.0

static_variable_selection.single_variable_grns.views_scale.gate_norm.add_norm.norm.bias f4 [16]
0	0x00000000	0.0
1	0x00000000	0.0
2	0x00000000	0.0
3	0x00000000	0.0
4	0x00000000	0.0
5	0x00000000	0.0
6	0x00000000	0.0
7	0x00000000	0.0
8	0x00000000	0.0
9	0x00000000	0.0
10	0x00000000	0.0
11	0x00000000	0.0
12	0x00000000	0.0
13	0x00000000	0.0
14	0x00000000	0.0
15	0x00000000	0.0

static_variable_selection.prescalers.encoder_length.weight f4 [8, 1]
0	0x3f43b8cc	0.7645385
1	0x3f547b66	0.8300079
2	0xbe6fe520	-0.23427248
3	0x3f6b2a1c	0.9186113
4	0xbe605cb0	-0.21910357
5	0x3e4ea238	0.20179069
6	0xbef94510	-0.48685503
7	0x3f165828	0.58728266

static_variable_selection.prescalers.encoder_length.bias f4 [8]
0	0x3f61accc	0.8815429
1	0xbf3bcf0e	-0.73362815
2	0x3f5e83a4	0.8691962
3	0x3e3fa6b0	0.1871593
4	0x3f3d2294	0.7388089
5	0x3e0aae50	0.13543057
6	0x3ef6e15c	0.4821881
7	0xbe109460	-0.141191

static_variable_selection.prescalers.views_center.weight f4 [8, 1]
0	0x3f4558c6	0.7708858
1	0x3e175b38	0.14780891
2	0xbeef05a4	-0.4668399
3	0x3e828208	0.2548983
4	0xbeebe5ac	-0.46073663
5	0xbdf02cc0	-0.117272854
6	0xbecff3fc	-0.40615833
7	0x3f29d2ae	0.66337097

static_variable_selection.prescalers.views_center.bias f4 [8]
0	0xbf4a142a	-0.7893702
1	0xbeec098c	-0.46101034
2	0xbe90936c	-0.28237474
3	0xbf19ecfe	-0.60127246
4	0x3dc14bf0	0.09438312
5	0xbf7cd88a	-0.9876791
6	0x3f673228	0.9031091
7	0xbf5976c0	-0.84946823

static_variable_selection.prescalers.views_scale.weight f4 [8, 1]
0	0x3f45a396	0.7720274
1	0x3e2a69c8	0.16641915
2	0xbea63fac	-0.32470453
3	0x3f1e31f8	0.61794996
4	0x3e1f9758	0.15585077
5	0x3f4ed6b0	0.8079634
6	0x3ddfe300	0.10931969
7	0xbea17898	-0.31537318

static_variable_selection.prescalers.views_scale.bias f4 [8]
0	0x3e8990e8	0.26868367
1	0xbe8ad808	-0.27117944
2	0x3ed77aa4	0.42085755
3	0x3f648ffe	0.89282215
4	0x3f13fbb6	0.57805955
5	0xbedfd514	-0.43717253
6	0x3f13c79e	0.57726467
7	0x3e373870	0.17892623

encoder_variable_selection.single_variable_grns.relative_time_idx.resample_norm.mask f4 [16]
0	0x00000000	0.0
1	0x00000000	0.0
2	0x00000000	0.0
3	0x00000000	0.0
4	0x00000000	0.0
5	0x00000000	0.0
6	0x00000000	0.0
7	0x00000000	0.0
8	0x00000000	0.0
9	0x00000000	0.0
10	0x00000000	0.0
11	0x00000000	0.0
12	0x00000000	0.0
13	0x00000000	0.0
14	0x00000000	0.0
15	0x00000000	0.0

encoder_variable_selection.single_variable_grns.relative_time_idx.resample_norm.norm.weight f4 [16]
0	0x3f800000	1.0
1	0x3f800000	1.0
2	0x3f800000	1.0
3	0x3f800000	1.0
4	0x3f800000	1.0
5	0x3f800000	1.0
6	0x3f800000	1.0
7	0x3f800000	1.0
8	0x3f800000	1.0
9	0x3f800000	1.0
10	0x3f800000	1.0
11	0x3f800000	1.0
12	0x3f800000	1.0
13	0x3f800000	1.0
14	0x3f800000	1.0
15	0x3f800000	1.0

encoder_variable_selection.single_variable_grns.relative_time_idx.resample_norm.norm.bias f4 [16]
0	0x00000000	0.0
1	0x00000000	0.0
2	0x00000000	0.0
3	0x00000000	0.0
4	0x00000000	0.0
5	0x00000000	0.0
6	0x00000000	0.0
7	0x00000000	0.0
8	0x00000000	0.0
9	0x00000000	0.0
10	0x00000000	0.0
11	0x00000000	0.0
12	0x00000000	0.0
13	0x00000000	0.0
14	0x00000000	0.0
15	0x00000000	0.0

encoder_variable_selection.single_variable_grns.relative_time_idx.fc1.weight f4 [8, 8]
0	0xbef96788	-0.487118
1	0x3e9f7a6c	0.31148088
2	0xbe3119c3	-0.17294984
3	0xbf5caa0c	-0.8619697
4	0xbefdabce	-0.4954514
5	0x3f7a43fd	0.9775999
6	0xbd05c9f2	-0.032663293
7	0x3d95cff9	0.07315058
8	0xbbab1f96	-0.005222271
9	0x3f0eaf47	0.557362
10	0xbf16d754	-0.58922315
11	0x3eafc73e	0.34331697
12	0x3f483ec0	0.7822075
13	0x3f01b100	0.50660706
14	0xbf1306f2	-0.5743247
15	0xbecaa3c3	-0.39578065
16	0x3f524903	0.8214266
17	0xbe4e116f	-0.20123838
18	0xbeb1522e	-0.3463301
19	0x3e93f69e	0.2889909
20	0xbc2c5eaf	-0.010520621
21	0xbd8d52a7	-0.0690053
22	0x3d4b8302	0.049685486
23	0xbda6c0cd	-0.081422426
24	0xbf714895	-0.94251376
25	0xbec936b0	-0.39299536
26	0xbf23195a	-0.6371056
27	0xbf0802a6	-0.5312904
28	0xbea1f0c4	-0.31629002
29	0xbea11b61	-0.314662
30	0xbf56a147	-0.8383984
31	0x3eac228d	0.3362011
32	0x3e062dd4	0.1310342
33	0x3e809e03	0.25120553
34	0xbe73afe7	-0.2379757
35	0x3f54de3d	0.8315161
36	0xbf3a2bbb	-0.7272298
37	0xbded03f5	-0.1157302
38	0x3e8e1476	0.27749985
39	0x3e26254a	0.16225162
40	0xbeaee3be	-0.34158128
41	0x3ee49af2	0.44649464
42	0x3f556a07	0.8336491
43	0xbf01be19	-0.5068069
44	0xbf322c09	-0.6959844
45	0x3ee2ba38	0.442827
46	0x3eea89b4	0.45808184
47	0x3e785c4a	0.24253955
48	0x3f88619e	1.065479
49	0x3df9eae9	0.12203009
50	0x3f0b87c8	0.5450406
51	0x3ec598ff	0.3859329
52	0x3c091e85	0.008369093
53	0x3eae2bdb	0.34017834
54	0xbd84f301	-0.06491662
55	0x3d474c3b	0.048656683
56	0xbe3c9d14	-0.18419296
57	0xbdac5dd7	-0.08416336
58	0x3f8301b2	1.0234892
59	0xbf802508	-1.0011301
60	0xbf1d7e8d	-0.61521226
61	0x3ee085bc	0.4385203
62	0xbf85e5c9	-1.046075
63	0x3f4bff1c	0.7968614

encoder_variable_selection.single_variable_grns.relative_time_idx.fc1.bias f4 [8]
0	0x00000000	0.0
1	0x00000000	0.0
2	0x00000000	0.0
3	0x00000000	0.0
4	0x00000000	0.0
5	0x00000000	0.0
6	0x00000000	0.0
7	0x00000000	0.0

encoder_variable_selection.single_variable_grns.relative_time_idx.fc2.weight f4 [8, 8]
0	0x3e32a2c0	0.17444897
1	0xbf16be09	-0.5888372
2	0x3efc0866	0.49225157
3	0x3ecadd6a	0.3962205
4	0xbe1d83ce	-0.15382311
5	0x3ead0fc0	0.3380108
6	0x3fab8e90	1.3402882
7	0xbedeeb3c	-0.43538845
8	0x3e930589	0.2871516
9	0x3dc514d3	0.096231125
10	0x3e5c5e8b	0.2152044
11	0x3e87f5b8	0.26554656
12	0x3e883406	0.2660219
13	0xbf4aeb2e	-0.79265106
14	0x3f9b02b7	1.2110204
15	0x3e74578a	0.23861519
16	0xbdfd68fd	-0.123735406
17	0xbe09b8dc	-0.13449425
18	0x3d87c7d2	0.066299096
19	0x3e729891	0.23691012
20	0x3c7e6845	0.0155277895
21	0xbd9882ac	-0.07446799
22	0xbe3afbfe	-0.1826019
23	0xbf6866d9	-0.90781933
24	0xbeb2f143	-0.34949693
25	0xbd3c73b1	-0.04600877
26	0xbefb2c74	-0.49057353
27	0x3f031213	0.51199454
28	0xbf04aebb	-0.5182912
29	0xbf7fb7ec	-0.9989002
30	0x3f412006	0.7543949
31	0x3dc93e36	0.09826319
32	0x3e12c8a2	0.14334348
33	0x3e374227	0.17896329
34	0xbf04a27b	-0.51810426
35	0x3f0015fc	0.50033545
36	0x3eb47280	0.35243607
37	0xbeb2a5ac	-0.34892023
38	0x3e721ad4	0.23643047
39	0xbea81a6d	-0.3283266
40	0xbe57b354	-0.21064502
41	0x3c77b6da	0.015119279
42	0xbe8e9df9	-0.278549
43	0xbee2072d	-0.441461
44	0xbeb4cd50	-0.3531289
45	0xbf23d708	-0.63999987
46	0x3d8b30fa	0.06796451
47	0xbe0fe88f	-0.14053558
48	0x3ee272cd	0.4422821
49	0xbec172f7	-0.37783024
50	0x3f8194aa	1.0123494
51	0xbea357dd	-0.31902972
52	0x3e889f11	0.26683858
53	0x3dac19e8	0.08403379
54	0xbf0a505d	-0.54028875
55	0x3edd8224	0.43263352
56	0xbc8c7939	-0.017147647
57	0xbe90c63c	-0.2827624
58	0x3e612a5f	0.2198882
59	0xbea0b440	-0.3138752
60	0xbd956b81	-0.07295895
61	0xbe58e1b2	-0.21179846
62	0xbf3e7c4d	-0.7440842
63	0x3edbb36b	0.42910323

encoder_variable_selection.single_variable_grns.relative_time_idx.fc2.bias f4 [8]
0	0x00000000	0.0
1	0x00000000	0.0
2	0x00000000	0.0
3	0x00000000	0.0
4	0x00000000	0.0
5	0x00000000	0.0
6	0x00000000	0.0
7	0x00000000	0.0
