DNN.pth (torch, 2079 bytes, 3 tensors)

hidden1.weight f4 [15, 7]
0	0xbcc6240b	-0.024187109
1	0xbeb42a58	-0.35188556
2	0x3e7def2e	0.24798271
3	0x3ec46129	0.38355377
4	0x3dc1b133	0.09457626
5	0x3ea18aac	0.3155111
6	0x3d1bb769	0.03801671
7	0xbe8609af	-0.26179263
8	0xbe30a4dc	-0.17250389
9	0xbe99b772	-0.3002277
10	0xbc88234b	-0.016618391
11	0x3e2e7bce	0.17039415
12	0xbe5a8589	-0.21340002
13	0x3e9182ef	0.28420207
14	0xbedc2c24	-0.43002427
15	0x3c835994	0.016033925
16	0xbe4936f7	-0.19649874
17	0x3df1e558	0.11811322
18	0x3ddcec9f	0.107873194
19	0xbe342a82	-0.1759434
20	0xbea3d85d	-0.3200101
21	0xbea675e8	-0.3251183
22	0xbe960da6	-0.29307288
23	0xbcf83150	-0.030296952
24	0x3e78c88e	0.24295256
25	0xbd2d7440	-0.042347193
26	0xbe647b77	-0.22312723
27	0xbe96f74f	-0.29485556
28	0x3e679fe6	0.2261959
29	0x3e794aa6	0.24344882
30	0xbe71732d	-0.23579092
31	0x3e85e069	0.26147774
32	0xbe5ba8fa	-0.21451178
33	0xbc864510	-0.016390353
34	0xbebe06a0	-0.3711443
35	0xbeb8881c	-0.36041343
36	0x3e65eb22	0.22452977
37	0x3ebd28ab	0.3694509
38	0x3e671ef2	0.22570398
39	0x3d617bca	0.055049695
40	0x3efd7289	0.49501446
41	0x3ee15c65	0.44015804
42	0xbe11af64	-0.14227062
43	0xbe46aa78	-0.19400966
44	0x3e1db2bd	0.15400214
45	0x3e9284c0	0.28616905
46	0xbe35e1a0	-0.1776185
47	0x3f25be3e	0.6474341
48	0x3ec3ca00	0.3824005
49	0xbe341e96	-0.17589793
50	0x3da4f610	0.08054745
51	0x3ea57576	0.32316178
52	0xbeac894c	-0.336985
53	0xbe5de54a	-0.21669498
54	0xbeb81ab3	-0.3595787
55	0xbee01f89	-0.4377406
56	0x3e971c6d	0.29513875
57	0x3dda841c	0.10669729
58	0xbce7ca10	-0.028294593
59	0xbd737048	-0.05943325
60	0xbe3bcb2e	-0.18339226
61	0x3d2db3c0	0.04240775
62	0xbeb1e114	-0.34742033
63	0x3eaa6704	0.3328172
64	0x3e01bb24	0.12669045
65	0x3e27da65	0.16391905
66	0x3ee79140	0.45228004
67	0x3d3e7767	0.04650059
68	0x3d8a4d6d	0.06753049
69	0x3ebd5ea8	0.3698628
70	0x3e1eb0f8	0.15497196
71	0x3d6eee6d	0.05833285
72	0x3da384ba	0.079843
73	0x3df6c6d8	0.12049645
74	0xbd39b666	-0.045339964
75	0x3efd505b	0.4947537
76	0x3d854a53	0.06508317
77	0x3e1f0643	0.15529732
78	0x3ebb1644	0.36540425
79	0xbe33dc6e	-0.17564556
80	0x3e822e7a	0.25426084
81	0x3e158476	0.14601311
82	0x3f09d90b	0.53846806
83	0xbd74c690	-0.059759676
84	0x3e4ef70d	0.2021143
85	0x3c234325	0.009964739
86	0x3d9f3fc2	0.07775833
87	0xbd86ce39	-0.065823026
88	0xbe807586	-0.25089663
89	0x3e614df0	0.22002387
90	0xbde209d5	-0.110370316
91	0xbe5d4754	-0.21609241
92	0xbe1dcb0c	-0.15409487
93	0x3ead07ff	0.33795163
94	0x3e56e8ec	0.2098729
95	0xbe7daafb	-0.24772255
96	0xbe96e6ae	-0.2947287
97	0xbef96a4a	-0.48713905
98	0x3e0a4b55	0.135053
99	0x3dedff07	0.11620908
100	0xbe34cafe	-0.1765556
101	0x3dff905a	0.12478705
102	0x3e0b91db	0.13629858
103	0xbe65192a	-0.2237288
104	0xbd83e88c	-0.06440839

hidden1.bias f4 [15]
0	0x3e01d096	0.12677225
1	0xbc866c4b	-0.01640906
2	0xbea48a62	-0.32136828
3	0xbe992f43	-0.2991887
4	0xbe63d921	-0.22250797
5	0x3e57c2c5	0.21070392
6	0x3e61634a	0.22010532
7	0x3cb86173	0.022507405
8	0x3ea2c0c9	0.31787708
9	0x3ea35891	0.31903508
10	0x3d70a9e6	0.058755778
11	0xbe3ceb64	-0.1844917
12	0x3e18070c	0.14846438
13	0x3e9b172b	0.30291113
14	0xbe8e610d	-0.2780842

hidden2.weight f4 [1, 15]
0	0x3e2acb20	0.16679049
1	0xbe559882	-0.20858958
2	0xbd8ed10d	-0.06973467
3	0x3e65885c	0.22415298
4	0xbd74f214	-0.059801176
5	0x3ddd864e	0.10816632
6	0x3e8a295a	0.26984674
7	0xbeaf3ae4	-0.34224617
8	0xbe42a8de	-0.1900973
9	0x3e87d3b9	0.2652872
10	0x3da13e31	0.0787319
11	0x3e319892	0.17343357
12	0xbdc3a2d6	-0.09552543
13	0xbe268d9a	-0.16264954
14	0xbe57c17f	-0.21069907
