DNN.pth (torch, 3671 bytes, 5 tensors)

hidden1.weight f4 [15, 14]
0	0xbddbbfcb	-0.10729941
1	0xbe2f9bed	-0.17149325
2	0x3e626b00	0.2211113
3	0xbe8e1242	-0.27748305
4	0x3e2ea0b2	0.17053488
5	0x3dfe16fc	0.12406728
6	0xbf8cce37	-1.1000432
7	0xbd346563	-0.044042002
8	0xbe7f8e78	-0.24956691
9	0x3e541808	0.20712292
10	0xbdb6db98	-0.08928603
11	0x3df5e47e	0.12006472
12	0xbe4b96b0	-0.19881701
13	0x3db895ea	0.09012969
14	0x3dce1124	0.10061863
15	0x3e448de4	0.19194752
16	0xbabd76f5	-0.0014455008
17	0xbeb48880	-0.3526039
18	0x3c2c23cd	0.010506582
19	0xbe9e95c4	-0.30973637
20	0xbe90218e	-0.281506
21	0xbdcb0192	-0.09912409
22	0x3e519d7e	0.20470235
23	0xbdc8eb28	-0.098104775
24	0xbd2d3afb	-0.042292576
25	0x3b878283	0.0041354313
26	0x3e907ed0	0.2822175
27	0x3e7ee4ac	0.24891919
28	0xbe8740f4	-0.26416743
29	0x3e2d9289	0.1695043
30	0x3e2018b2	0.1563442
31	0xbe23f05b	-0.16009657
32	0x3da2e4f1	0.07953823
33	0xbe1eb230	-0.1549766
34	0xbf70f8fa	-0.9412991
35	0xbe821f2b	-0.25414404
36	0x3e4bfd4f	0.19920848
37	0x3dbbb963	0.09166219
38	0xbe109f8e	-0.14123365
39	0x3d839254	0.06424394
40	0x3e5f357e	0.2179775
41	0x3e20d4d0	0.15706182
42	0xbe068267	-0.13135682
43	0x3e8d2733	0.2756897
44	0x3d509e5c	0.050932273
45	0xbbc79089	-0.006090228
46	0x3d9eee4c	0.07760295
47	0x3e89dd08	0.26926446
48	0x3f6b5184	0.9192126
49	0x3ed790c1	0.42102626
50	0x3d0bf578	0.034169644
51	0xbdd3d975	-0.10344211
52	0xbe1536e8	-0.14571726
53	0x3de3924a	0.11111887
54	0x3e7edd7c	0.24889177
55	0x3eb6af67	0.35680696
56	0xbd9a2e42	-0.07528354
57	0x3e554972	0.20828798
58	0x3e55b567	0.20869981
59	0x3d2fe8c0	0.042946577
60	0x3e632657	0.22182594
61	0x3eacfdcc	0.33787382
62	0x3f3c2fc6	0.73510396
63	0x3f025c9f	0.5092258
64	0xbd182d31	-0.037152473
65	0xbdcdcc15	-0.10048691
66	0x3e834165	0.2563583
67	0x3e6d71e9	0.23187985
68	0xbdc81e54	-0.0977141
69	0x3e127b77	0.1430491
70	0xbecd5a30	-0.4010787
71	0x3dfe2a19	0.12410373
72	0xbb0ac7bb	-0.0021176178
73	0x3d5fa251	0.054598156
74	0x3dc775b8	0.0973925
75	0x3e089557	0.13338219
76	0x3d45f289	0.048327003
77	0xbec0472a	-0.37554294
78	0xbe4fbee4	-0.20287663
79	0xbd8435f1	-0.06455601
80	0x3d54d895	0.05196436
81	0x3cdabbb5	0.026700834
82	0x3e41fc24	0.1894384
83	0x3e032022	0.12805226
84	0x3e8c1a4b	0.2736381
85	0x3eb324a6	0.34988898
86	0xbc2200b6	-0.009887865
87	0x3e86d507	0.26334402
88	0xbe1f981a	-0.15585366
89	0x3e4d8b00	0.20072556
90	0x3ebc2b96	0.36752003
91	0x3e662216	0.2247394
92	0x3e01523d	0.12629028
93	0x3e35b948	0.1774646
94	0xbe832c95	-0.2561995
95	0x3da77a6e	0.081776485
96	0xbec09191	-0.37611058
97	0xbe992714	-0.29912627
98	0x3e0b6a58	0.13614786
99	0x3e4ef831	0.20211865
100	0x3e5c2c80	0.2150135
101	0xbe9e1ab0	-0.30879736
102	0x3e5c002c	0.2148444
103	0x3df0a3eb	0.11750015
104	0xbfa1d191	-1.264208
105	0xbde2ea40	-0.11079836
106	0x3e7a394a	0.24435917
107	0x3deddbee	0.11614214
108	0x3d702111	0.058625285
109	0xbd32988c	-0.04360251
110	0xbdff91a5	-0.12478951
111	0xbe0c0675	-0.13674338
112	0x3e9178ea	0.28412563
113	0xbd193d2f	-0.037411865
114	0x3de4edd2	0.11178173
115	0x3e9461c4	0.2898084
116	0xbd3339a1	-0.04375613
117	0x3e826374	0.25466502
118	0x3f6aa9db	0.9166543
119	0x3ef3f815	0.4765021
120	0xbd90b6a4	-0.07066086
121	0x3e611d53	0.21983843
122	0xbe298c85	-0.1655751
123	0x3cfe4f07	0.031043543
124	0x3e3bd289	0.18342032
125	0x3dbaf9ad	0.09129653
126	0xbe53e4c5	-0.20692737
127	0x3d488812	0.04895789
128	0x3e1f34c4	0.15547472
129	0x3d135102	0.035965927
130	0xbe056110	-0.13025308
131	0xbe86c846	-0.26324672
132	0xbf6f5411	-0.9348765
133	0x3dda9e2f	0.106747024
134	0xbe723618	-0.23653448
135	0xbe111b46	-0.1417056
136	0x3c976c33	0.01848421
137	0x3e384c60	0.17997885
138	0xbe3b157b	-0.18269913
139	0x3db8f909	0.09031875
140	0x3d9de95d	0.07710526
141	0xbe0b37bc	-0.1359548
142	0x3e865078	0.26233268
143	0x3e8f0aea	0.27938014
144	0x3e3ba203	0.18323521
145	0x3e9cb414	0.3060614
146	0x3f910845	1.1330649
147	0x3ded837f	0.115973465
148	0x3e4e097d	0.20120807
149	0xbe3f44e6	-0.18678626
150	0x3e310d43	0.17290215
151	0xbe243616	-0.16036257
152	0x3e5eb503	0.21748738
153	0x3e849b3e	0.2589969
154	0x3de77fb9	0.11303658
155	0xbe20a15d	-0.15686555
156	0x3e058f48	0.13042939
157	0x3e6c9f41	0.23107626
158	0x3e31fe8b	0.17382257
159	0x3f023fdd	0.508787
160	0x3f6d96f1	0.92808443
161	0x3cada0b5	0.021194795
162	0x3eca3084	0.3949014
163	0x3e42288e	0.18960783
164	0x3e6d8c7a	0.23198119
165	0x3deb1054	0.11477724
166	0x3d82df3c	0.06390235
167	0x3dcd2415	0.10016648
168	0x3f990361	1.1954156
169	0x3eaaeabb	0.3338221
170	0xbe519a71	-0.20469071
171	0x3daf5160	0.08560443
172	0x3e15f6f0	0.1464498
173	0xbc132492	-0.008980887
174	0x3dacb8cf	0.08433687
175	0x3ee47375	0.44619337
176	0x3d3de3e0	0.046359897
177	0xbb8a776d	-0.0042256624
178	0xbda76566	-0.08173637
179	0xbdff0647	-0.12452369
180	0x3e53214c	0.2061817
181	0x3d5da169	0.05410901
182	0x3bb753e2	0.0055947164
183	0xbe186b7b	-0.1488475
184	0x3e332528	0.17494643
185	0x3eb2c7f0	0.34918165
186	0x3cc5e3a8	0.024156407
187	0x3ee6399b	0.44965824
188	0x3f564024	0.8369162
189	0x3e94f0b9	0.29089907
190	0x3e2713f9	0.16316213
191	0x3e1c2c39	0.15251245
192	0xbd924c41	-0.071434505
193	0x3e977d0c	0.2958759
194	0xbc9a75fb	-0.018855086
195	0x3e13afe4	0.14422566
196	0x3e357932	0.17722014
197	0xbe49ab19	-0.19694175
198	0x3b12075d	0.002228222
199	0xbe3f7ea2	-0.1870065
200	0xbdf6bc14	-0.12047592
201	0xbe186b66	-0.14884719
202	0xbf326bde	-0.6969584
203	0x3e1923e8	0.14955103
204	0xbcaa57c7	-0.020793809
205	0x3e32173b	0.17391674
206	0x3de3bf58	0.1112048
207	0xbd04aa8d	-0.032389212
208	0xbd4d3da5	-0.050107617
209	0x3e58cef0	0.2117269

hidden1.bias f4 [15]
0	0x3de38bc6	0.11110644
1	0x3e71ed1f	0.23625611
2	0x3e8333e6	0.25625533
3	0x3e3419a5	0.17587908
4	0xbe6b238a	-0.22962776
5	0x3bbd5058	0.0057774
6	0x3d813bfd	0.0631027
7	0xbdfd1580	-0.123576164
8	0x3dac570f	0.084150426
9	0xbe367411	-0.17817713
10	0xbe7829ae	-0.2423465
11	0xbe1a1680	-0.15047646
12	0x3e62da9c	0.22153705
13	0xbdd5c360	-0.104376554
14	0x3e1e088a	0.15432945

hidden2.weight f4 [10, 15]
0	0xbe5f1c4e	-0.21788141
1	0xbe940472	-0.28909642
2	0xbdd92a4c	-0.106037706
3	0x3e18f0e1	0.14935638
4	0x3c667591	0.014066116
5	0xbe0684dc	-0.1313662
6	0x3ed9d26e	0.42543358
7	0xbe97d988	-0.2965815
8	0x3e931d0d	0.287331
9	0xbe50604e	-0.20349237
10	0x3e8f07b8	0.27935576
11	0x3e93590e	0.2877888
12	0x3e963db4	0.2934395
13	0x3d1271bd	0.035753
14	0xbe82b4c8	-0.2552855
15	0xbe49ab4b	-0.1969425
16	0x3bf185c0	0.0073706806
17	0xbe2bea31	-0.16788556
18	0xbd8d85ba	-0.06910272
19	0xbdf78f5a	-0.12087889
20	0xbe2439a5	-0.16037615
21	0x3dfdba50	0.12389052
22	0x3e555025	0.20831354
23	0xbe14d0f5	-0.14532836
24	0xbe7fc0c6	-0.24975881
25	0xbe143d40	-0.1447649
26	0xbe044ff0	-0.12921119
27	0x3d085000	0.03327942
28	0x3e17d161	0.14825965
29	0xbdfd8aca	-0.123799875
30	0xbe83091a	-0.2559288
31	0x3e1694b3	0.14705162
32	0xbe0d063f	-0.13771914
33	0x3d03679c	0.03208123
34	0x3e49d5fe	0.19710538
35	0xbe1c2153	-0.15247087
36	0xbe60afcc	-0.21942061
37	0xbe79e2c7	-0.24402915
38	0x3e0e00fd	0.13867564
39	0xbd88692d	-0.06660686
40	0xbe5c44b9	-0.2151059
41	0xbe79e4a9	-0.24403633
42	0xbe7b25c0	-0.24526119
43	0xbd426163	-0.047456156
44	0xbcb016aa	-0.021495182
45	0xbe0d9974	-0.13828069
46	0x3e50ccac	0.20390576
47	0x3d8b25c6	0.06794314
48	0x3e18d3fa	0.14924613
49	0xbdd1f21b	-0.10251256
50	0x3d45d5c9	0.048299585
51	0x3e752afa	0.23942176
52	0x3e18c3e0	0.1491847
53	0xbd07756d	-0.03307097
54	0x3e893035	0.26794592
55	0xbe24fad6	-0.16111311
56	0xbe1b2765	-0.15151747
57	0xbd793828	-0.06084457
58	0xbddd3741	-0.108015545
59	0x3e38a55e	0.18031833
60	0xbd4adbe2	-0.049526103
61	0xbe4b2f80	-0.19842339
62	0xbdc2e554	-0.09516397
63	0x3dabc7b8	0.08387703
64	0x3c71ffd7	0.01477047
65	0xbd42def7	-0.047575917
66	0xbd557e2c	-0.05212228
67	0x3db751f7	0.089511804
68	0x3e2ae136	0.16687474
69	0x3d09d029	0.033645783
70	0x3e3f85a3	0.18703322
71	0xbe7446b2	-0.23855093
72	0x3e6fa68d	0.23403378
73	0xbe9562e7	-0.2917702
74	0xbdb3b8a9	-0.087754555
75	0x3d39cd77	0.045361962
76	0x3e045cc6	0.12926015
77	0x3dc82d98	0.09774321
78	0x3e0e0a38	0.13871086
79	0xbe2e719e	-0.17035529
80	0x3e4f322f	0.20233987
81	0x3e0cd8cc	0.13754576
82	0x3da03680	0.07822895
83	0x3e2ae5dc	0.16689247
84	0xbd71385c	-0.05889164
85	0x3dc8ac77	0.0979852
86	0xbd1192b4	-0.035540298
87	0x3e602e37	0.2189263
88	0xbe80f4da	-0.25186807
89	0x3e5370e4	0.20648533
90	0x3e179181	0.14801599
91	0x3e968a02	0.29402167
92	0x3e189e9c	0.14904255
93	0xbd961c24	-0.07329586
94	0x3dc677c2	0.09690811
95	0x3c90e365	0.017686555
96	0xbee5df8f	-0.44897124
97	0x3e990856	0.29889172
98	0xbcfd4f78	-0.030921683
99	0xbcee59f2	-0.029095624
100	0x3e5a60bd	0.21325965
101	0xbe056dc9	-0.13030161
102	0x3e2e3b92	0.17014912
103	0x3dc83468	0.09775621
104	0x3e550533	0.20802765
105	0x3c8ebd49	0.017424243
106	0xbdedd8d4	-0.11613622
107	0xbe74a7ee	-0.23892185
108	0x3dbdd6de	0.09269498
109	0x3e4890b2	0.19586447
110	0xbe952f80	-0.29137802
111	0x3e82366c	0.25432146
112	0xbe4427d8	-0.19155824
113	0x3e490db2	0.1963413
114	0xbe7f592c	-0.2493636
115	0x3ccb601b	0.0248261
116	0xbd50cffa	-0.050979592
117	0x3dee9d3b	0.11651083
118	0x3e8138f7	0.25238773
119	0x3dafb3e7	0.085792355
120	0x3d0e7a78	0.034784764
121	0x3e320086	0.17383012
122	0x3e0129fc	0.12613672
123	0xbe355ad6	-0.17710432
124	0x3dd9f19c	0.106417865
125	0x3e79c222	0.24390462
126	0xbda45228	-0.080234826
127	0xbe50ea2e	-0.20401832
128	0xbe2372e1	-0.15961792
129	0x3ca5ef8c	0.020255826
130	0xbe490825	-0.19632013
131	0x3e82a470	0.2551608
132	0xbd8f1f0c	-0.069883436
133	0x3d9e7886	0.07737832
134	0xbd9370b3	-0.0719923
135	0xbcc44c40	-0.02396214
136	0xbe4d1c23	-0.20030265
137	0xbd585c06	-0.052822135
138	0xbb5673bf	-0.0032722799
139	0x3e042bcc	0.12907332
140	0xbcaf6434	-0.021410085
141	0x3edd7ef8	0.43260932
142	0x3dc4d119	0.09610195
143	0x3db49a9e	0.088185534
144	0x3db52964	0.08845785
145	0x3ddc3f64	0.10754278
146	0x3db29982	0.087206855
147	0x3e94ca1f	0.29060456
148	0x3e2bfbd3	0.16795282
149	0xbdff2780	-0.12458706

hidden2.bias f4 [10]
0	0xbd819d53	-0.06328835
1	0xbccad031	-0.024757477
2	0x3e02c372	0.12769869
3	0x3e3b98b1	0.18319966
4	0xbe4a8624	-0.19777733
5	0xbd98ae5f	-0.07455134
6	0x3e82b7fa	0.25530988
7	0x3e39f6f1	0.18160607
8	0x3e4ce5bd	0.20009513
9	0xbdf447e1	-0.11927772

hidden3.weight f4 [1, 10]
0	0x3e8b749c	0.27237403
1	0xbe94721d	-0.28993312
2	0xbe4fc11e	-0.20288512
3	0x3e80a5cd	0.25126496
4	0xbe0c26be	-0.13686654
5	0xbde9fac2	-0.114247814
6	0xbd7c62a8	-0.061617523
7	0x3ed85382	0.4225121
8	0xbe932768	-0.28741002
9	0x3dc3c47f	0.09558963
