DNN_optimized.pth (torch, 3607 bytes, 5 tensors)

0.weight f4 [9, 14]
0.90303344 -0.028735043 -0.0038922054 0.527076 -0.045232523 0.7146656 8.110438 0.61561805
0.09451189 0.011202126 0.0012060977 -0.014583133 0.0012310314 0.015790928 0.6664236 0.0009003138
-0.0007939186 -0.8123718 -0.0011011726 0.19553901 -6.5676465 0.4958161 -0.48705637 -0.14775644
-0.06967787 -0.044967737 0.019068988 0.062361363 -0.79483026 0.61295474 -0.004010638 -1.3649119
-0.023350406 -0.6643814 -5.286577 -0.67910683 0.5749887 0.17133507 0.12222286 -0.07369087
0.024187395 0.08991352 -7.130099 -0.28951836 0.007252788 0.10087698 -0.008945584 0.26955447
-2.7658212 -0.2289336 0.14885807 0.029843474 4.7936708e-05 -0.024083432 -0.17296445 -0.0048139323
-0.16197331 0.087244324 -0.0015955343 0.7177353 -0.07294416 0.92999053 10.264964 0.21093556
0.045066625 -0.016161544 -0.028465046 -0.011438578 0.0035897961 0.01931885 3.512948 -0.25602704
-0.039138656 0.48591462 -0.009242099 0.5052519 8.573024 1.1261413 0.15739764 0.06638976
0.029816737 -0.0065055992 -0.0014673448 0.04981523 -0.14325352 -0.0035915703 -0.003289161 0.93994915
-0.0357281 0.6017989 8.9057455 0.4820318 0.06600673 0.019636033 -0.021064423 -0.022166656
0.003708101 0.0035736815 1.8455251 0.26619178 -0.022472546 -4.172624 -0.70202124 -3.2054477
-10.239731 -2.220109 -2.3441856 -2.4105322 -2.4229586 -1.7097412 -1.4581826 -0.86077493
3.843763 0.1960185 -0.65234363 -0.7461301 0.03142746 -0.06725904 3.6885223 1.2876754
0.08720698 0.050346535 -0.010977112 0.047882885 -0.05419245 0.07901148
00000000: 332d 673f c165 ebbc 5f14 7fbb 74ee 063f
00000010: bd45 39bd 53f4 363f 5bc4 0141 2599 1d3f
00000020: 738f c13d 1f89 373c ec15 9e3a 18ee 6ebc
00000030: 8f5a a13a fa5b 813c bd9a 2a3f 0903 6c3a
00000040: fa1e 50ba 99f7 4fbf 3955 90ba 613b 483e
00000050: 292a d2c0 9cdb fd3e 745f f9be 774d 17be
00000060: 45b3 8ebd 1730 38bd 9136 9c3c a16e 7f3d
00000070: ff79 4bbf 9aea 1c3f ac6b 83bb 6fb5 aebf
00000080: 5a49 bfbc e614 2abf a42b a9c0 f2d9 2dbf
00000090: 7632 133f 7672 2f3e fb4f fa3d 3deb 96bd
000000a0: a524 c63c 9424 b83d c529 e4c0 c03b 94be
000000b0: cca8 ed3b 9798 ce3d 8090 12bc 0b03 8a3e
000000c0: 3703 31c0 926d 6abe 406e 183e 4d7a f43c
000000d0: a60f 4938 9e4a c5bc 981d 31be 31be 9dbb
000000e0: 55dc 25be 27ad b23d 3f21 d1ba 80bd 373f
000000f0: bf63 95bd dc13 6e3f 4b3d 2441 7eff 573e
00000100: c897 383d 3765 84bc 872f e9bc e068 3bbc
00000110: c942 6b3b 9142 9e3c 24d4 6040 fa15 83be
00000120: db4f 20bd cdc9 f83e 2c6c 17bc 3058 013f
00000130: 1b2b 0941 6625 903f d92c 213e 5bf7 873d
00000140: 3b42 f43c ec2c d5bb ec53 c0ba 0e0b 4c3d
00000150: 0db1 12be 8d60 6bbb f78e 57bb 82a0 703f
00000160: a157 12bd 7e0f 1a3f ef7d 0e41 dfcc f63e
00000170: 892e 873d bfdb a03c 4c8f acbc d996 b5bc
00000180: 9d03 733b 6d34 6a3b 2b3a ec3f 4a4a 883e
00000190: 5818 b8bc 2386 85c0 aab7 33bf 0e26 4dc0
000001a0: f0d5 23c1 4416 0ec0 2307 16c0 2946 1ac0
000001b0: c111 1bc0 cdd8 dabf baa5 babf bf5b 5cbf
000001c0: 3700 7640 13b9 483e feff 26bf 6202 3fbf
000001d0: 15ba 003d 1cbf 89bd c010 6c40 8cd2 a43f
000001e0: 9399 b23d 2b38 4e3d 58d9 33bc d820 443d
000001f0: e7f8 5dbd c5d0 a13d

0.bias f4 [9]
-0.087911166 -0.034109164 0.14089508 0.13745072 0.3038238 -0.39837205 -0.05747774 0.2634654
-0.29657388
00000000: c50a b4bd 0db6 0bbd cd46 103e e2bf 0c3e
00000010: cb8e 9b3e 6cf7 cbbe c76d 6bbd f0e4 863e
00000020: 88d8 97be

3.weight f4 [22, 9]
-0.60805964 -0.01767405 0.31682333 0.089953795 -0.69077027 -1.0095422 -0.7612597 1.1993767
0.29574707 -0.112874344 -0.017775517 0.15161206 -0.056092996 0.58883154 -0.084473304 -0.12521727
0.407854 0.06691316 0.026663885 -1.3929113 -1.185602 -0.084413126 0.032746222 0.041146256
0.02488302 -0.7245441 0.104107834 -0.79437196 0.34869295 0.82158244 -0.20624995 -0.81535554
-0.8560207 -0.8385263 1.3335602 0.19095267 -0.7954618 0.097237304 0.24301888 -0.011360831
-0.558647 -1.0308506 -0.8502924 1.2688591 0.0544744 -0.93092954 0.3748594 0.6353215
-0.0861571 -1.0010486 -1.0502822 -0.75798684 1.2168741 0.2713188 0.020953199 -0.42369428
-0.021928728 0.08879696 0.06946474 0.06611088 0.047844835 -0.6064712 0.012596384 -0.31816632
-0.22801475 -0.09717024 -0.16558273 -0.41556618 -0.33335245 0.84924376 0.3476723 0.20310485
0.02822362 -1.5014303 -1.2813603 0.055677794 0.02857562 0.053008404 0.037625115 -0.47036085
0.04416498 -0.07824544 -0.5758008 -0.4339511 -0.366852 0.4532673 -0.11163573 -0.06582428
0.26018068 0.36039495 0.5208794 -0.34229553 -0.48954174 0.036951218 -0.27507532 -0.22680521
-0.18179728 0.04040744 0.033169556 0.015305834 -0.33353117 -0.03357847 0.024430603 0.042650584
0.06576848 0.034262575 -0.69209325 0.04166179 -0.13681579 -0.25362092 0.022878608 -0.40751883
-0.22043516 0.5082223 -0.13173032 0.58576703 -0.14139085 0.6149032 0.036188114 0.099835284
-0.61887383 -0.17265645 -0.10345308 -0.07160633 0.56577116 0.5105535 -0.64302796 0.15842432
0.69004995 -0.21124607 -0.7364763 -0.8670201 -0.838137 1.2138052 0.14944808 -0.11874453
-0.8833024 -0.035816714 0.028027533 0.10086948 0.16015008 0.18519352 -0.30165556 -0.06853599
0.37499806 -0.43547007 0.043558404 -0.094698556 0.06505656 -0.18144865 0.10739375 -0.33237058
0.21664375 -0.53157127 0.19520599 0.5918123 0.07078579 -0.8990436 -0.7152673 -0.8748745
1.7135323 0.19483356 -0.82276314 0.15017974 0.2720158 -0.15614586 -0.74611217 -0.6958659
-0.9808129 0.95990634 0.10290652 -0.6720554 0.13096195 0.45261627 -0.0406607 -0.77406883
-0.83707774 -0.7202755 0.98218495 0.09118084 -0.121329 -0.19927771 -0.2879008 -0.7670697
-0.20954724 0.48738614 -0.11212512 0.5370395 0.00014959044 -0.11541115 -0.50447994 -0.1748721
-0.05980413 0.7069513 -0.15636107 -0.12670195 0.22774215 0.28402743
00000000: cca9 1bbf 2bc9 90bc ab36 a23e b239 b83d
00000010: 52d6 30bf ae38 81bf eae1 42bf 2d85 993f
00000020: 296c 973e aa2a e7bd f69d 91bc 3140 1b3e
00000030: c5c1 65bd aabd 163f 5700 adbd f538 00be
00000040: 3dd2 d03e c409 893d 386e da3c eb4a b2bf
00000050: cec1 97bf cae0 acbd e720 063d fa88 283d
00000060: 7ad7 cb3c b97b 39bf 7d36 d53d f65b 4bbf
00000070: e287 b23e 3a53 523f 3033 53be 24bb 50bf
00000080: 2c24 5bbf a9a9 56bf 1ab2 aa3f 1989 433e
00000090: 62a3 4bbf 5a24 c73d f1d9 783e c722 3abc
000000a0: 7d03 0fbf eaf2 83bf c3ac 59bf fa69 a23f
000000b0: 8c20 5f3d 6651 6ebf 92ed bf3e 6ea4 223f
000000c0: 2273 b0bd 5c22 80bf a66f 86bf 6d0b 42bf
000000d0: 88c2 9b3f 4cea 8a3e 0ba6 ab3c 75ee d8be
000000e0: e0a3 b3bc 2edb b53d 8843 8e3d 2465 873d
000000f0: f2f8 433d b241 1bbf 1061 4e3c b2e6 a2be
00000100: b37c 69be 3101 c7bd 858e 29be 17c5 d4be
00000110: 2cad aabe 0a68 593f 1b02 b23e b8fa 4f3e
00000120: 3935 e73c de2e c0bf 9d03 a4bf 660e 643d
00000130: 6b17 ea3c 571f 593d cb1c 1a3d 23d3 f0be
00000140: 57e6 343d 253f a0bd ae67 13bf d72e debe
00000150: 06d4 bbbe a712 e83e 46a1 e4bd e1ce 86bd
00000160: 6736 853e b085 b83e 5a58 053f 5c41 afbe
00000170: 37a5 fabe 295a 173d acd6 8cbe a03f 68be
00000180: 1129 3abe 4682 253d cddc 073d 52c5 7a3c
00000190: 99c4 aabe 9489 09bd b022 c83c 61b2 2e3d
000001a0: a0b1 863d ea56 0c3d 062d 31bf 8ea5 2a3d
000001b0: 7019 0cbe 9ada 81be eb6b bb3c 4fa6 d0be
000001c0: c1b9 61be db1a 023f 50e4 06be d4f4 153f
000001d0: c3c8 10be 4c6a 1d3f fd39 143d 7176 cc3d
000001e0: 846e 1ebf dacc 30be 35df d3bd 57a6 92bd
000001f0: 61d6 103f a2b3 023f 7b9d 24bf fc39 223e
00000200: 1da7 303f e450 58be b689 3cbf 07f5 5dbf
00000210: 2590 56bf f85d 9b3f eb08 193e 5530 f3bd
00000220: 1b20 62bf 8cb4 12bd ff99 e53c a894 ce3d
00000230: 62fe 233e 5fa3 3d3e 9972 9abe 995c 8cbd
00000240: bfff bf3e eff5 debe 4c6a 323d 51f1 c1bd
00000250: 603c 853d adcd 39be 41f1 db3d 7a2c aabe
00000260: dcd7 5d3e 0e15 08bf 14e4 473e 0381 173f
00000270: 24f8 903d b927 66bf c21b 37bf c6f7 5fbf
00000280: 0755 db3f 7382 473e 9ba0 52bf b8c8 193e
00000290: a845 8b3e b3e4 1fbe 3501 3fbf 4524 32bf
000002a0: 8e16 7bbf 6cbc 753f a7c0 d23d d30b 2cbf
000002b0: e41a 063e 52bd e73e d68b 26bd 6029 46bf
000002c0: ba4a 56bf fa63 38bf 7970 7b3f 05bd ba3d
000002d0: 577b f8bd 750f 4cbe bc67 93be ae5e 44bf
000002e0: 8d93 56be ad8a f93e dba1 e5bd 6c7b 093f
000002f0: 61db 1c39 ae5c ecbd 9925 01bf ac11 33be
00000300: 2df5 74bd c3fa 343f 1e1d 20be 28be 01be
00000310: 3d35 693e 0b6c 913e

3.bias f4 [22]
0.6616416 -2.1358604 -2.0422828 0.25678188 0.38742793 0.29803777 -2.1866148 -0.2429928
-2.1536968 -3.3515146 -0.2174487 -1.7839868 -0.77991253 -3.1601553 0.8390966 -2.2313004
-2.0992222 -0.3354816 0.8693309 0.4547883 -1.6826347 -2.4736114
00000000: 5861 293f f0b1 08c0 c3b4 02c0 ea78 833e
00000010: f45c c63e 6898 983e 7ff1 0bc0 1bd3 78be
00000020: 2bd6 09c0 377f 56c0 dfaa 5ebe ae59 e4bf
00000030: 59a8 47bf fc3f 4ac0 09cf 563f a0cd 0ec0
00000040: a859 06c0 3fc4 abbe 788c 5e3f 03da e83e
00000050: 9360 d7bf a64f 1ec0

6.weight f4 [1, 22]
-0.7193255 0.0997491 0.10954032 -0.6834008 -0.71281433 -0.6479349 0.07978206 0.22413523
0.095766865 0.18288596 0.30064213 0.10418832 0.1578819 0.12474525 -0.7583576 0.069397174
0.061730895 -0.7594399 -0.71168214 -0.75873804 0.16719523 0.109992936
00000000: b725 38bf 4249 cc3d ad56 e03d 5bf3 2ebf
00000010: 007b 36bf 10df 25bf c764 a33d b583 653e
00000020: 6b21 c43d 7546 3b3e c4ed 993e b060 d53d
00000030: cbab 213e 707a ff3d b923 42bf 1b20 8e3d
00000040: 89d9 7c3d a76a 42bf cd30 36bf a83c 42bf
00000050: 3a35 2b3e fa43 e13d
