lstm_new.pth (torch, 136547 bytes, 9 tensors)

l_lstm.weight_ih_l0 f4 [200, 14]
0	0x3e3b4d61	0.18291236
1	0x3c7ca87d	0.01542103
2	0x3e17e60f	0.14833854
3	0x3cca5e2d	0.02470311
4	0xbd3241b0	-0.043519676
5	0x3ccc9273	0.024972176
6	0xbd3e4046	-0.046448015
7	0x3e44b538	0.19209754
8	0x3d1f759b	0.038930517
9	0x3d125bcf	0.035732087
10	0x3db1ea78	0.086872995
11	0x3e43fcef	0.19139455
12	0x3da31859	0.07963628
13	0x3e38d6ac	0.18050641
14	0xbfb8120e	-1.438051
15	0xbcc7feca	-0.024413485
16	0x3db5fe22	0.088863626
17	0xbedebea0	-0.4350481
18	0xbd9a409d	-0.07531855
19	0xbedc8f92	-0.43078285
20	0xbf5f8f8d	-0.87328416
21	0xbea8bcd7	-0.32956573
22	0xbdf44b88	-0.11928469
23	0xbd7c5190	-0.06160122
24	0xbd004ccb	-0.031323235
25	0xba4262ce	-0.0007415236
26	0xbd8ecfb3	-0.06973209
27	0xbd4b416f	-0.04962295
28	0x4014565d	2.3177712
29	0xbdc51396	-0.09622876
30	0xbe812a59	-0.2522762
31	0x3e9edb47	0.3102667
32	0x3c5c868e	0.013459815
33	0x3e54765d	0.20748277
34	0x3f320ea1	0.6955357
35	0x3ea2da29	0.31807068
36	0x3d6056e4	0.054770365
37	0x3d0fdfa4	0.03512539
38	0x3c007e8f	0.007842674
39	0x3d118892	0.035530634
40	0x3d48fff3	0.049072217
41	0x3d530434	0.05151768
42	0x3e050e51	0.12993743
43	0x3cb363b9	0.021898137
44	0xbdfd3e74	-0.123654276
45	0xbb70c202	-0.0036736731
46	0xbc03c283	-0.008041981
47	0x3d448d9e	0.04798662
48	0xbcf993ac	-0.030465923
49	0xbd0b915e	-0.03407418
50	0xbe0bba58	-0.13645303
51	0xbbdfa0aa	-0.0068245726
52	0xbb9a7463	-0.0047135814
53	0xbdaf2945	-0.085527934
54	0x3deceb65	0.115683354
55	0xbccf9c6d	-0.025343144
56	0x40117935	2.273023
57	0xbddd9841	-0.10820056
58	0xbe80f05d	-0.25183383
59	0x3e7374a3	0.23774962
60	0xbb5c1b77	-0.0033585706
61	0x3e77d7f0	0.24203467
62	0x3f47b0ab	0.7800395
63	0x3e8cf3ca	0.27529746
64	0x3d2308e4	0.0398034
65	0x3cc09504	0.023508556
66	0xbaf8eeee	-0.0018992105
67	0x3d00f1ec	0.031480715
68	0x3cd2308b	0.025657913
69	0x3ce11da3	0.027479952
70	0x3d67b754	0.05657132
71	0x3da237fa	0.07920833
72	0x3c9f4100	0.019440174
73	0x3cc32af8	0.0238242
74	0x3b6da400	0.0036261082
75	0xbdd7742c	-0.10520205
76	0x3cbc4e60	0.02298659
77	0xbda57c48	-0.080803454
78	0x3e0b7e4b	0.13622396
79	0xbe089098	-0.13336408
80	0x3d0e19b0	0.034692466
81	0xbdf1f173	-0.11813631
82	0xbc389f90	-0.011268511
83	0x3e100f13	0.1406825
84	0x3e07b374	0.1325205
85	0x3e40ff45	0.18847378
86	0x3e282d1e	0.16423461
87	0x3e0ff569	0.1405846
88	0xbce98678	-0.028506503
89	0x3c14736a	0.00906072
90	0x3ca41630	0.020030111
91	0x3a4f1099	0.00078988966
92	0x3e5ac07e	0.21362492
93	0x3db1a8c6	0.08674769
94	0xbc8de863	-0.017322725
95	0x3e4ab9c4	0.19797426
96	0x3d18fe32	0.037351795
97	0xbd3a0ccf	-0.04542237
98	0x4003fbd4	2.0622454
99	0xbdeebb6c	-0.11656842
100	0xbe892d1f	-0.26792237
101	0x3e3cbc3f	0.18431185
102	0xbce27f2e	-0.027648535
103	0x3eb27820	0.34857273
104	0x3f76dddc	0.9643228
105	0x3e7d04a1	0.24708797
106	0x3cc62d70	0.024191588
107	0xbb46bad2	-0.0030323756
108	0xbc97292e	-0.018452253
109	0xbc361235	-0.011112739
110	0x3d0328e0	0.032021403
111	0x3cc86b37	0.024465187
112	0x3b01c900	0.0019803643
113	0xbdce37b6	-0.1006922
114	0x3e329e29	0.17443146
115	0x3da07bc8	0.078361094
116	0x3c7547ce	0.014970733
117	0xbba69402	-0.005083562
118	0x3e3207d6	0.17385802
119	0x3dcaa7e5	0.098953046
120	0xbd91d32b	-0.07120355
121	0xbd5a2cea	-0.05326549
122	0x3da7e2f2	0.08197583
123	0x3e2f949d	0.17146535
124	0x3d4801f2	0.04882998
125	0x3e05d990	0.13071275
126	0xbc6a161f	-0.014287501
127	0x3d647cfc	0.055783257
128	0x3cd72b15	0.02626566
129	0x3cfb531b	0.030679276
130	0x3d2c9494	0.042133883
131	0x3aebfbd4	0.0018004128
132	0xbccb1546	-0.024790417
133	0xbd8e1788	-0.06938082
134	0x3e17e337	0.1483277
135	0xbc9989d8	-0.018742487
136	0x3e144260	0.14478445
137	0x3e4ebcf1	0.20189263
138	0xbb0c9d7d	-0.0021456175
139	0x3ddeb2bb	0.10873934
140	0x3db0a80a	0.08625801
141	0x3e114aa6	0.14188632
142	0x3e14dbeb	0.14537017
143	0xbd9a3c90	-0.07531083
144	0x3c690b22	0.014223846
145	0xbdd79058	-0.10525578
146	0x3e272e05	0.16326149
147	0x3e0b1a84	0.13584334
148	0x3d34cd0b	0.044140857
149	0xbc975430	-0.01847276
150	0x3d2066c4	0.039160505
151	0xbd8aa640	-0.06769991
152	0x3dd2aabe	0.10286473
153	0xbcdb7a9e	-0.026791867
154	0xbd25a5be	-0.040441267
155	0xbcd89850	-0.026439816
156	0xbdad2747	-0.08454757
157	0xbcf7eb4e	-0.03026357
158	0x3dc4d001	0.09609986
159	0x3d4f27ce	0.05057507
160	0xbca9dfb4	-0.020736553
161	0xbdd8e458	-0.10590428
162	0xbd59d60d	-0.05318265
163	0x3cdcddfe	0.026961323
164	0xbdea7c16	-0.11449449
165	0xbdae52f6	-0.08511917
166	0x3d485f59	0.048919056
167	0xbe0a62cb	-0.13514249
168	0x3d35b278	0.044359654
169	0x3d87d7de	0.0663297
170	0x3de3baf9	0.111196466
171	0x3c04a52d	0.008096022
172	0x3e0da991	0.13834216
173	0xbc433f79	-0.0119169885
174	0x3cf1f538	0.029535875
175	0x3cf108a2	0.029423062
176	0xbddcc5c7	-0.107799105
177	0x3d478110	0.048707068
178	0xbbb9ac71	-0.0056663086
179	0x3dc5748a	0.09641369
180	0xbdd8f797	-0.10594099
181	0xbb272d57	-0.0025509202
182	0xbd78ea01	-0.06077004
183	0x3d5c5f06	0.05380156
184	0xbd4f5009	-0.050613437
185	0x3dccfeda	0.100095466
186	0xbdfa8160	-0.122317076
187	0xbdf25061	-0.11831737
188	0xbd03d8b1	-0.032189075
189	0xbd5fcf1c	-0.054640874
190	0xbd0aea79	-0.033915017
191	0xbdaab334	-0.083349615
192	0xbdf18d06	-0.11794476
193	0xbda5a011	-0.08087171
194	0xbdde0f47	-0.10842758
195	0x3d37f832	0.044914432
196	0x3eb62934	0.3557831
197	0x3d4c0563	0.049809825
198	0x3c0c49f1	0.008562551
199	0x3e5ddfad	0.21667357
200	0x3d4ad457	0.04951891
201	0x3e610806	0.21975717
202	0x3e877d38	0.26462722
203	0x3e670e2e	0.22564003
204	0xba5ac038	-0.0008344683
205	0x3e12fda2	0.14354566
206	0xbc9762d1	-0.018479737
207	0x3e0cc362	0.13746408
208	0x3e4ab03d	0.19793792
209	0x3e4ccd75	0.2000025
210	0x3e19946f	0.14998029
211	0x3e285a1c	0.16440624
212	0x3e0404c4	0.12892443
213	0x3daf6f80	0.08566189
214	0xbcc841e3	-0.02444548
215	0xbd7dff39	-0.062010977
216	0x3dead61e	0.11466621
217	0x3d94475b	0.072401725
218	0x3ded38a0	0.11583066
219	0xbd847d2b	-0.064691864
220	0x3e0efaae	0.13962814
221	0x3e251e66	0.16124877
222	0xbc0cd7a5	-0.008596336
223	0x3cd37250	0.025811344
224	0xbde04465	-0.10950545
225	0xbd8cc845	-0.06874136
226	0xbdf05384	-0.11734679
227	0xbd8073a6	-0.06272058
228	0xbd79c89b	-0.060982328
229	0xbdf6ffff	-0.12060546
230	0x3d4437de	0.04790484
231	0xbd9ac974	-0.075579554
232	0x3d3d5118	0.046219915
233	0xbe217a28	-0.15769255
234	0x3df48ea7	0.11941271
235	0x3d3f4150	0.046693146
236	0xbdaa60c2	-0.08319236
237	0x3d6c0b92	0.05762822
238	0xbe34854f	-0.17628978
239	0x3dc8549d	0.09781764
240	0x3e504ef0	0.20342612
241	0x3ce998f0	0.02851531
242	0xbcfa099d	-0.030522162
243	0xbd43c8d3	-0.047798943
244	0x3e652510	0.2237742
245	0x3b3e0192	0.0028992635
246	0xbbe8d06f	-0.0071049253
247	0x3dda9938	0.106737554
248	0x3da44759	0.08021421
249	0x3da87dfb	0.08227154
250	0xbcc4f969	-0.02404471
251	0x3b890ad7	0.0041822004
252	0xbda208a7	-0.079118066
253	0x3de4ddf6	0.11175148
254	0x3d4b79cc	0.0496767
255	0x3d69a87b	0.05704544

l_lstm.weight_hh_l0 f4 [200, 50]
0	0x3cf38e28	0.029730871
1	0x3df2861a	0.11841984
2	0x3d919d42	0.07110073
3	0x3d8bc6be	0.068250164
4	0xbdb9aa43	-0.09065678
5	0xbbab9260	-0.005235955
6	0x3c261720	0.010137349
7	0xbdaec170	-0.08532989
8	0xba946c00	-0.001132369
9	0xbd01d83e	-0.031700365
10	0x3dd816a6	0.10551195
11	0x3d1d42f4	0.03839393
12	0xbe00e53b	-0.12587444
13	0xbd8d9739	-0.06913609
14	0x3da430b4	0.08017102
15	0x3d8de848	0.0692907
16	0x3c8f50b8	0.017494544
17	0xbd61fd92	-0.055173464
18	0x3e06cb43	0.13163476
19	0x3da231f6	0.079196855
20	0xbdc56d7a	-0.096400216
21	0x3d0743a4	0.03302349
22	0xbe0d9a78	-0.13828456
23	0xbd037aba	-0.032099463
24	0xbdc6618d	-0.09686575
25	0xbbc95b00	-0.0061448812
26	0x3dbdbc94	0.09264484
27	0xbbce6b20	-0.0062993914
28	0xbdaac3fc	-0.08338162
29	0x3e045ff5	0.1292723
30	0xbd1b4788	-0.037910014
31	0xbdb1a305	-0.08673672
32	0xbe0064fb	-0.12538521
33	0x3ce07640	0.027400136
34	0xbde2b348	-0.110693514
35	0xbdf53a67	-0.1197403
36	0xbdc0340a	-0.09384926
37	0x3e0fd851	0.14047362
38	0x3d3dc6d0	0.04633218
39	0xbcd2f454	-0.02575127
40	0x3de57702	0.112043396
41	0xbd036536	-0.032078944
42	0xbd94ddb7	-0.07268851
43	0x3dd50e1a	0.1040308
44	0x3e0915cb	0.1338722
45	0x3ded0b3e	0.1157441
46	0xbde788b0	-0.11305368
47	0x3deb31da	0.11484118
48	0x3ae35280	0.0017343313
49	0xbdfc182c	-0.12309298
50	0x3d5d7d14	0.054074362
51	0xbdd8b5ec	-0.10581574
52	0xbd15ded2	-0.03658945
53	0xbc364c00	-0.011126518
54	0xbdcfb9fa	-0.10142894
55	0xbd8d1b6d	-0.06889997
56	0x3dc84cfe	0.0978031
57	0xbe056749	-0.13027681
58	0xbe0dc84d	-0.1384594
59	0xbe0186d4	-0.12649089
60	0xbdfbd64c	-0.12296733
61	0x3df6e9f6	0.12056343
62	0x3e0ac795	0.13552697
63	0xbdc579c1	-0.09642363
64	0xbdbddc3a	-0.092705205
65	0xbda9a3ee	-0.0828322
66	0x3de05046	0.10952811
67	0xbd15b00c	-0.036544845
68	0x3d6f908c	0.05848746
69	0x3e00e1e5	0.12586172
70	0xbc614480	-0.013749242
71	0x3ddd279e	0.10798572
72	0x3ccffeb0	0.02539
73	0x3de02692	0.10944857
74	0x3d923a74	0.07140055
75	0x3dc287a2	0.09498526
76	0x3df8a3f2	0.12140645
77	0x3dd980b8	0.10620254
78	0x3cfc4ba8	0.030797794
79	0x3d774a4c	0.06037359
80	0xbe0ee889	-0.13955893
81	0x3db3e552	0.08783974
82	0x3df00516	0.1171972
83	0x3d3f4cf8	0.046704262
84	0x3d8f2652	0.06989731
85	0xbbf9a8e0	-0.0076190084
86	0x3de0afae	0.10971008
87	0xbe079621	-0.13240863
88	0x3de60d26	0.112329766
89	0x3e109a4d	0.14121361
90	0xbcbc7e50	-0.02300945
91	0xbd6cf414	-0.05784996
92	0x3d0c8ab0	0.03431195
93	0xbd24f5ba	-0.040273406
94	0x3d41c2bc	0.047304854
95	0xbe05febd	-0.13085456
96	0xbe1034cc	-0.1408264
97	0x3d82d66a	0.063885525
98	0x3ddf8b92	0.10915293
99	0x3de89192	0.1135589
100	0x3dd078a2	0.10179259
101	0x3dda3dca	0.106563166
102	0xbdf9eaf4	-0.12203017
103	0xbd440928	-0.047860295
104	0x3c10d960	0.008840889
105	0x3d4c26d4	0.049841717
106	0x3cffa9c8	0.031208888
107	0xbda09ecd	-0.07842789
108	0x3df4ce7e	0.11953448
109	0x3c264cb0	0.01015012
110	0x3d2233c4	0.03960015
111	0xbddcab0c	-0.10774812
112	0x3d51f324	0.051257268
113	0xbce0171c	-0.02735477
114	0xbc019050	-0.007907942
115	0x3e054555	0.1301473
116	0x3dc3af00	0.09554863
117	0xbd8192ba	-0.06326814
118	0xbcc1c258	-0.02365224
119	0xbe0f64b2	-0.14003256
120	0x3d8b5ee2	0.06805207
121	0xbe034b7a	-0.12821761
122	0xbda4ed40	-0.08053064
123	0x3d03696c	0.03208296
124	0x3de9b45e	0.114113554
125	0xbc691c10	-0.014227882
126	0xbe0c02a5	-0.13672884
127	0x3dd3a97e	0.103350624
128	0x3d407dc8	0.046994954
129	0x3e078061	0.13232566
130	0x3df0dad6	0.1176049
131	0xbda3ecc6	-0.08004145
132	0xbd66a566	-0.05631008
133	0xbdb4d582	-0.08829786
134	0xbbbdb800	-0.005789757
135	0x3e07573f	0.13216875
136	0x3d1d83d4	0.0384558
137	0x3dd46268	0.10370332
138	0xbe10567b	-0.1409549
139	0xbdfe72fb	-0.124242745
140	0x3de94f8e	0.11392127
141	0x3e0c2303	0.13685231
142	0x3e0fabdb	0.14030401
143	0x3e0830f1	0.1329992
144	0x3dd5bccc	0.10436401
145	0xbd872c37	-0.0660023
146	0x3d8d491c	0.0689871
147	0x3dab6e1c	0.08370611
148	0x3dae6be2	0.08516671
149	0xbd22fef4	-0.039793923
150	0x3e0010f9	0.12506475
151	0x3c9bc288	0.019013658
152	0x3dc032d8	0.09384698
153	0x3c16ebb0	0.009211466
154	0x3bc6e040	0.006069213
155	0x3d8f6b4a	0.07002886
156	0xbe0e0103	-0.13867573
157	0xbd234e22	-0.039869435
158	0xbd2db09c	-0.042404756
159	0xbde28ac1	-0.110616215
160	0xbda0fb9c	-0.07860491
161	0xbe109084	-0.14117628
162	0xbb1f4080	-0.002429992
163	0xbe02d65e	-0.12777087
164	0xbdc46f6e	-0.09591566
165	0x3c2e7790	0.010648623
166	0xbc71bac0	-0.014753997
167	0x3d0e1874	0.03469129
168	0xbd865915	-0.0655996
169	0x3cc08f38	0.023505792
170	0x3dc733ae	0.09726654
171	0xba984300	-0.0011616647
172	0x3e033415	0.12812836
173	0xbd93fdc2	-0.07226135
174	0x3cded998	0.027203366
175	0xbdf1bd93	-0.118037365
176	0xbc00f950	-0.007871941
177	0xbd8efe0e	-0.06982051
178	0x3ce7eca0	0.028311074
179	0xbc60d710	-0.01372315
180	0x3d4f1440	0.05055642
181	0x3de79fd6	0.11309783
182	0x3dc613ce	0.09671746
183	0x3dc4c7fe	0.09608458
184	0x3de55e86	0.111996695
185	0xbcf46340	-0.029832482
186	0xbc026420	-0.007958442
187	0x3cb0a7c0	0.021564364
188	0x3dc48992	0.09596552
189	0xbd3870e2	-0.04502953
190	0xbcdb6084	-0.02677942
191	0xbd7f3f16	-0.062316023
192	0xbdddf7ce	-0.108382806
193	0xbe0c3925	-0.13693674
194	0xbdf84a10	-0.12123501
195	0x3b601040	0.0034189373
196	0xbdbb6e65	-0.091519155
197	0xbbc89e00	-0.0061223507
198	0x3db68872	0.08912744
199	0x3dd8640e	0.10565959
200	0xbdd13a06	-0.10216145
201	0xbdea95fb	-0.11454388
202	0x3dc63232	0.09677543
203	0x3df09382	0.11746885
204	0x3d26d6c0	0.040732145
205	0x3ca28e18	0.019843146
206	0x3d98952e	0.07450329
207	0x3d040a7c	0.03223656
208	0x3df78202	0.12085344
209	0xbd23d42a	-0.039997257
210	0xbdf74b28	-0.12074882
211	0xbd50b058	-0.050949425
212	0xbdf6283c	-0.12019393
213	0xbd203890	-0.039116442
214	0xbdc9b910	-0.09849751
215	0xbd00bd30	-0.031430423
216	0xbc7385e0	-0.014863461
217	0x3e0626fd	0.1310081
218	0x3c506db0	0.012721464
219	0x3db5f074	0.088837534
220	0x3bd15760	0.0063885897
221	0xbc416db0	-0.011805937
222	0x3db872e4	0.09006289
223	0x3d887f86	0.06664948
224	0xbd176cf4	-0.03696914
225	0xbe04a54e	-0.12953684
226	0xbd7150ba	-0.058914877
227	0xbdac76e9	-0.08421118
228	0xbd996eb2	-0.074918166
229	0xbd35e86e	-0.044411115
230	0x3cd56918	0.02605109
231	0x3d648acc	0.05579643
232	0x3dd2d7c2	0.10295059
233	0x3decbf3a	0.11559911
234	0x3e105e69	0.14098515
235	0xbda09edd	-0.07842801
236	0xbe0f259a	-0.13979188
237	0xbc9f942c	-0.019479834
238	0xbce1dc84	-0.02757097
239	0x3da05e9a	0.07830544
240	0x3d80da2e	0.062916145
241	0x3d4842c4	0.048891798
242	0xbd3251a6	-0.043534897
243	0x3c38cbb0	0.011279032
244	0xbdcdcccc	-0.100488275
245	0x3cc45528	0.023966387
246	0xbcb997b4	-0.022655345
247	0xbdc92154	-0.0982081
248	0xbd331642	-0.0437224
249	0xbdef0997	-0.11671751
250	0x3de759a2	0.11296393
251	0xbd1e24d6	-0.03860935
252	0xbd3523fa	-0.044223763
253	0xbdc4e52a	-0.09614022
254	0x3cd28b10	0.025701076
255	0xbdf2edc5	-0.11861757

l_lstm.bias_ih_l0 f4 [200]
0	0xbc088645	-0.008332794
1	0x3e11306e	0.1417863
2	0xbe9b442e	-0.30325454
3	0x3d2c5116	0.042069517
4	0xbea1792c	-0.3153776
5	0xbd064eaa	-0.032789864
6	0xbb15426d	-0.0022775189
7	0xbe4cff69	-0.20019306
8	0xbd72c9d7	-0.05927452
9	0x3e1758f3	0.14780025
10	0xbd6466c9	-0.055762086
11	0x3d084a3c	0.03327392
12	0x3e217558	0.1576742
13	0xbdd460cf	-0.10370027
14	0x3cd291a2	0.025704209
15	0x3e1dbc8f	0.1540396
16	0xbdbdf104	-0.09274486
17	0x3c9431e0	0.018090189
18	0xbd575692	-0.052572794
19	0x39828a00	0.0002489835
20	0xbd1cb48b	-0.038258117
21	0x3df27cd7	0.118402176
22	0xbcc20b42	-0.023687009
23	0xbd835feb	-0.06414779
24	0xbe2bb478	-0.16768062
25	0xbe6a2151	-0.22864272
26	0xbdafb0dc	-0.08578655
27	0xbd0b669a	-0.034033395
28	0xbd8c56da	-0.06852503
29	0xbd188298	-0.03723392
30	0xbc6bbd79	-0.0143884355
31	0x3dd581bc	0.104251355
32	0xbd90458c	-0.07044515
33	0x3e5ded08	0.21672451
34	0xbd575c87	-0.052578475
35	0x3e41d3d9	0.1892847
36	0x3d41bfc4	0.047302023
37	0xbd249e0b	-0.040189784
38	0x3d07f4d3	0.033192467
39	0x3dd05859	0.10173101
40	0x3e24dbd9	0.1609949
41	0x3da735df	0.08164572
42	0xbd43e315	-0.047823984
43	0xbda40373	-0.080084704
44	0x3c1f3d00	0.009719133
45	0x3d524b1f	0.051341172
46	0x3e500736	0.20315251
47	0xbd8e02ac	-0.06934103
48	0xbda367fa	-0.07978816
49	0xbd3a5f46	-0.045501016
50	0x3e05a515	0.13051255
51	0x3d8841e6	0.06653194
52	0xbd3e3970	-0.046441495
53	0x3deccd8e	0.11562644
54	0xbe06a992	-0.13150623
55	0xbcf10f60	-0.029426277
56	0xbb4e55c0	-0.0031484216
57	0x3dc2a7c6	0.095046565
58	0x3dfea66a	0.12434085
59	0x3dfda64a	0.12385233
60	0xbe08135e	-0.13288638
61	0xbd9a8559	-0.07544965
62	0xbdc96046	-0.09832816
63	0xbe065733	-0.13119201
64	0xbd92ff3c	-0.07177588
65	0xbe0dc71d	-0.13845487
66	0x3c720430	0.014771506
67	0xbd0addcc	-0.03390293
68	0xbb9177c0	-0.004439324
69	0xbd3d415e	-0.046204917
70	0x3d0f6448	0.035007745
71	0xbd1a7d62	-0.03771723
72	0xbcdd47d8	-0.027011797
73	0xbda7f3d0	-0.082008004
74	0xbdb73b88	-0.089469016
75	0xbcebe5ec	-0.028796159
76	0xbd0fab46	-0.03507545
77	0xbdd6a4f6	-0.104806826
78	0xbdd71a11	-0.10503019
79	0xbd6c07ec	-0.057624742
80	0xbddd6f3c	-0.10812232
81	0x3dd2f3be	0.103003964
82	0x3d885184	0.06656173
83	0xbd8612b3	-0.06546535
84	0x3dd335da	0.10313006
85	0xbcd7b21c	-0.026330046
86	0xbd8d04a8	-0.06885654
87	0xbda92054	-0.08258119
88	0xbd64d13a	-0.055863596
89	0x3d929d16	0.07158868
90	0x3d7f5cb4	0.062344268
91	0x3cb38cb0	0.021917671
92	0x3add4100	0.0016880333
93	0xbe105053	-0.14093141
94	0xbd9435de	-0.07236837
95	0xbe080831	-0.13284375
96	0xbd350c1c	-0.044201
97	0x3e0274c1	0.1273985
98	0xbe0084c7	-0.1255065
99	0xbdbaee5b	-0.09127494
100	0xbd8186a0	-0.06324506
101	0xb841e0d9	-4.622419e-05
102	0x3e0fed6d	0.14055414
103	0xbd8b77eb	-0.06809982
104	0x3de54c4a	0.111961916
105	0xbdabbcc8	-0.083856165
106	0x3e440dbb	0.19145863
107	0x3ba3c333	0.004997635
108	0x3d51eba1	0.051250104
109	0xbdbb7559	-0.09153242
110	0x3d599086	0.053116344
111	0x3dfb896e	0.12282072
112	0x3e18087d	0.14846988
113	0x3d799080	0.06092882
114	0x3e2079ac	0.15671414
115	0xbd94a601	-0.07258225
116	0xbde6d2c5	-0.1127067
117	0x3dd9dc84	0.10637763
118	0xbd1f15d3	-0.038839173
119	0xbe1e6823	-0.15469413
120	0xbd3fd65b	-0.046835285
121	0xbb95017b	-0.0045472956
122	0xbd6c501e	-0.057693593
123	0x3d90aa76	0.07063763
124	0x3db8e4d4	0.090280205
125	0x3dc1f1bb	0.094699346
126	0x3d35097c	0.044198498
127	0x3df0d462	0.11759259
128	0xbdb385d3	-0.08765759
129	0x3d9e9cd2	0.07744755
130	0x3d509b9a	0.050929643
131	0xbd940d90	-0.07229149
132	0x3dd6aeb2	0.10482539
133	0x3cae453a	0.021273244
134	0x3d815c9f	0.06316494
135	0x3e2bac7c	0.16765016
136	0x3ce11b7e	0.02747893
137	0x3decdfe2	0.1156614
138	0x3d08bd33	0.03338356
139	0xbe07c4ae	-0.13258621
140	0x3dbf0d12	0.09328665
141	0x3dcaf107	0.099092536
142	0x3dafda14	0.08586517
143	0xbcace29a	-0.021104146
144	0x3da0f890	0.078599095
145	0x3df83dfa	0.12121196
146	0x3dfd7792	0.12376322
147	0xbe098e1d	-0.13433118
148	0x3d824bce	0.06362115
149	0xbdfb4676	-0.12269299
150	0x3e742341	0.23841573
151	0x3da47312	0.080297604
152	0xbd8e1cae	-0.06939064
153	0x3d9334b8	0.0718779
154	0xbdddb197	-0.10824888
155	0xbe060a15	-0.13089783
156	0x3e920b2f	0.28524157
157	0x3da60de0	0.08108115
158	0xbeb6f9b2	-0.35737377
159	0xbe587cb3	-0.21141319
160	0x3e196ed5	0.14983685
161	0x3d9c14fb	0.07621189
162	0x3e794ade	0.24344966
163	0xbd7300f2	-0.059327073
164	0xbdb98951	-0.09059394
165	0xbec40d94	-0.3829161
166	0xbe0bcc96	-0.13652262
167	0x3e5cac14	0.21550018
168	0x3d109733	0.035300445
169	0x3e519d4f	0.20470165
170	0x3d99f222	0.07516886
171	0xbe9dfa6f	-0.30855128
172	0x3d116ad1	0.03550226
173	0xbd3665e8	-0.04453078
174	0xbd71650e	-0.058934264
175	0x3c654035	0.013992359
176	0x3e04d99f	0.12973641
177	0x3b187d3e	0.002326801
178	0x3e0ac3e3	0.13551287
179	0xbe781ba3	-0.24229293
180	0xbe20f118	-0.1571697
181	0x3df7b71a	0.12095471
182	0x3dc58e9b	0.096463405
183	0x3d9f91ee	0.07791506
184	0xbe34ca88	-0.17655385
185	0xbc5710f4	-0.0131266005
186	0xbeab0958	-0.33405566
187	0x3e07c14e	0.13257334
188	0xbde131a7	-0.109957986
189	0xbe60e5b1	-0.2196262
190	0xbddcc2d4	-0.10779348
191	0x3e52c448	0.20582688
192	0xbe107e29	-0.14110626
193	0xbde68c3c	-0.11257216
194	0xbc949374	-0.018136717
195	0xbe6a0ed8	-0.22857225
196	0xbd3a4758	-0.045478195
197	0x3d958a8a	0.07301815
198	0xbcffd620	-0.031230032
199	0x3dcf856a	0.101328686

l_lstm.bias_hh_l0 f4 [200]
0	0xbd386179	-0.045014832
1	0x3e58e67c	0.21181673
2	0xbea81e3e	-0.32835573
3	0x3d9c63ba	0.07636209
4	0xbea08e42	-0.31358534
5	0x3d05c494	0.032658175
6	0x3d9a77b5	0.075423636
7	0xbd8e00f0	-0.069337726
8	0xbcbad3dd	-0.022806102
9	0x3d8eec2d	0.06978641
10	0xbd08f69a	-0.033438303
11	0x3c1904e5	0.009339546
12	0xbde8d5a6	-0.11368875
13	0x3dc85195	0.097811855
14	0x3e5536ff	0.2082176
15	0x3d4221ba	0.047395445
16	0xbe18ba5a	-0.14914837
17	0x3e83108e	0.25598568
18	0xbce8614d	-0.02836671
19	0xbd9a2a32	-0.07527579
20	0x3c9e9ce4	0.01936192
21	0x3d0bfbae	0.034175567
22	0x3ddeebdc	0.1088483
23	0x3df1b0bc	0.118012875
24	0xbc34f3e3	-0.011044475
25	0xbd861580	-0.065470695
26	0xbdaa56f7	-0.083173685
27	0x3d8513d5	0.06497923
28	0x3d1b4a21	0.03791249
29	0x3d72ced0	0.059279263
30	0xbdba6eff	-0.09103202
31	0xbd3845f5	-0.04498859
32	0xbdfbe8e5	-0.123002805
33	0x3ec39b34	0.38204348
34	0x3dbb8f2b	0.091581665
35	0x3e6eba63	0.23313288
36	0xbe4261fc	-0.1898269
37	0x3dd3f344	0.103491336
38	0x3e3490af	0.17633317
39	0xbca1747a	-0.01970886
40	0x3de59f91	0.112120755
41	0xbe1810bc	-0.14850134
42	0x3e1d11c1	0.15338804
43	0x3df95e31	0.12176169
44	0x3dd50db8	0.10403007
45	0xbd91ea2c	-0.07124743
46	0x3e493ed7	0.19652878
47	0x3e17f6ad	0.14840193
48	0x3d5cd59f	0.053914662
49	0x3d84a204	0.064762145
50	0xbc1c0650	-0.009522989
51	0x3d437100	0.047715187
52	0x3da48186	0.08032517
53	0x3c28f3b0	0.010312006
54	0xbd52f10e	-0.05149942
55	0x3d894f8e	0.06704627
56	0x3ca7e4d8	0.020494863
57	0x3e0d5edd	0.13805719
58	0x3d18fc48	0.03734997
59	0xbd6cf0f2	-0.05784697
60	0x3da887ee	0.082290515
61	0xbd3c631c	-0.045992956
62	0x3dba0970	0.09083831
63	0x3e003009	0.12518324
64	0xbcb80f8c	-0.02246835
65	0xbda4e560	-0.08051562
66	0x3d4c43ec	0.049869463
67	0xbd4754a0	-0.04866469
68	0x3d82f412	0.06394209
69	0xbd608b5e	-0.05482041
70	0x3d5cb064	0.053879157
71	0xbd6968ce	-0.056984715
72	0x3d55d348	0.052203447
73	0xbdf85eb1	-0.12127436
74	0x3dbefb30	0.09325254
75	0xbc4e4660	-0.012590021
76	0x3d730d50	0.059338868
77	0xbd1bb7e0	-0.038017154
78	0x3ddfdc42	0.10930683
79	0xbc9d1b10	-0.019177943
80	0xbe0a1c4f	-0.13487361
81	0x3e06a389	0.13148321
82	0x3db8ed26	0.090296075
83	0x3d3e6e08	0.046491653
84	0xbd5f015e	-0.054444663
85	0xbde921eb	-0.113834225
86	0xbccb6a64	-0.024831004
87	0xbceb846c	-0.028749667
88	0xbd98ac5b	-0.07454749
89	0x3d338378	0.04382655
90	0x3b10ae40	0.0022076517
91	0xbc35f6d0	-0.011106208
92	0x3dbc0460	0.09180522
93	0x3d22adec	0.039716646
94	0x3afb6a00	0.0019181371
95	0x3d7e1cec	0.0620393
96	0x3d8cf6c4	0.06883004
97	0x3de1dbfa	0.11028285
98	0xbd54ce3c	-0.051954493
99	0xbe007826	-0.12545833
100	0x3d8b1b82	0.06792356
101	0xbcb6f5a1	-0.022333922
102	0xbde96669	-0.11396486
103	0x3e0e3457	0.13887154
104	0x3e2d5770	0.16927886
105	0x3de7454a	0.11292513
106	0x3c119536	0.008885672
107	0xbdaff47a	-0.08591552
108	0xbd9c2fa1	-0.07626272
109	0xbbe755c1	-0.007059783
110	0x3ab26d0e	0.0013612823
111	0x3e108015	0.1411136
112	0x3dbdf943	0.092760585
113	0xbd56ac0a	-0.052410163
114	0x3c63ebb7	0.013911179
115	0xbd8ff6e9	-0.07029516
116	0xbd9eb205	-0.07748798
117	0x3ad36b7d	0.0016130056
118	0xbe1dbc2c	-0.15403813
119	0xbd70a3ac	-0.05874984
120	0xbe34963e	-0.17635438
121	0xbda955ce	-0.08268319
122	0xbd914f77	-0.07095235
123	0xbd9f6ec5	-0.077847995
124	0x3dc60e28	0.09670669
125	0x3dcbd5ea	0.0995291
126	0x3dd1e900	0.10249519
127	0x3e10de51	0.14147307
128	0x3d54c595	0.05194624
129	0x3d9873e2	0.07443978
130	0xbde14653	-0.109997414
131	0x3d4ea0cd	0.05044632
132	0x3d619be4	0.05508031
133	0x3de1e321	0.110296495
134	0xbd5bd2b5	-0.053667743
135	0x3e0edd66	0.13951644
136	0xbe2cd2ce	-0.1687729
137	0x3def0572	0.116709605
138	0xbd2b0ed2	-0.04176218
139	0xbe4cd351	-0.20002486
140	0xb91a3131	-0.0001470491
141	0xbd577ae9	-0.05260745
142	0x3d129cba	0.035793997
143	0xbe2556b0	-0.1614635
144	0xbd0f60a8	-0.035004288
145	0xbd5c89f4	-0.0538425
146	0x3bb75000	0.0055942535
147	0xbe0dc572	-0.1384485
148	0xbdc1b72c	-0.094587654
149	0x3c6440c0	0.013931453
150	0x3e470907	0.19437037
151	0x3cea0210	0.028565437
152	0xbca013de	-0.019540723
153	0xbdf825c9	-0.12116582
154	0xbd26e0dd	-0.04074179
155	0x3d91155a	0.070841506
156	0x3ea24fd2	0.31701523
157	0xbd8ff70c	-0.07029542
158	0xbe8002e6	-0.2500221
159	0xbe85e81c	-0.26153648
160	0x3d8ce94f	0.068804376
161	0xbd67d5a5	-0.05660023
162	0x3d114a58	0.03547129
163	0x3bc10500	0.0058904886
164	0x3e175c88	0.14781392
165	0xbe56b229	-0.209664
166	0x3d12a1f0	0.035798967
167	0x3e401c65	0.18760832
168	0x3ceb4aed	0.02872225
169	0x3e91d37e	0.28481668
170	0x3d00374b	0.03130273
171	0xbe82eb10	-0.25569963
172	0x3d99cc2f	0.07509648
173	0x3dbfd177	0.09366124
174	0x3e1b58d0	0.15170598
175	0x3cf7dd8e	0.030257013
176	0x3e7c6b55	0.24650319
177	0xbd9b3430	-0.07578313
178	0xbcf4e136	-0.029892545
179	0xbe9eb9d7	-0.3100116
180	0xbd438f83	-0.047744285
181	0xbd8e2706	-0.06941037
182	0xbd8d4fac	-0.06899962
183	0x3e37e18e	0.17957136
184	0xbe96882e	-0.29400772
185	0x3ccc96f4	0.024974324
186	0xbe98a702	-0.29814917
187	0x3d7e8bd5	0.062145073
188	0x3d7b2f3b	0.06132434
189	0xbe8338fb	-0.2562941
190	0xbe72aa3a	-0.23697749
191	0x3d8b87a2	0.06812979
192	0xbcf34af9	-0.029698836
193	0xbe5f78db	-0.21823446
194	0x3cc6d5f8	0.02427195
195	0xbed7f7f7	-0.4218137
196	0x3e30591a	0.1722149
197	0x3e7dd64f	0.24788783
198	0xbdb98053	-0.09057679
199	0x3d8a7f4c	0.06762561

l_lstm.weight_ih_l1 f4 [200, 50]
0	0x3e84fdd9	0.2597492
1	0x3f026332	0.5093261
2	0xbe0f35d2	-0.13985375
3	0x3ec04da5	0.37559238
4	0xbf6d88fa	-0.92787135
5	0xbdd1192a	-0.10209878
6	0xbefee084	-0.49780667
7	0xc0203cc1	-2.5037081
8	0xbf255d86	-0.6459583
9	0xbf647a6d	-0.89249307
10	0xbe893c37	-0.26803753
11	0xbee4ee90	-0.4471326
12	0xbefa981f	-0.48944184
13	0x3f254e4a	0.64572585
14	0x3f45a568	0.77205515
15	0xc028dd33	-2.638501
16	0xbcee49e7	-0.029087974
17	0xbf4d8136	-0.80275285
18	0xbf92da41	-1.1472856
19	0x3e82ffb9	0.25585726
20	0x3e8bba0b	0.27290377
21	0x3fab9102	1.3403628
22	0x3ec210c2	0.3790341
23	0xbefa4d6e	-0.488872
24	0x3f022d3d	0.5085028
25	0x3f414456	0.754949
26	0xbf6610e7	-0.8986954
27	0x40177450	2.3664742
28	0x3ea52d02	0.322609
29	0x3fcf1898	1.617938
30	0x3fed2f33	1.8530029
31	0x3ebd15ab	0.36930594
32	0xbeb7e779	-0.35918787
33	0xbef9756d	-0.487224
34	0xbe074e04	-0.13213354
35	0xbe5207f3	-0.20510845
36	0xbf620d69	-0.8830171
37	0x3eef575f	0.46746346
38	0x40087a6f	2.1324728
39	0xbebe28ff	-0.37140653
40	0x3f51e4e1	0.81989866
41	0x4023ace8	2.5574284
42	0xbf0407ad	-0.5157421
43	0xbf5eb550	-0.8699541
44	0xbd5a7a78	-0.05333945
45	0xc005aff2	-2.0888638
46	0xbec0b006	-0.37634295
47	0xbee9df2e	-0.45678085
48	0x3f6fb72b	0.9363887
49	0xbd30df80	-0.043181896
50	0xbe28df7f	-0.16491507
51	0x3f0605c5	0.52352554
52	0x3f43c46b	0.76471585
53	0x3f1f1666	0.6214355
54	0x3f086e05	0.53292876
55	0xbdc9f4c0	-0.098611355
56	0xbf683501	-0.9070588
57	0xbf08d35b	-0.534475
58	0x3d5680cf	0.052368935
59	0xc01c6d4a	-2.4441705
60	0xbeef41ba	-0.46729833
61	0xc01abe35	-2.4178593
62	0xbf0e4410	-0.55572605
63	0x3f103060	0.56323814
64	0x3e929b6e	0.28634208
65	0xc059e0f4	-3.404355
66	0x3d653b5d	0.055964816
67	0xbd04ea04	-0.032449737
68	0xbd3f6279	-0.04672477
69	0x3f2c2421	0.6724263
70	0x3f334263	0.70023173
71	0x3faf2afd	1.3684994
72	0x3f184b5e	0.5949
73	0xbf0c0ab5	-0.5470384
74	0xbfbd05fa	-1.4767449
75	0xbf7a72ec	-0.97831607
76	0xbf1cb8ca	-0.61219466
77	0xbedd7734	-0.43255007
78	0x3f9b5a6d	1.2136971
79	0x401c6c85	2.4441235
80	0x3fded1eb	1.7407812
81	0x3f460ac3	0.7736017
82	0xbef8f4ae	-0.48624176
83	0xbf8d32ad	-1.103109
84	0xbda1a1c6	-0.07892184
85	0xbe0c7541	-0.13716604
86	0xbfd33776	-1.65013
87	0x3f751c64	0.95746446
88	0xbef85967	-0.4850571
89	0xbfc9c626	-1.5763595
90	0x3e7adec8	0.24499047
91	0xbf9ddf5f	-1.2333792
92	0xbf3c4b75	-0.7355264
93	0xbffd49d0	-1.9788151
94	0xbdd2a37a	-0.10285087
95	0xc0b4e5eb	-5.653066
96	0xbe812c7d	-0.25229254
97	0x3e0e21c6	0.13880071
98	0x3f31b0e6	0.6941055
99	0xbc38ef70	-0.011287555
100	0x3df8b7ab	0.12144407
101	0x3f4b9aec	0.7953327
102	0x3f97d67a	1.1862328
103	0x3f15495f	0.5831508
104	0x3f2074fe	0.62678516
105	0xbd49fc90	-0.049313128
106	0xbed1d5bd	-0.40983382
107	0xbfeedf62	-1.8661921
108	0xbf88955e	-1.0670583
109	0xbff68920	-1.9260597
110	0xbea63324	-0.32460892
111	0xbea278bc	-0.31732738
112	0xbf147ecf	-0.58005995
113	0x3eb442dd	0.35207263
114	0x3f347301	0.7048798
115	0xbfb6d6a8	-1.4284258
116	0xbe19c239	-0.15015496
117	0xbf6b513f	-0.91920847
118	0xbf18e74f	-0.5972795
119	0x3f1f1486	0.6214069
120	0x3f16ee2b	0.58957165
121	0x3f6f69c3	0.93520755
122	0x3ec2ac6b	0.3802217
123	0xbf30c0f7	-0.6904444
124	0xbfec7e9a	-1.8476136
125	0xbedf98b2	-0.43671185
126	0xbf778960	-0.9669399
127	0x3ea2facd	0.3183197
128	0x3f1a3926	0.6024345
129	0x402746f2	2.6137052
130	0x3f8ae563	1.0851253
131	0x3ec40d3e	0.38291353
132	0xbf954755	-1.1662394
133	0xbf18720b	-0.59549016
134	0xbf9223bd	-1.1417156
135	0x3d7f4fde	0.062332027
136	0xbf7e2ed4	-0.99290204
137	0x3f5fcfc1	0.8742638
138	0x3dedfb3d	0.116201855
139	0xc01e515d	-2.473716
140	0x3eb40806	0.3516237
141	0x3ec421e8	0.38307118
142	0xbf3e255c	-0.74275756
143	0xbf2d1869	-0.6761537
144	0xbbcd8e20	-0.006273046
145	0xc0e9fcf2	-7.312127
146	0xbee9abe5	-0.45638958
147	0xbee6afd3	-0.45056018
148	0x3f6c73c4	0.92364144
149	0xbd780ea2	-0.06056083
150	0x3f26aa3f	0.65103525
151	0xbed179f6	-0.4091336
152	0x3f1cac9f	0.612009
153	0xbee2d583	-0.44303522
154	0xbf14786a	-0.5799624
155	0xbdbd7397	-0.09250563
156	0x3e27b66b	0.1637818
157	0xbf0b2394	-0.5435116
158	0xbf24d0b2	-0.64380944
159	0xbf857202	-1.0425417
160	0x3e651ca9	0.22374214
161	0xbea53eb4	-0.322744
162	0x3ea72811	0.32647756
163	0xbcf47279	-0.029839741
164	0x3f8c8210	1.0977192
165	0xbfb52fd4	-1.4155221
166	0x3ebe333c	0.37148464
167	0x3fcd8307	1.6055611
168	0x3f3d64f4	0.7398217
169	0xbe072252	-0.13196686
170	0xbe9373bd	-0.2879924
171	0x3ea1940e	0.3155827
172	0xbe41e820	-0.18936205
173	0x3ec908a3	0.39264402
174	0xbf6a6399	-0.91558224
175	0xbf04da48	-0.5189557
176	0xbff4c290	-1.9121876
177	0x3fca5672	1.5807631
178	0xbe028255	-0.1274503
179	0x3f903e77	1.1269063
180	0x3f897122	1.073765
181	0x3f05af22	0.52220356
182	0xbf0147a5	-0.50499946
183	0x3e8c0d19	0.27353743
184	0xbe8e7e65	-0.27830806
185	0x3cd2ecb2	0.02574763
186	0x3dd48479	0.1037683
187	0x3f91a266	1.1377685
188	0xbe4182ca	-0.18897548
189	0xbf006e24	-0.5016806
190	0xbe61afdb	-0.2203974
191	0xbf096876	-0.5367502
192	0x3e9c0fc9	0.30480793
193	0xbe2f9e99	-0.17150344
194	0x3d03ac00	0.032146454
195	0xc0cffe22	-6.499772
196	0x3bedd6a1	0.007258252
197	0xbf3c9027	-0.7365746
198	0x401ec51e	2.480781
199	0x3dcc516c	0.099764675
200	0x3e66a86a	0.22525182
201	0x3f1ef507	0.6209263
202	0xbe7319b7	-0.23740278
203	0x3f87174e	1.0553987
204	0xbe75d60d	-0.24007435
205	0x3d4228e0	0.047402263
206	0xbeca3a91	-0.39497808
207	0xc047d776	-3.1225257
208	0xbe8b7e66	-0.27244872
209	0xbfed0669	-1.8517581
210	0xbee38931	-0.44440606
211	0xbf0b01e6	-0.5429977
212	0xbf180fa4	-0.59398866
213	0x3f5b873a	0.85753214
214	0x3f265c50	0.6498461
215	0xc03ff26b	-2.999171
216	0xbe9cf1ef	-0.3065333
217	0xbf734166	-0.95021665
218	0xbf600770	-0.8751135
219	0x3edf3e5b	0.4360226
220	0x3ebd27fe	0.36944574
221	0x3f471ab8	0.77775145
222	0x3eacb3f5	0.33731046
223	0xbf1b1e6f	-0.6059331
224	0xbe1adff0	-0.15124488
225	0xbdd2b9e1	-0.1028936
226	0xbf5081f4	-0.8144829
227	0x3ef4c166	0.478038
228	0x3eefdb7c	0.4684714
229	0x3fdf66c1	1.7453233
230	0x3ff9c4cb	1.9513181
231	0x3eff9b65	0.49923244
232	0xbf1edb27	-0.6205315
233	0xbf1a3bfb	-0.6024777
234	0x3e644642	0.22292426
235	0x3d87cba9	0.06630642
236	0xbf221b6a	-0.6332308
237	0x3f2b96d3	0.67027014
238	0xbd017134	-0.0316021
239	0xbffb28d9	-1.9621841
240	0x3f55a6c8	0.83457613
241	0x3f299903	0.662491
242	0xbf0adf05	-0.5424655
243	0xbf8985e1	-1.0743982
244	0x3cf60b60	0.03003472
245	0xbfb943db	-1.4473833
246	0xbee32f29	-0.44371918
247	0xbecf57e8	-0.40496755
248	0x3f8b8487	1.0899819
249	0x3d872000	0.065979004
250	0x3d653122	0.05595506
251	0x3f3f674b	0.7476699
252	0x3fd51297	1.6646298
253	0x3f413168	0.7546601
254	0x3f2c7676	0.6736826
255	0xbd16e79e	-0.03684198

l_lstm.weight_hh_l1 f4 [200, 50]
0	0xbd8a3d91	-0.06750024
1	0xbd822d8c	-0.063563436
2	0xbdb863af	-0.09003388
3	0x3e000bb5	0.12504466
4	0xbdf42c06	-0.11922459
5	0x3d116d50	0.03550464
6	0x3cf11700	0.029429913
7	0xbde86426	-0.11347227
8	0x3cd21af0	0.02564761
9	0x3c6b6a10	0.014368549
10	0xbdfaa24a	-0.122379854
11	0xbdb276ee	-0.0871409
12	0xbe0b39f5	-0.13596328
13	0x3b017f40	0.0019759685
14	0x3d951336	0.07279055
15	0x3dd73254	0.10507646
16	0x3ca43308	0.020043865
17	0xbd774b6a	-0.060374655
18	0x3dea5a02	0.11442949
19	0xbbbee880	-0.005826056
20	0x3dc12258	0.09430379
21	0x3da0d552	0.078531876
22	0x3d4106e4	0.047125712
23	0x3d7ca8c0	0.06168437
24	0xbcb2af34	-0.021812059
25	0xbbb93360	-0.0056518763
26	0xbd553232	-0.052049823
27	0x3dc2b726	0.09507589
28	0x3df02002	0.11724855
29	0x3dfbcb32	0.12294616
30	0x3e0527db	0.13003485
31	0xbd860d56	-0.065455124
32	0x3daa89d6	0.08327071
33	0x3df02d8e	0.11727439
34	0x3d29d2dc	0.041460857
35	0xbde545ea	-0.11194976
36	0xbe08409b	-0.13305895
37	0x3e063eaf	0.1310985
38	0xbd84f470	-0.06491935
39	0x3d412b88	0.047160655
40	0xbdc2f460	-0.09519267
41	0x3ddf5b2e	0.10906063
42	0xbdd6ee1c	-0.104946345
43	0x3c006ce0	0.007838458
44	0xbde70a86	-0.11281304
45	0xbdb72b88	-0.0894385
46	0xbdedeb12	-0.11617102
47	0xbcac189c	-0.021007828
48	0x3d2616dc	0.040549144
49	0x3d1fd25c	0.039018974
50	0x3dc4c9ae	0.0960878
51	0xbd948364	-0.07251623
52	0x3de4c052	0.11169495
53	0x3daf11de	0.0854833
54	0xbe0c793e	-0.13718125
55	0x3d064310	0.0327788
56	0xbd991ea9	-0.07476551
57	0xbd1edef6	-0.03878685
58	0xbd18c638	-0.03729841
59	0xbe0335b8	-0.12813461
60	0xbd991baf	-0.07475983
61	0xbb1e58c0	-0.0024161786
62	0x3e0a34e1	0.13496734
63	0x3e087179	0.13324536
64	0x3dbefb7c	0.093253106
65	0x3d254510	0.040349066
66	0xbdbf4252	-0.093388215
67	0x3dc41782	0.09574796
68	0x3db8c1dc	0.09021351
69	0x3d5b4940	0.053536654
70	0xbd647552	-0.055775948
71	0x3da02c68	0.0782097
72	0x3be43d80	0.006965339
73	0xbd9dc51c	-0.07703611
74	0xbd6c42b8	-0.057680815
75	0xbbe979e0	-0.0071251243
76	0xbd924b19	-0.0714323
77	0xbd32121e	-0.04347431
78	0xbc4639d0	-0.0120987445
79	0x3dc90b92	0.0981666
80	0x3be60b40	0.007020384
81	0x3e107215	0.14106019
82	0x3d9b739a	0.075904086
83	0xbc5ae770	-0.013360843
84	0xbde1f01c	-0.11032125
85	0x3df485be	0.11939572
86	0x3dee195e	0.11625932
87	0xbc162470	-0.009163961
88	0xbddf31e0	-0.10898185
89	0x3de8af72	0.113615885
90	0xbd91f593	-0.07126918
91	0xbe06a4ea	-0.13148847
92	0x3d6ec3b4	0.058292106
93	0xbe00bbe2	-0.12571672
94	0x3cf7a680	0.03023076
95	0x3de810c6	0.11331324
96	0xbda32d0b	-0.07967576
97	0xbd10f1c0	-0.0353868
98	0x3de045ae	0.1095079
99	0x3c9e00a8	0.019287422
100	0x3df65022	0.12027003
101	0x3d5caf9c	0.05387841
102	0x3cce4378	0.025178656
103	0xbdb386ac	-0.08765921
104	0x3ddd7f50	0.108152986
105	0xbc9e4d40	-0.019323945
106	0xbb6030c0	-0.0034208745
107	0xbb805e80	-0.0039175153
108	0xbd9d2e88	-0.07674891
109	0x3e0f4d5f	0.13994358
110	0xbddae6dc	-0.10688564
111	0xbbf89ea0	-0.007587269
112	0xbe0f103b	-0.13971035
113	0xbe0bf5e7	-0.13668023
114	0x3da79f8e	0.081847295
115	0x3de050f6	0.10952942
116	0xbcf10b44	-0.029424317
117	0xbdcd98cc	-0.10038909
118	0x3dbc5f04	0.0919781
119	0x3dbe80fe	0.09301947
120	0xbd647be0	-0.0557822
121	0x3e074fb5	0.13214
122	0xbdb0f795	-0.086409725
123	0xbe083681	-0.13302042
124	0x3ddaf466	0.106911466
125	0xbbb6d000	-0.0055789948
126	0xbe08aa65	-0.1334625
127	0xbd1c650a	-0.038182296
128	0xbda2da0e	-0.07951747
129	0xbdebb24f	-0.11508619
130	0xbd92f254	-0.07175127
131	0x3ddfb156	0.10922496
132	0x3e08127d	0.13288303
133	0xbbdf4ba0	-0.006814435
134	0xbd508f32	-0.05091781
135	0x3cf69540	0.030100465
136	0xbde22180	-0.11041546
137	0xbd93fdeb	-0.072261654
138	0xbe0461f2	-0.12927988
139	0xbe085454	-0.13313419
140	0xbddcd21d	-0.107822634
141	0xbdf9443e	-0.12171219
142	0xbdbe3f78	-0.092894495
143	0xbcff007c	-0.03112816
144	0x3c3728e0	0.011179179
145	0x3d3846e0	0.044989467
146	0xbd28213c	-0.04104732
147	0x3d8c764e	0.06858502
148	0x3dc8ab74	0.09798327
149	0x3dc5e47a	0.09662719
150	0xbbcc5e80	-0.006236851
151	0x3dfb4ed2	0.12270893
152	0x3dbc2018	0.09185809
153	0xbdc37a25	-0.095447816
154	0x3de41d16	0.1113836
155	0xbda3ced0	-0.07998431
156	0xbcc7d190	-0.02439192
157	0xbd304840	-0.043037653
158	0x3dd6d0c0	0.10489035
159	0x3d4025f0	0.04691118
160	0x3e08cf0f	0.13360237
161	0xbe0c14e0	-0.13679838
162	0x3d6aa714	0.057288244
163	0xbdae9800	-0.085250854
164	0x3dce5248	0.10074288
165	0x3dc7f814	0.09764114
166	0xbe053e76	-0.13012108
167	0xbdebcfc7	-0.1151424
168	0xbd807512	-0.062723294
169	0x3dd2fb30	0.103018165
170	0xbdb3e21c	-0.08783361
171	0x3d0412e0	0.032244563
172	0xbda02206	-0.078189895
173	0xbdd1f9a6	-0.10252695
174	0xbd7395d8	-0.059469074
175	0xbcd4dce8	-0.025984243
176	0xbc531e70	-0.012885675
177	0x3b74e340	0.0037366897
178	0x3dfeff3e	0.12451027
179	0x3ddae920	0.10688996
180	0x3dd0a79c	0.10188219
181	0x3d54c678	0.051947087
182	0x3c3ada70	0.011404619
183	0xbddba8f2	-0.10725583
184	0xbd3bf24e	-0.045885377
185	0x3ce82618	0.028338477
186	0x3d98fc7c	0.074700326
187	0xbe10829a	-0.1411232
188	0xbd2d3788	-0.042289287
189	0x3db08860	0.086197615
190	0x3c335380	0.010945201
191	0xbe0272a8	-0.1273905
192	0x3cca8f80	0.02472663
193	0xbd379a38	-0.04482481
194	0xbd06772e	-0.032828502
195	0xbdee59e4	-0.11638239
196	0xbdafe9d2	-0.085895196
197	0x3e06db3f	0.13169573
198	0x3e00ba01	0.12570955
199	0xbb2d9e00	-0.002649188
200	0xba7d8700	-0.00096713006
201	0x3dc64a52	0.09682144
202	0x3da5ca12	0.080951825
203	0x3e06cc13	0.13163786
204	0x3dff5bbe	0.1246867
205	0xbdda1b40	-0.10649729
206	0xbdb9b313	-0.09067359
207	0xbd2520b4	-0.04031439
208	0xbc750510	-0.01495482
209	0xbcbad20c	-0.022805236
210	0x3d2bc46c	0.04193537
211	0xbe0c8164	-0.13721234
212	0xbcdd9c6c	-0.027052127
213	0xbde51da2	-0.11187293
214	0xbdff0663	-0.1245239
215	0x3d80020e	0.06250392
216	0xbcb37120	-0.021904528
217	0xbc5f58b0	-0.013631985
218	0x3df57926	0.11985998
219	0x3dfb0502	0.122568145
220	0x3db6efa8	0.089324296
221	0x3e00ca77	0.12577234
222	0xbdd9d152	-0.10635628
223	0xbd4e222a	-0.05032555
224	0x3d88871e	0.066663966
225	0xbdac5b84	-0.08415893
226	0x3c4302c0	0.011902511
227	0x3e051c2f	0.12999032
228	0xbddda089	-0.10821635
229	0xbb137000	-0.0022497177
230	0xbe0fafc7	-0.14031897
231	0x3ddfde1a	0.109310344
232	0xbd531a84	-0.05153896
233	0xbdea4f26	-0.114408776
234	0xbe035ed2	-0.1282914
235	0xbd4666be	-0.048437826
236	0x3da948fe	0.08265875
237	0x3df6368a	0.12022121
238	0xbd1e3dda	-0.038633205
239	0xbd331a6e	-0.043726377
240	0xbdb46830	-0.08808935
241	0xbdd9f068	-0.10641557
242	0xbd15348c	-0.036427066
243	0xbd202a4c	-0.039102837
244	0x3c314240	0.010819018
245	0xbc21ebe0	-0.009882897
246	0xbdca3658	-0.098736465
247	0x3d8ea4d2	0.06965031
248	0x3d30ca2c	0.043161556
249	0xbdeb9ea2	-0.11504866
250	0xbdee42cc	-0.11633834
251	0xbdd90f18	-0.10598582
252	0x3d39efe8	0.045394808
253	0x3da97bb2	0.08275546
254	0xbdcca993	-0.09993281
255	0xbdad523a	-0.08462949

l_lstm.bias_ih_l1 f4 [200]
0	0xbee6b444	-0.45059407
1	0xbf84bcfb	-1.0370172
2	0xbee740cd	-0.45166627
3	0x3e885ab6	0.26631707
4	0xbeb5f111	-0.35535482
5	0xbeeb1350	-0.45913172
6	0xbf1a17e9	-0.60192734
7	0x3e97c420	0.2964182
8	0xbeb9b1d4	-0.36268485
9	0xbedb5dc4	-0.42844975
10	0xbe915cf3	-0.28391227
11	0xbf394905	-0.72377044
12	0xbf06b720	-0.52623177
13	0xbee093b1	-0.4386268
14	0xbed84785	-0.42242065
15	0xbf6d65db	-0.92733544
16	0xbe953762	-0.29143816
17	0xbebb4f09	-0.36583737
18	0xbf237131	-0.6384459
19	0xbebbabc1	-0.36654475
20	0xbf69d742	-0.9134408
21	0xbef6b9b9	-0.4818857
22	0xbf1b13a9	-0.60576874
23	0xbef3517f	-0.47523114
24	0xbf08e0b2	-0.5346786
25	0xbf561171	-0.83620363
26	0xbe7c7cd8	-0.24656999
27	0xbf5530f2	-0.8327781
28	0xbfc5ad01	-1.5443422
29	0xbeaa73d1	-0.33291486
30	0xbef963dd	-0.48709002
31	0xbeede961	-0.46467116
32	0xbd9b52e2	-0.07584168
33	0xbe0a26a9	-0.1349131
34	0x3e72b114	0.23700362
35	0xbf0935c8	-0.5359769
36	0xbf28e294	-0.6597073
37	0xbf7c2538	-0.9849429
38	0xbeb3ad34	-0.3509308
39	0xbf51d308	-0.81962633
40	0xbeb06edd	-0.34459582
41	0xbf3ebb86	-0.7450489
42	0xbec3fe76	-0.38280076
43	0xbf16808c	-0.58789897
44	0xbf12f3ab	-0.5740306
45	0xbeb619fd	-0.35566702
46	0xbeaa0ed6	-0.33214444
47	0xbf17e7eb	-0.59338254
48	0xbe868929	-0.2627652
49	0xbf76c511	-0.9639445
50	0xbdefe41a	-0.11713429
51	0xbd6dccdc	-0.058056697
52	0xbd5f817a	-0.054566838
53	0xbda5dd3e	-0.08098839
54	0x3e050449	0.12989916
55	0xbc589c20	-0.013220817
56	0xbda8eb82	-0.082480446
57	0xbe0d7ea7	-0.13817845
58	0x3d805064	0.06265333
59	0x3d707058	0.05870089
60	0xb981d600	-0.0002476424
61	0xbddd9bbc	-0.108207196
62	0xbd4aa0dc	-0.049469814
63	0xbe00f13d	-0.12592025
64	0xbcc158a0	-0.02360183
65	0xbd2f57cc	-0.04280834
66	0x3d27ac48	0.040935785
67	0xbdc713d0	-0.09720576
68	0x3deca832	0.11555518
69	0x3de6227a	0.11237045
70	0xbcf36074	-0.029709078
71	0x3da35e7e	0.07977007
72	0x3cf8dae8	0.03037782
73	0xbc547830	-0.012968108
74	0xbd49c110	-0.049256384
75	0x3dcfacf0	0.10140407
76	0x3d2338ac	0.03984897
77	0x3e0de0d5	0.13855298
78	0xbddf6b70	-0.10909164
79	0x3db75f20	0.089536905
80	0xbde7a108	-0.11310011
81	0xbc7875f0	-0.015164837
82	0xbdb80895	-0.08986012
83	0x3c620e60	0.013797373
84	0x3d8d7160	0.0690639
85	0x3dcfce04	0.10146716
86	0xbb103e80	-0.002200991
87	0xbd7ea574	-0.062169507
88	0x3bb2aa20	0.0054524094
89	0x3dedd8d2	0.11613621
90	0x3deb35d6	0.11484878
91	0xbdf80375	-0.121100344
92	0xbd88acc9	-0.06673581
93	0xbdd863fa	-0.10565944
94	0x3e020f61	0.12701179
95	0x3b7e6d80	0.0038822591
96	0x3d843328	0.0645507
97	0x3d83940a	0.064247206
98	0x3da505ee	0.080577716
99	0x3c97fab8	0.01855217
100	0xbe7070c0	-0.2348051
101	0x3f01afb3	0.5065872
102	0xbd0611ed	-0.03273194
103	0x3f8480b2	1.0351775
104	0x3e997cae	0.29977936
105	0x3db8f16a	0.09030421
106	0xc00ba261	-2.1817858
107	0xbe281025	-0.16412409
108	0xbccd0f81	-0.025031807
109	0xbddd610d	-0.108095266
110	0x3ef42283	0.4768258
111	0x3f13aae3	0.5768263
112	0xbe4293ca	-0.1900169
113	0x3e5eee61	0.21770622
114	0x3e123d1b	0.14281122
115	0xbec2793b	-0.37983117
116	0xbec3cc0f	-0.38241622
117	0x3e8ad758	0.2711742
118	0xbd67f215	-0.05662735
119	0x3dcc014a	0.09961183
120	0xbf588e8a	-0.845925
121	0xbe085c91	-0.13316561
122	0xbd866dd4	-0.06563917
123	0x3e92945d	0.28628817
124	0xbd9acb00	-0.075582504
125	0xbe8d7b83	-0.27633294
126	0xbcfceb0a	-0.030873794
127	0xbf50f06c	-0.81616855
128	0xbe808d78	-0.25107932
129	0x3ec57136	0.38562936
130	0x3effdbcb	0.49972376
131	0xbdf773fc	-0.12082669
132	0xbe8c54c3	-0.27408418
133	0xbf61140c	-0.87921214
134	0x3f8b51db	1.0884355
135	0xbe432c54	-0.19059879
136	0xbd8134d9	-0.06308908
137	0x3f8596cb	1.0436643
138	0xbee16127	-0.44019434
139	0xbf90b3c1	-1.1304857
140	0xbd53df33	-0.05172653
141	0xbff40596	-1.9064205
142	0x3f8df2c5	1.1089712
143	0x3f98743a	1.191047
144	0x3ddd180f	0.107956044
145	0xbddaf3a2	-0.106910005
146	0xbdd7930a	-0.10526092
147	0x3f87990f	1.0593585
148	0xbcb71ee8	-0.022353604
149	0x3e2a9538	0.16658485
150	0xbec6aca6	-0.38803595
151	0xbf68a6cb	-0.90879506
152	0xbe9a9e72	-0.3019901
153	0x3e3ab3a1	0.18232585
154	0xbe973376	-0.2953145
155	0xbf08c5dc	-0.5342691
156	0xbf51fdfc	-0.82028174
157	0xbd8318b4	-0.06401196
158	0xbedf4967	-0.4361069
159	0xbe9d1fa1	-0.30688193
160	0xbe9def66	-0.3084671
161	0xbf334f9c	-0.7004335
162	0xbed14790	-0.4087491
163	0xbecb1a4d	-0.39668503
164	0xbea09640	-0.31364632
165	0xbf2a7fe5	-0.666014
166	0xbf0d7567	-0.55257267
167	0xbebc876b	-0.36822066
168	0xbf379d32	-0.71724236
169	0xbe212bbd	-0.15739341
170	0xbf319842	-0.6937295
171	0xbf246cbb	-0.6422841
172	0xbec38b1c	-0.3819207
173	0xbedb2c94	-0.42807448
174	0xbf69f51a	-0.9138962
175	0xbf4ba54f	-0.79549116
176	0xbf109fd1	-0.5649386
177	0xbf276a1f	-0.653963
178	0xbf893704	-1.0719914
179	0xbf0c7219	-0.548616
180	0xbf214023	-0.6298849
181	0xbeb9fe54	-0.3632685
182	0xbe704fc2	-0.23467925
183	0xbe7ce309	-0.24695982
184	0x3de8ea48	0.113728106
185	0xbf0f4a6c	-0.55972934
186	0xbf27336e	-0.6531285
187	0xbf328920	-0.69740486
188	0xbf13fe6f	-0.5781011
189	0xbf85b1f4	-1.0444932
190	0xbf07399d	-0.52822286
191	0xbf4bffe1	-0.79687315
192	0xbf2bb964	-0.6707976
193	0xbf2b8491	-0.66999155
194	0xbf1c91ad	-0.61159784
195	0xbf0c8d28	-0.5490289
196	0xbe94f23b	-0.29091057
197	0xbf3c399b	-0.735254
198	0xbeb1fb5b	-0.34762082
199	0xbf70b792	-0.94030106

l_lstm.bias_hh_l1 f4 [200]
0	0xbeea6390	-0.45779085
1	0xbf4e883f	-0.80676645
2	0xbea5822c	-0.32325876
3	0x3ea386a7	0.3193867
4	0xbe99c026	-0.3002941
5	0xbf095652	-0.5364734
6	0xbf3f7b4b	-0.74797505
7	0x3de909fe	0.11378859
8	0xbeb554e2	-0.35416323
9	0xbef3d216	-0.4762122
10	0xbf0009e2	-0.5001508
11	0xbf39a288	-0.7251363
12	0xbf15729d	-0.5837801
13	0xbefc2e08	-0.4925387
14	0xbed0617b	-0.40699372
15	0xbf8549d4	-1.0413156
16	0xbea67f5c	-0.32519042
17	0xbe8072ef	-0.25087687
18	0xbecb2e50	-0.3968377
19	0xbdd4470f	-0.10365116
20	0xbf629724	-0.8851187
21	0xbf008392	-0.5020076
22	0xbedaecd6	-0.42758816
23	0xbed79d34	-0.42112124
24	0xbf365025	-0.7121604
25	0xbf3fae08	-0.74874926
26	0xbeadebf5	-0.33969083
27	0xbf3a6793	-0.7281429
28	0xbfc3b5d0	-1.528986
29	0xbf04eabb	-0.5192067
30	0xbeff0df3	-0.4981533
31	0xbeb64dbf	-0.3560619
32	0xbdf18a81	-0.11793996
33	0xbe431449	-0.19050707
34	0x3e68bfc7	0.22729407
35	0xbef3ce08	-0.47618127
36	0xbf04965f	-0.5179195
37	0xbf832457	-1.0245465
38	0xbee9a9ac	-0.45637262
39	0xbf56ebd8	-0.8395362
40	0xbf1c13c8	-0.60967684
41	0xbf326382	-0.69683087
42	0xbed140c1	-0.40869716
43	0xbf493a8f	-0.7860498
44	0xbee5a8b8	-0.44855285
45	0xbe981431	-0.29702905
46	0xbe9f7d34	-0.3115021
47	0xbef287c9	-0.4736922
48	0xbea8b305	-0.3294908
49	0xbf7394f7	-0.9514918
50	0x3ccc2bd0	0.024923235
51	0x3e091fb9	0.13391007
52	0x3df3f35e	0.11911653
53	0xbdf7c61e	-0.12098335
54	0x3dcc85ee	0.099864826
55	0xbe05e381	-0.13075067
56	0x3dcc2700	0.09968376
57	0x3e0f01f9	0.13965596
58	0x3d7cc694	0.061712816
59	0xbc1fdd40	-0.00975734
60	0xbe104818	-0.14090002
61	0xbba0c6c0	-0.0049065053
62	0xbdebcf00	-0.115140915
63	0xbdb71a9b	-0.089406215
64	0x3d8543c6	0.065070674
65	0xbd3dccd0	-0.046337903
66	0x3d74b490	0.05974251
67	0x3c050b30	0.008120343
68	0x3dc20452	0.0947348
69	0x3e0db3d1	0.13838126
70	0xbc020d20	-0.0079377
71	0xbdc65e1a	-0.09685917
72	0xbd8dc4f9	-0.06922335
73	0xbdfbcf4c	-0.12295398
74	0x3d04de74	0.03243871
75	0x3cba20e0	0.022720754
76	0xbdd66a2c	-0.104694694
77	0x3d0ca8ec	0.034340784
78	0xbda94972	-0.08265962
79	0xbdb2dd8f	-0.08733665
80	0xbe0fdfc5	-0.14050205
81	0xbd7443ea	-0.05963508
82	0x3dbc73f8	0.09201807
83	0xbd98a12b	-0.07452615
84	0xbe0e9d2b	-0.13927142
85	0x3c609230	0.013706729
86	0x3d93d7bc	0.072188824
87	0xbd77dcfe	-0.06051349
88	0x3ceb1558	0.0286967
89	0x3de80eb6	0.11330931
90	0x3dc20bb8	0.094748914
91	0xbd17a4ba	-0.03702233
92	0x3dc91988	0.09819323
93	0x3d1b4080	0.03790331
94	0x3d89bfcc	0.067260355
95	0xbc843d38	-0.016142473
96	0xbd0d6706	-0.03452208
97	0x3dca6a3c	0.09883544
98	0x3d883948	0.066515505
99	0xbdb4d9bb	-0.08830591
100	0xbde62310	-0.112371564
101	0x3ef8fbdb	0.4862965
102	0xbdfd292f	-0.12361371
103	0x3f75a837	0.959598
104	0x3e8562a3	0.26051816
105	0x3c1e868a	0.009675631
106	0xc0074050	-2.1133003
107	0xbe1df592	-0.15425709
108	0xbda20897	-0.07911795
109	0x3c64ffb3	0.013976979
110	0x3f0a29f9	0.53970295
111	0x3f0bdc6f	0.5463323
112	0xbe578556	-0.21046957
113	0x3d7fd767	0.062461283
114	0x3de5e63f	0.112255566
115	0xbe4d47f1	-0.20046975
116	0xbeaccfd1	-0.337523
117	0x3e1f04b9	0.15529145
118	0x3cec758c	0.028864644
119	0x3dc64ebd	0.09682987
120	0xbf24e1ed	-0.64407235
121	0x3d8c9a77	0.06865399
122	0x3da0f4d3	0.078591965
123	0x3e4aa455	0.1978925
124	0xbe8d1805	-0.27557388
125	0xbea59766	-0.3234207
126	0xbe5aedc3	-0.21379761
127	0xbf542e0e	-0.82882774
128	0xbe8f7e5a	-0.28026086
129	0x3ecf4dc6	0.40489024
130	0x3eef96fe	0.46794885
131	0xbebcf4a2	-0.3690539
132	0xbe5d8098	-0.21631086
133	0xbf3d4add	-0.7394236
134	0x3f96fcb2	1.1795866
135	0xbe09327a	-0.13398162
136	0xbe48ead5	-0.19620831
137	0x3f9037c3	1.1267017
138	0xbf0b0470	-0.54303646
139	0xbf852668	-1.0402346
140	0xbda731e2	-0.08163811
141	0xbfdb9521	-1.7154886
142	0x3fa2f93f	1.2732314
143	0x3fb37b56	1.4022014
144	0x3d2605e4	0.04053296
145	0x3d442786	0.047889255
146	0xbe71f4ad	-0.23628493
147	0x3f78ae15	0.9714063
148	0x3d361697	0.044455137
149	0x3e066bb7	0.13127027
150	0xbed233a7	-0.41055033
151	0xbf32138a	-0.69561064
152	0xbefbb450	-0.49161005
153	0x3e1adec8	0.15124047
154	0xbecfddd0	-0.40598917
155	0xbf0651ab	-0.52468365
156	0xbf345597	-0.704431
157	0xbd13097a	-0.03589771
158	0xbec83a78	-0.39107108
159	0xbe7fa26e	-0.24964306
160	0xbe6f8bed	-0.23393221
161	0xbf285be5	-0.6576522
162	0xbe8aa6ec	-0.27080476
163	0xbed7859a	-0.42094117
164	0xbef7cd0c	-0.48398626
165	0xbf1c8805	-0.6114505
166	0xbea0dd80	-0.3141899
167	0xbe8ef6de	-0.2792272
168	0xbf066874	-0.5250313
169	0xbe4cc03e	-0.1999521
170	0xbf7014f0	-0.9378195
171	0xbf44754d	-0.76741487
172	0xbec8ffcf	-0.39257666
173	0xbee172f1	-0.44033006
174	0xbf69d51f	-0.9134082
175	0xbf839e30	-1.028265
176	0xbf22cb3a	-0.6359135
177	0xbf29e1ef	-0.6636037
178	0xbf8eb055	-1.1147562
179	0xbec095af	-0.376142
180	0xbf2a6f12	-0.6657573
181	0xbebfb8ff	-0.37445828
182	0xbe0b33dd	-0.13594003
183	0xbe4c90f7	-0.19977175
184	0x3e820c76	0.25400132
185	0xbf306512	-0.6890422
186	0xbf359a3d	-0.70938474
187	0xbf42c5e1	-0.7608319
188	0xbedf4895	-0.43610063
189	0xbf80d545	-1.0065085
190	0xbeef52d4	-0.4674288
191	0xbf33df14	-0.70262265
192	0xbf044ed8	-0.51682806
193	0xbf4c7eb4	-0.79880834
194	0xbef84c0b	-0.48495516
195	0xbf08d3fb	-0.53448457
196	0xbec8e442	-0.39236647
197	0xbf2ae7ce	-0.66759956
198	0xbe8ddbce	-0.2770676
199	0xbf85ecf9	-1.0462943

l_linear.weight f4 [1, 50]
0	0xc1b162fa	-22.173328
1	0xc29d0416	-78.50798
2	0xc218c5a9	-38.193027
3	0xc0c2b39d	-6.0844254
4	0x421473f1	37.113224
5	0x41f8b656	31.089031
6	0x424701b1	49.75165
7	0xc10c5066	-8.769629
8	0xc1e1ffb8	-28.249863
9	0xc1f01a2a	-30.012775
10	0x4220381a	40.054787
11	0xc26d5f65	-59.34316
12	0xc217a29b	-37.908794
13	0x41c7813c	24.938103
14	0x421383d9	36.878757
15	0x426abae5	58.682514
16	0xc22ddba9	-43.46451
17	0x41d450f9	26.539537
18	0x4230c0d7	44.18832
19	0x41cb7a8c	25.434837
20	0x422e4271	43.564884
21	0x4260d131	56.20429
22	0xc1f2e786	-30.363049
23	0x419dc295	19.72001
24	0x42520b5a	52.511086
25	0x42918011	72.75013
26	0x424c297a	51.040504
27	0x425b167f	54.77197
28	0x42d96c4d	108.711525
29	0x423678bd	45.61791
30	0xc2388735	-46.13204
31	0xc22d4924	-43.321426
32	0xc121a7cf	-10.103469
33	0xc24e222b	-51.533367
34	0xc0c531d5	-6.162333
35	0x41ccc00b	25.593771
36	0xc1f35df4	-30.420876
37	0xc24d78df	-51.36804
38	0x4263dd03	56.96583
39	0x42842147	66.064995
40	0xc246e3da	-49.72251
41	0x421efeca	39.748817
42	0xc20a42ab	-34.565105
43	0xc213c81e	-36.945427
44	0xc252b26f	-52.67425
45	0xc25468d9	-53.10239
46	0xc1d08fe3	-26.070257
47	0xc257c6d7	-53.94418
48	0x421679ae	37.618828
49	0xc2d837d6	-108.109055
