model_lstm.pth (torch, 2839 bytes, 5 tensors)

lstm.weight_ih_l0 f4 [16, 7]
0	0xbefae3b9	-0.49001864
1	0xbf6895b9	-0.9085346
2	0x3f099acb	0.5375182
3	0xbe35e912	-0.1776469
4	0xbe701800	-0.23446655
5	0x3f3528f8	0.7076564
6	0x3ca81ca3	0.020521468
7	0xbe9fad24	-0.31186783
8	0x3eb2d9f0	0.34931898
9	0xbf30eb93	-0.6910946
10	0xbfd33ea8	-1.6503496
11	0x3d5269c4	0.051370397
12	0xbea51f02	-0.3225022
13	0xbf927b6e	-1.1443918
14	0x3ee692dc	0.4503392
15	0x3f091296	0.53543985
16	0x3d69b6f1	0.057059232
17	0xbfb93204	-1.4468389
18	0x3db615a0	0.088908434
19	0x3f282f0d	0.65696794
20	0xbf81021c	-1.0078769
21	0x3e34d5c0	0.17659664
22	0xbe6ed92c	-0.23325032
23	0x3e10a16a	0.14124075
24	0xbe8a4312	-0.27004296
25	0xbe93934c	-0.28823316
26	0x3bafba2c	0.0053627696
27	0x3ea7a778	0.32744956
28	0xbf409357	-0.7522482
29	0x3ebf7679	0.37395075
30	0x3fcca0fe	1.5986631
31	0x3eee0bbb	0.46493325
32	0xbc16e35a	-0.009209478
33	0xbb68aaf6	-0.0035502291
34	0xbbc30634	-0.005951667
35	0xbc671af4	-0.014105547
36	0x3fc23d5a	1.5174973
37	0xbf7d3218	-0.9890456
38	0xbeac4e69	-0.33653572
39	0x3d2e709c	0.04258786
40	0x3d524070	0.051330984
41	0x3d1452aa	0.036211647
42	0x3e5df7a7	0.21676503
43	0xbe642ee2	-0.2228351
44	0xbf206b1c	-0.62663436
45	0x3f34f02d	0.7067898
46	0xbf423b83	-0.7587206
47	0x3dbb823c	0.091556996
48	0x3f74aefd	0.9557951
49	0x3e81ee80	0.25377274
50	0x3e9c169a	0.30485994
51	0x3f2ef0d4	0.68336225
52	0xbf1d9636	-0.6155733
53	0xbf12c804	-0.5733645
54	0xbed0ca4d	-0.40779343
55	0xbf310052	-0.69141114
56	0xbf2201c9	-0.63283974
57	0x3cf0b021	0.02938086
58	0xbd6b9067	-0.05751076
59	0x3f17ef42	0.59349453
60	0xbe3d7828	-0.18502867
61	0xbe99a6d2	-0.30010086
62	0x3f112ba0	0.5670719
63	0x3d0a58ba	0.033776022
64	0x3f94a4df	1.1612815
65	0x403f1004	2.9853525
66	0xbf6abd4e	-0.91695106
67	0x3da5d93b	0.08098074
68	0x3b3774b9	0.0027993156
69	0xbf0650b7	-0.5246691
70	0x3cefe0c0	0.029281974
71	0x3faec883	1.3654941
72	0xc069d9d0	-3.6539192
73	0xbe109d20	-0.14122438
74	0xbd07fd2f	-0.03320044
75	0xbcda915c	-0.02668064
76	0xbeb569ad	-0.35432187
77	0xbdad6a97	-0.08467596
78	0x3e485031	0.1956184
79	0xbc079bcb	-0.00827689
80	0x3e4b2812	0.19839504
81	0x3ed9df56	0.42553204
82	0xbf0094db	-0.50227135
83	0x3ee9a78c	0.4563564
84	0x3f5d966a	0.8655764
85	0x3de73f06	0.11291318
86	0xbe21aa68	-0.15787661
87	0xbf9f13b6	-1.242789
88	0x3ee84076	0.4536168
89	0x3ed36194	0.41285384
90	0xbfa9dd32	-1.3270628
91	0xbef0c4cb	-0.4702514
92	0xbf80eb3a	-1.0071785
93	0x3f7ea8a1	0.9947606
94	0xbf86520b	-1.0493788
95	0xbe68e1f8	-0.2274245
96	0xbc2352e4	-0.009968493
97	0xbf820411	-1.0157491
98	0x3f126102	0.5717927
99	0x3f1dbb60	0.61614037
100	0x3decc481	0.11560918
101	0xbfb37257	-1.4019269
102	0x3f01ac6c	0.5065372
103	0x3f19cbe6	0.6007675
104	0xbf86a98d	-1.0520493
105	0x3dc13987	0.094348006
106	0x3fca592e	1.5808465
107	0x3f8cd686	1.1002967
108	0xbf207e44	-0.62692666
109	0x3bc33e65	0.0059583657
110	0x3c4b06d4	0.012391765
111	0xbf8ba6e3	-1.0910305

lstm.weight_hh_l0 f4 [16, 4]
0	0xbfab7eb4	-1.3398042
1	0x3e3737af	0.17892335
2	0x3e962f21	0.29332832
3	0xbf6d0361	-0.9258328
4	0x3e8c5960	0.27411938
5	0x3f1a2828	0.60217524
6	0x3f5ff084	0.8747637
7	0xbf91c26c	-1.1387458
8	0xbf2b79b9	-0.6698261
9	0x3e9a8ffc	0.30187976
10	0x3d93356e	0.07187925
11	0xbf1566a0	-0.5835972
12	0xbe61cbb2	-0.2205036
13	0x3f488d0b	0.78340214
14	0x3f1493b8	0.580379
15	0xbe9e085e	-0.3086576
16	0xbeeefb6c	-0.46676195
17	0x3dc577fb	0.09642025
18	0x3f87390e	1.0564287
19	0xbd864dbd	-0.06557796
20	0x3f31ed2f	0.6950254
21	0xbf511119	-0.81666714
22	0x3eebe866	0.46075743
23	0x3e9d3916	0.30707616
24	0xbf9426a2	-1.157429
25	0xbcab5612	-0.020915065
26	0xc004553d	-2.0677025
27	0x3f851a51	1.0398656
28	0xbea5d744	-0.32390797
29	0x3f8be824	1.0930219
30	0x3efb9ab8	0.4914148
31	0xbef6e490	-0.48221254
32	0xbda46d41	-0.08028651
33	0xbecb8e4b	-0.39756998
34	0x3b78237a	0.0037862943
35	0x3eb218de	0.34784597
36	0x3fa28dea	1.2699559
37	0xbea6138a	-0.32436782
38	0xbc3ec201	-0.011642934
39	0x3d914b55	0.070944466
40	0x400a624a	2.162249
41	0x3efabd35	0.48972479
42	0xbee5dd25	-0.44895282
43	0x3f1d3fc8	0.6142545
44	0xbdf5b08f	-0.119965665
45	0xbd88bce4	-0.06676653
46	0xbf163718	-0.58677816
47	0x3e98a774	0.29815257
48	0xbf585af8	-0.8451381
49	0x3f766767	0.9625153
50	0xbf36ecf4	-0.7145531
51	0xbf468938	-0.7755313
52	0x3fee254b	1.8605131
53	0xbf8d41cf	-1.1035708
54	0x3e389e46	0.18029127
55	0xbf7221c6	-0.94582784
56	0xbf4dc0e4	-0.8037245
57	0x3e038d6f	0.12846921
58	0xbecbe197	-0.3982055
59	0xbf4996da	-0.78745806
60	0x401bb662	2.4330068
61	0xbee98563	-0.45609578
62	0x3f5ee3bc	0.87066245
63	0xbd84f734	-0.06492463

lstm.bias_ih_l0 f4 [16]
0	0x3f98ae14	1.1928124
1	0xbe54cf4a	-0.207822
2	0x3f5e05f0	0.8672781
3	0x3e77d2de	0.24201533
4	0x3e5a4805	0.21316536
5	0xbf8734c7	-1.0562981
6	0x3fabbd9d	1.341724
7	0x3f20d068	0.62818
8	0xbf127ce8	-0.5722184
9	0xbfc28ea2	-1.5199778
10	0xc015883c	-2.33644
11	0xbdcb339b	-0.09921952
12	0x3f2a61e4	0.6655562
13	0xc01b9fa9	-2.43162
14	0x3f34571e	0.7044543
15	0xc026f873	-2.6089141

lstm.bias_hh_l0 f4 [16]
0	0x3fbfa4ec	1.4972205
1	0x3e998c8b	0.29990038
2	0x3e8d026c	0.2754091
3	0xbb1a3506	-0.002353014
4	0x3eeb1ee7	0.45922014
5	0xbedf52a8	-0.4361775
6	0x3fa1b5ad	1.2633568
7	0x3f4660d8	0.7749152
8	0xbf541db8	-0.8285785
9	0xc0022f2c	-2.0341291
10	0xbfb6c0ce	-1.4277589
11	0xbf0d3f50	-0.5517473
12	0x3ebfb063	0.3743926
13	0xc01aec73	-2.4206817
14	0x3f20bc10	0.6278696
15	0xc01b5ed7	-2.4276636

output_layer.weight f4 [1, 4]
0	0xbf99c227	-1.2012376
1	0xc0717719	-3.7728941
2	0xc02961c3	-2.646592
3	0x3faa01f6	1.3281848
