tft_model_hidden16_oneMonth.pth (torch, 168425 bytes, 222 tensors)

input_embeddings.embeddings.article.weight f4 [102, 16]
0	0xbf34ade4	-0.70577836
1	0xbda8f194	-0.08249202
2	0xbf5ea466	-0.869696
3	0xbe577582	-0.2104092
4	0xbd90efa5	-0.070769586
5	0xbf5f6488	-0.87262774
6	0xbf05f1df	-0.5232219
7	0xbe85a933	-0.2610565
8	0x3edf43da	0.43606454
9	0x3e8b3ac8	0.27193284
10	0xbe2dd4ba	-0.1697568
11	0x3e0974b1	0.1342342
12	0x3f8190b8	1.012229
13	0xbedd12c1	-0.4317837
14	0x3ebb4b45	0.36580864
15	0x3ecb7723	0.39739332
16	0x3e0437b6	0.12911877
17	0xc005743c	-2.0852194
18	0xbec23429	-0.3793042
19	0xbe0c6061	-0.1370864
20	0x3fad25be	1.3527143
21	0x3f568f02	0.8381196
22	0x3fe02c62	1.7513545
23	0xbf8a5b49	-1.0809108
24	0xc00b2517	-2.1741388
25	0x3fa529f7	1.2903432
26	0x3e20d3d0	0.157058
27	0xbf37d0de	-0.7180308
28	0xbdad83a4	-0.08472374
29	0xbf3d391f	-0.73915285
30	0x3f959064	1.168469
31	0x3f7027bb	0.93810624
32	0x3f040239	0.5156589
33	0x3f6a4dcd	0.91524965
34	0xc00bc26e	-2.183742
35	0xbd9e5e20	-0.07732797
36	0x3e01c6f1	0.12673546
37	0xbe5ef82f	-0.21774362
38	0xbf1bcc29	-0.608584
39	0xbdb46176	-0.08807652
40	0x3f648f31	0.8928099
41	0xbf309dec	-0.6899097
42	0xbfe27ce1	-1.769436
43	0x3d4034b8	0.046925277
44	0xbbed5ed3	-0.00724397
45	0xbfe4611a	-1.7842133
46	0xbf956e3b	-1.1674265
47	0xbc0a2aad	-0.008433026
48	0xbf9a66a6	-1.2062576
49	0x3e82ed40	0.25571632
50	0x3dead7b9	0.11466927
51	0x3db94048	0.09045464
52	0x3fc59ac2	1.5437853
53	0x3f10a02c	0.564944
54	0xbe7c23a3	-0.2462297
55	0x3f62c1f2	0.8857719
56	0xbf2582b8	-0.64652586
57	0x3fab2a94	1.3372369
58	0x3f8c5b71	1.0965406
59	0xbd06291b	-0.032754045
60	0x3e032dc6	0.1281043
61	0xbf6cf20c	-0.92556834
62	0x40038d0e	2.0554843
63	0x3e455920	0.1927228
64	0xbf2751fa	-0.6535946
65	0xbf7af698	-0.9803252
66	0xbe8a7e80	-0.27049637
67	0x3fa790a8	1.309102
68	0x3fd0a498	1.630023
69	0x3ed73e09	0.42039517
70	0x3db2f7be	0.08738659
71	0x3e966786	0.29375857
72	0x3f12ef6e	0.5739659
73	0x3e0af46b	0.135698
74	0x3ff3116d	1.8989693
75	0x4008ed33	2.1394775
76	0xc00d0e26	-2.2039886
77	0x3eac8c8f	0.33700988
78	0xbfb4f675	-1.4137713
79	0x3f9fa14f	1.2471102
80	0xbf30fc93	-0.691354
81	0x3f0259b4	0.50918126
82	0x3fb462a4	1.4092603
83	0xbd0f6ad0	-0.035013974
84	0x3f2c5ce3	0.67329234
85	0x3dc6d43c	0.09708449
86	0x3fb4040f	1.4063739
87	0xbf5adb70	-0.85491085
88	0x3d96d7f0	0.073654056
89	0x3f6645a3	0.8995001
90	0xbfd5aa48	-1.6692591
91	0xbeaff18d	-0.34363976
92	0xbf658b41	-0.8966561
93	0x3f0d031f	0.5508289
94	0x3fcdabf4	1.6068101
95	0xbf5f1931	-0.87147814
96	0xbec41f4c	-0.38305128
97	0x3e4b3ab5	0.19846614
98	0x3f853ccf	1.0409182
99	0x3e5acbbf	0.21366785
100	0x3ef9f4e3	0.48819646
101	0xbe40fd86	-0.18846712
102	0xbf929108	-1.145051
103	0xbe83d111	-0.25745443
104	0x3f38a9c9	0.7213407
105	0xbf2204d6	-0.6328863
106	0x3fac3b13	1.3455528
107	0xbf9debb5	-1.2337557
108	0xbfcfced1	-1.623499
109	0xbe8db0bf	-0.2767391
110	0x3f4fffe5	0.8124984
111	0xbef4a0f3	-0.47779045
112	0xbf32fc27	-0.69916004
113	0x3f1c1441	0.60968405
114	0x3e8cfe70	0.2753787
115	0xbe9be442	-0.30447584
116	0xbf0aa21d	-0.54153615
117	0x3f622d87	0.8835072
118	0x3fe9e2b1	1.8272306
119	0x3f6a6f32	0.9157592
120	0x3f91a131	1.1377317
121	0x3ee916a5	0.4552509
122	0xbc857b96	-0.016294282
123	0x3f73d2d2	0.9524356
124	0x3f92837c	1.1446376
125	0x3f09ea28	0.5387292
126	0x3e10cfa0	0.14141703
127	0x3ec3c66d	0.38237324
128	0x3fcd8b0c	1.6058059
129	0xbfdd37aa	-1.7282612
130	0x3f8da777	1.1066731
131	0xbf2b4d98	-0.66915274
132	0xbc44ea2c	-0.012018722
133	0x3f39a544	0.725178
134	0xbfb68e84	-1.4262242
135	0x3f2527e8	0.6451402
136	0x3ef1fade	0.4726171
137	0xbf8ed186	-1.1157691
138	0x3e6c5544	0.23079401
139	0xbfee0064	-1.8593869
140	0x3f50107d	0.8127516
141	0x402ea04a	2.7285333
142	0xbc64d10a	-0.013965854
143	0x3f5e1a2d	0.8675869
144	0x3fb71b4b	1.4305204
145	0xbe68c665	-0.22731932
146	0xbfbe13f6	-1.4849842
147	0x3e8b2732	0.2717834
148	0x4011a64c	2.275775
149	0xbf9caa80	-1.2239532
150	0xbf046e54	-0.5173085
151	0x3f10c2bb	0.56547135
152	0xbe873c7f	-0.26413342
153	0x3f8f2268	1.1182375
154	0xbecc3345	-0.39882866
155	0xbff94679	-1.9474632
156	0xbe505b7b	-0.20347397
157	0xbfc71785	-1.5554053
158	0xbf51b533	-0.81917113
159	0x3d977c90	0.07396805
160	0x3fc509e9	1.5393649
161	0xbdc51bc2	-0.09624435
162	0x3f41be22	0.75680745
163	0xbf8f66e8	-1.120328
164	0xbfa00786	-1.2502296
165	0xbf0f0844	-0.5587199
166	0xbf10b3ac	-0.5652416
167	0xbf654d14	-0.89570737
168	0xbf9e111a	-1.2348969
169	0xbf4d7a83	-0.80265063
170	0x3f9ab7f0	1.2087383
171	0xbf2e9e4c	-0.6821029
172	0x3f8cf833	1.1013244
173	0xbf1d46e2	-0.61436284
174	0xbf6c3276	-0.922645
175	0xbf9b7b34	-1.2146974
176	0xbf2e8bfb	-0.68182343
177	0xbdd3de16	-0.10345094
178	0xbf74693a	-0.95473063
179	0xbfe8d63e	-1.8190382
180	0x3ee774f9	0.4520643
181	0x3f4e6ea3	0.8063757
182	0x3cae37fd	0.021266932
183	0x3fde9771	1.7389966
184	0x3e84ce17	0.25938484
185	0xc008ea2e	-2.1392932
186	0x3f3ca3e1	0.7368756
187	0x3f628a37	0.8849215
188	0xbfd31e62	-1.6493647
189	0x3fa6747e	1.30043
190	0x3f7b1367	0.9807648
191	0x3f7e91c6	0.9944118
192	0x3f205368	0.6262727
193	0x3f6d0026	0.9257835
194	0xbed6e0fe	-0.4196853
195	0xbfc0c43a	-1.5059884
196	0x3fd63954	1.6736245
197	0xbf551644	-0.832371
198	0xbf93b80e	-1.1540544
199	0xbfbe7ee6	-1.4882476
200	0xbff4e748	-1.9133081
201	0x40210d21	2.5164263
202	0x3f96ae09	1.1771861
203	0x3f01208a	0.50440276
204	0x3d2eb6d5	0.04265483
205	0xbfa950e1	-1.3227807
206	0xbf1d231e	-0.6138171
207	0x3dce833b	0.10083624
208	0xbf88f4de	-1.0699728
209	0x3e1881b8	0.14893234
210	0xbe44c189	-0.19214453
211	0x3fe58a59	1.7932845
212	0x3fbd2bb4	1.4778962
213	0xbf87210e	-1.0556962
214	0xbebdce36	-0.3707139
215	0x3f2ecd5c	0.68282104
216	0x3f8949d0	1.0725651
217	0xbe137f41	-0.14404012
218	0xbf10a47e	-0.56500995
219	0x3f5ecc26	0.87030256
220	0xbf9036dc	-1.1266742
221	0x3f141523	0.5784475
222	0xbe9d11aa	-0.3067754
223	0x3e191f24	0.14953285
224	0xbe672733	-0.22573547
225	0xc002bf0a	-2.04291
226	0xbf30cce8	-0.6906266
227	0x3ebfd0f9	0.3746412
228	0xbf7417dc	-0.95348907
229	0x3e74fb4c	0.23923987
230	0xbf86bac9	-1.0525752
231	0xbf0a3b45	-0.5399669
232	0x3f876e88	1.0580606
233	0x3f1c1b82	0.60979474
234	0x3fac9327	1.3482407
235	0x3f631f19	0.88719326
236	0xbe0487c0	-0.1294241
237	0xbf63db02	-0.89006054
238	0x3fed1ee1	1.8525048
239	0x3f424202	0.7588197
240	0xbe8a4028	-0.27002072
241	0x3fa50675	1.2892596
242	0xbf3f0eec	-0.74632144
243	0x3f10f8bc	0.5662954
244	0x400748de	2.1138225
245	0x3e32c5f2	0.17458323
246	0xbf08d376	-0.53447664
247	0x3eedd1d9	0.46449164
248	0x3ecaae87	0.3958628
249	0x3f846494	1.0343194
250	0x3f7ca3e4	0.9868758
251	0x3faba9b2	1.3411162
252	0x3f1fb61b	0.62387246
253	0x3f3675f2	0.7127372
254	0x3ffe25de	1.9855306
255	0x3e528214	0.20557433

prescalers.encoder_length.weight f4 [8, 1]
0	0x3f0d31dd	0.5515421
1	0x3e4a0c6c	0.19731301
2	0x3f61cd05	0.8820346
3	0x3d73f1e7	0.059556868
4	0x3f467790	0.7752619
5	0x3d2c9245	0.04213168
6	0x3d90984b	0.070602976
7	0x3e9069b2	0.2820564

prescalers.encoder_length.bias f4 [8]
0	0x3f402639	0.75058323
1	0x3f2f87a2	0.68566334
2	0x3f705fd3	0.93896216
3	0x3e3f2181	0.18665124
4	0x3f08fbee	0.53509414
5	0x3e4e3f64	0.20141369
6	0x3f19a2d3	0.60014075
7	0x3ed198fb	0.40937027

prescalers.views_center.weight f4 [8, 1]
0	0xbc9cea8f	-0.019154815
1	0x3e25f67c	0.16207308
2	0xbdcd2452	-0.10016693
3	0xbf174530	-0.59089947
4	0xbed76505	-0.4206926
5	0x3d3b4ea8	0.04572931
6	0x3f5196f3	0.81870955
7	0x3f45bac3	0.772381

prescalers.views_center.bias f4 [8]
0	0x3f25590a	0.6458899
1	0x3f09cc7b	0.5382764
2	0xbe9338fa	-0.28754407
3	0x3c2974a5	0.010342752
4	0x3f73efab	0.9528758
5	0x3f10f2a2	0.5662023
6	0xbf2920fb	-0.6606595
7	0xbf15a392	-0.58452713

prescalers.views_scale.weight f4 [8, 1]
0	0x3f82afd7	1.0209912
1	0x3dc96502	0.09833719
2	0xbf645a7c	-0.8920057
3	0x3e97cc2e	0.29647964
4	0x3ead14e1	0.33804992
5	0xbe8d0cab	-0.27548727
6	0x3f2176fe	0.6307219
7	0xbf5e1f2e	-0.86766326

prescalers.views_scale.bias f4 [8]
0	0x3e3d99c8	0.18515694
1	0xbeb70c41	-0.35751536
2	0xbdea23cc	-0.11432609
3	0xbdc3b306	-0.095556304
4	0x3f5166c2	0.8179742
5	0xbe01e307	-0.1268426
6	0xbf73f08c	-0.9528892
7	0xbf4b625d	-0.79446965

prescalers.log_views.weight f4 [8, 1]
0	0xbeb73656	-0.35783643
1	0x3f4839ff	0.78213495
2	0x3eaba754	0.335261
3	0xbf180620	-0.59384346
4	0x3d19fa95	0.03759249
5	0x3e6a08c7	0.22854911
6	0xbd73d582	-0.05952979
7	0xbba36394	-0.004986236

prescalers.log_views.bias f4 [8]
0	0xbf2121f0	-0.6294241
1	0x3d87f895	0.0663921
2	0xbf727754	-0.9471333
3	0xbe63fa57	-0.22263466
4	0x3e8a8b2e	0.2705931
5	0x3e949461	0.29019454
6	0xbf543dc2	-0.82906735
7	0xbdaf1d62	-0.08550526

prescalers.relative_time_idx.weight f4 [8, 1]
0	0x3f12f925	0.57411414
1	0x3f4605c3	0.7735254
2	0xbe258c46	-0.16166791
3	0x3efef20d	0.49794045
4	0x3d993a43	0.07481816
5	0xbf13ed34	-0.5778382
6	0x3d2b096d	0.041757036
7	0xbf11c5e2	-0.5694257

prescalers.relative_time_idx.bias f4 [8]
0	0xbd169412	-0.036762305
1	0xbf50719c	-0.81423354
2	0xbf00f343	-0.5037119
3	0xbe822547	-0.25419065
4	0xbe06cd65	-0.1316429
5	0xbf4cefd5	-0.80053455
6	0xbea8a4d8	-0.32938266
7	0xbf816817	-1.0109891

static_variable_selection.flattened_grn.resample_norm.mask f4 [4]
0	0x3cd747c2	0.026279334
1	0xbc6b53b6	-0.01436322
2	0xbea4862f	-0.32133624
3	0x3e6a6867	0.22891389

static_variable_selection.flattened_grn.resample_norm.norm.weight f4 [4]
0	0x3f45f74c	0.7733047
1	0x3f5c7f4b	0.86131734
2	0x3f59a6ac	0.85019946
3	0x3fa294eb	1.2701696

static_variable_selection.flattened_grn.resample_norm.norm.bias f4 [4]
0	0xbe0023a8	-0.12513602
1	0xbce815f8	-0.028330788
2	0x3e5b80ef	0.21435903
3	0xbe8cd0c9	-0.2750304

static_variable_selection.flattened_grn.fc1.weight f4 [4, 40]
0	0x3f14bcf9	0.5810085
1	0xbc30112c	-0.010746282
2	0xbe0bfbfb	-0.13670342
3	0xbeadd1d3	-0.33949146
4	0xbe2b1fa1	-0.16711284
5	0xbe88d262	-0.2672301
6	0xbe8b0f5a	-0.2716015
7	0x3ce577fc	0.028011315
8	0x3e56b8d4	0.20968944
9	0x3ddb04d4	0.1069428
10	0xbe6fa97f	-0.23404501
11	0x3dd67530	0.104715705
12	0x3e14209f	0.14465569
13	0xbed3f121	-0.41394904
14	0xbecf6925	-0.40509906
15	0xbe47b32d	-0.19501944
16	0x3e568127	0.20947705
17	0x3d52af42	0.05143667
18	0xbead558e	-0.33854336
19	0xbec0d4fc	-0.37662494
20	0xbe369340	-0.17829609
21	0xbdc2cec8	-0.09512097
22	0xbe4d8880	-0.20071602
23	0x3ec0cb6b	0.37655196
24	0xbe32e071	-0.1746843
25	0x3bef335c	0.0072998237
26	0xbe5ba4cf	-0.21449588
27	0xbdadff19	-0.08495922
28	0xbe16c211	-0.14722468
29	0x3df5d8d0	0.12004244
30	0x3ccb24c3	0.024797803
31	0xba1ae74d	-0.00059091003
32	0xbe671549	-0.22566713
33	0xbdda82b4	-0.10669461
34	0xbef299b2	-0.47382885
35	0xbeb876f7	-0.36028263
36	0x3e9dde8e	0.30833858
37	0x3e28a5d5	0.1646951
38	0xbd86afe4	-0.06576517
39	0xbe80462d	-0.2505354
40	0x3e3f429b	0.18677752
41	0x3c8b21e4	0.016983934
42	0xbe859d2c	-0.26096475
43	0x3d854f61	0.06509281
44	0x3c515526	0.012776649
45	0xbe3cac1c	-0.1842503
46	0x3d9f7c24	0.0778735
47	0xbc01c67a	-0.007920856
48	0x3e57490d	0.2102396
49	0xbddd6457	-0.10810154
50	0x3d362015	0.04446419
51	0x3ecf169b	0.40446934
52	0x3e02a5bb	0.12758534
53	0x3dedd467	0.11612778
54	0x3e26eb2c	0.16300648
55	0xbaec422b	-0.0018025091
56	0x3e1de8ec	0.15420884
57	0xbed662dc	-0.418723
58	0xbd4c500e	-0.049881034
59	0x3e9bca23	0.30427656
60	0x3ed26215	0.41090456
61	0x3e25b3da	0.16181889
62	0x3e87da2a	0.26533633
63	0x3d55fda4	0.052243844
64	0xbdc1ce10	-0.094631314
65	0x3e085489	0.13313498
66	0xbe122ce3	-0.14274935
67	0x3ea13cba	0.31491643
68	0x3f14ff04	0.5820162
69	0x3efd9c90	0.4953351
70	0xbe84c6ae	-0.2593283
71	0xbec08771	-0.37603334
72	0xbe1451c9	-0.14484324
73	0x3ef3a51c	0.47586906
74	0x3f26eccb	0.6520507
75	0xbe95d106	-0.29261035
76	0xbe996b63	-0.29964742
77	0x3cfb1ec5	0.03065432
78	0xbf57f1e0	-0.84353447
79	0x3e836f5c	0.25670898
80	0x3d3b853f	0.04578137
81	0x3da99578	0.08280462
82	0xbd3a1c93	-0.045437407
83	0x3bbc5abf	0.0057481225
84	0x3ee607ad	0.4492773
85	0x3cd7b6b5	0.026332239
86	0x3e7188a9	0.23587288
87	0x3f13c6b2	0.5772506
88	0x3dd89034	0.105743796
89	0xbea6ed1c	-0.32602775
90	0x3de48779	0.11158652
91	0x3e9b626f	0.30348536
92	0xbec6532d	-0.38735333
93	0xbc2c72a4	-0.010525379
94	0x3e7c41eb	0.2463452
95	0x3e32ad13	0.17448835
96	0x3d806e96	0.062710926
97	0x3e593c99	0.21214522
98	0x3d3b3fc7	0.04571512
99	0xbb804822	-0.003914849
100	0x3e0dbe12	0.13842037
101	0xbe9266f0	-0.2859416
102	0x3daf4dbd	0.08559749
103	0x3e1384ee	0.14406177
104	0x3db8f710	0.090314984
105	0xbe7a9d7c	-0.24474138
106	0xbe1546b5	-0.14577754
107	0xbe967e3f	-0.29393193
108	0xbe08767f	-0.13326453
109	0x3ecd8ebb	0.40147957
110	0xbd991979	-0.07475562
111	0x3dc6e18c	0.097109884
112	0xbd9b56f4	-0.07584944
113	0x3e9c63aa	0.30544788
114	0xbc9b50f9	-0.01895951
115	0xbe4fca7d	-0.20292087
116	0xbd1a28d5	-0.037636597
117	0x3dcfd1c8	0.101474345
118	0xbea510c2	-0.32239348
119	0xbeb093c3	-0.34487733
120	0x3db6008f	0.08886825
121	0x3e6976cb	0.22799222
122	0x3e41249f	0.18861626
123	0x3e816cc8	0.25278306
124	0xbe97e76d	-0.2966875
125	0x3f055bf2	0.5209342
126	0x3e595e5c	0.21227401
127	0xbcf86292	-0.03032044
128	0xbce5d9bc	-0.028057925
129	0xbd879315	-0.066198505
130	0xbdc228d8	-0.094804466
131	0xbe7d5705	-0.24740227
132	0xbddff6e5	-0.10935763
133	0x3d260929	0.04053608
134	0xbe896828	-0.26837277
135	0xbda12315	-0.078680195
136	0xbeab9165	-0.33509365
137	0x3c2c268e	0.010507239
138	0x3ea1792b	0.31537756
139	0xbd825227	-0.063633256
140	0x3ec5c92e	0.3863005
141	0xb90b68ed	-0.00013295161
142	0xbe2dc4a2	-0.1696954
143	0xbec56deb	-0.38560423
144	0xbdcd7b1b	-0.10033246
145	0x3dc3bb26	0.0955718
146	0x3d0df70f	0.03465944
147	0xbc4901fc	-0.0122685395
148	0x3c9e286b	0.019306382
149	0xbdbe8f2e	-0.09304653
150	0x3dafc8da	0.08583231
151	0xbcfebb2c	-0.03109511
152	0xbc493e47	-0.0122829145
153	0x3e4b62af	0.19861864
154	0x3d28dfb7	0.041228976
155	0xbea723b3	-0.32644424
156	0x3e8e4e31	0.2779403
157	0x3dd5502e	0.10415684
158	0x3e9f7ca6	0.31149787
159	0x3e7760c8	0.24158013

static_variable_selection.flattened_grn.fc1.bias f4 [4]
0	0x3c33960a	0.010961065
1	0x3dd7ee3f	0.10543489
2	0x3d7e8f20	0.062148213
3	0xbd8438be	-0.06456135

static_variable_selection.flattened_grn.fc2.weight f4 [4, 4]
0	0x3fc07f61	1.5038873
1	0x3f3ca9a2	0.7369634
2	0x3d632226	0.05545249
3	0xbdd729d7	-0.10506027
4	0xbf7ecd59	-0.99532086
5	0xbee5c709	-0.44878414
6	0xbe18734d	-0.14887734
7	0xbf16b58f	-0.58870786
8	0xbefc0e97	-0.4922988
9	0xbfc12943	-1.5090717
10	0xbf02c2a4	-0.5107825
11	0x4013348c	2.3000822
12	0x3f0ca131	0.5493346
13	0xbf845a1b	-1.0339998
14	0xbeb8f230	-0.36122274
15	0x3ee353ff	0.4440002

static_variable_selection.flattened_grn.fc2.bias f4 [4]
0	0x3d9aa4cd	0.075509645
1	0xbd49cb4c	-0.049266145
2	0xbbb0bd1c	-0.0053936373
3	0xbd876c48	-0.0661245

static_variable_selection.flattened_grn.gate_norm.glu.fc.weight f4 [8, 4]
0	0xbf299a1b	-0.6625077
1	0x3e3f292e	0.18668053
2	0x3eb9731a	0.36220628
3	0x3f376ace	0.71647346
4	0xbda0b481	-0.078469284
5	0x3e568f76	0.20953164
6	0x3f0da8db	0.5533578
7	0x3ef3b9e2	0.47602755
8	0x3f3fd64e	0.7493638
9	0xbec0a431	-0.37625268
10	0x3f19ff7a	0.6015545
11	0xbec1e6c0	-0.3787136
12	0x3eb65aec	0.35616243
13	0x3e65c09b	0.22436754
14	0x3e523208	0.20526898
15	0x3ee7cdf6	0.45274323
16	0x3f0af587	0.54280895
17	0xbe92ecb4	-0.28696215
18	0xbec12f01	-0.37731174
19	0x3e856e16	0.2606055
20	0x3c83488c	0.016025804
21	0x3e52d812	0.20590237
22	0xbd5742a8	-0.052553803
23	0xbeda13c6	-0.4259321
24	0xbe9c4cdf	-0.30527398
25	0x3eda846f	0.42679164
26	0x3e90af65	0.28258815
27	0xbe239d66	-0.15978011
28	0x3e0c25d1	0.13686301
29	0xbe0484d8	-0.12941301
30	0x3d876acb	0.06612166
31	0xbe514049	-0.20434679

static_variable_selection.flattened_grn.gate_norm.glu.fc.bias f4 [8]
0	0xbe0e3c1e	-0.1389012
1	0xbd20834c	-0.039187714
2	0x3e076224	0.13221031
3	0xbe5b70d4	-0.2142976
4	0x3e590285	0.21192367
5	0xbd14ec6c	-0.036358282
6	0xbc949051	-0.018135222
7	0xbd880d55	-0.06643168

static_variable_selection.flattened_grn.gate_norm.add_norm.norm.weight f4 [4]
0	0x3f74cea6	0.9562782
1	0x3f420aa2	0.75797474
2	0x3f7bb372	0.98320687
3	0x3f18c8aa	0.5968119

static_variable_selection.flattened_grn.gate_norm.add_norm.norm.bias f4 [4]
0	0xbe7be5e4	-0.24599415
1	0xbddbfb8b	-0.107413374
2	0x3e132653	0.14370088
3	0x3e62628d	0.22107907

static_variable_selection.single_variable_grns.article.mask f4 [16]
0	0xbd662278	-0.056185216
1	0x3d27a0ae	0.04092472
2	0x3ca314cd	0.01990738
3	0x3d6eb468	0.058277518
4	0x3d7e594a	0.06209687
5	0x3d58aac7	0.05289724
6	0xbe11f3ea	-0.14253202
7	0xbe4978af	-0.19674943
8	0x3da745d3	0.08167615
9	0xbdc31eee	-0.09527384
10	0x3d135f14	0.035979345
11	0x3db40ca4	0.087914735
12	0xbcc5bba6	-0.02413733
13	0xbd8728f1	-0.06599606
14	0x3d2112a5	0.03932442
15	0x3cc550bd	0.02408635

static_variable_selection.single_variable_grns.article.norm.weight f4 [16]
0	0x3f581a7f	0.8441543
1	0x3f816dc5	1.0111624
2	0x3f7df703	0.99205035
3	0x3f7839c7	0.9696316
4	0x3f848ae2	1.0354884
5	0x3f70d9fa	0.94082606
6	0x3f644e54	0.8918202
7	0x3f4042b6	0.7510179
8	0x3f7be56b	0.9839694
9	0x3f639bd4	0.8890965
10	0x3f7758a3	0.96619624
11	0x3f8909d7	1.0706128
12	0x3f684c5e	0.9074153
13	0x3f5debf2	0.8668815
14	0x3f8a8abe	1.0823591
15	0x3f689907	0.908585

static_variable_selection.single_variable_grns.article.norm.bias f4 [16]
0	0xbcb1ba87	-0.021695388
1	0xbc56b889	-0.01310552
2	0x3dc4e541	0.09614039
3	0x3db6993b	0.08915945
4	0x3df3ae17	0.118984394
5	0x3ccdd942	0.02512801
6	0x3d58f60f	0.052969035
7	0x3d3db0e8	0.04631129
8	0xbd8b2053	-0.06793275
9	0x3d3373c7	0.043811586
10	0xbcf76525	-0.030199597
11	0xbd060828	-0.032722622
12	0x3dada4b6	0.08478682
13	0x3d79fff7	0.061035123
14	0xbc57da63	-0.013174626
15	0x384fee03	4.957431e-05

static_variable_selection.single_variable_grns.encoder_length.resample_norm.mask f4 [16]
0	0xbccd2e51	-0.0250465
1	0xbd3abdd2	-0.045591183
2	0x3dcf037a	0.10108085
3	0x3d6ccc2d	0.057811905
4	0xbc098768	-0.0083941
5	0x3d1ebb4f	0.03875285
6	0xbd12d593	-0.03584821
7	0x3cb07fdb	0.021545341
8	0x3ba055f9	0.0048930612
9	0x3c7882ae	0.015167875
10	0xbcda7302	-0.026666168
11	0xbc284acf	-0.010271742
12	0x3bce7114	0.006300101
13	0xbdb6b635	-0.08921472
14	0xbdaf387c	-0.085556954
15	0x3d5b83ce	0.053592496

static_variable_selection.single_variable_grns.encoder_length.resample_norm.norm.weight f4 [16]
0	0x3f7a1492	0.9768764
1	0x3f731be5	0.9496444
2	0x3f90497c	1.1272426
3	0x3f87cb24	1.0608869
4	0x3f80b6dc	1.0055804
5	0x3f8332ec	1.0249915
6	0x3f851d0b	1.0399488
7	0x3f7c0ec3	0.98460025
8	0x3f709809	0.9398199
9	0x3f84c33c	1.0372081
10	0x3f8100ba	1.0078347
11	0x3f8488c3	1.0354236
12	0x3f6bc874	0.9210274
13	0x3f791bae	0.9730786
14	0x3f82c971	1.0217725
15	0x3f731bc7	0.9496426

static_variable_selection.single_variable_grns.encoder_length.resample_norm.norm.bias f4 [16]
0	0xbcc41b08	-0.02393867
1	0xbd2025c8	-0.03909853
2	0x3da5141c	0.08060476
3	0x3d7279ea	0.059198298
4	0x3b09a9ce	0.0021005752
5	0x3d25f388	0.040515453
6	0xbd1d0265	-0.03833236
7	0x3ca9d08b	0.020729324
8	0x3c5cb075	0.013469805
9	0x3c810a39	0.015751945
10	0xbce195b7	-0.02753721
11	0xbd09d9f7	-0.033655133
12	0x3d2f4d34	0.042798236
13	0xbd70acdc	-0.0587586
14	0xbd850e85	-0.0649691
15	0x3d440446	0.047855638

static_variable_selection.single_variable_grns.encoder_length.fc1.weight f4 [8, 8]
0	0xbe743e5f	-0.23851918
1	0x3f89174c	1.0710235
2	0x3e943c35	0.28952184
3	0x3d90f745	0.07078413
4	0xbe3d1754	-0.1846593
5	0x3f3bcd04	0.73359704
6	0xbf4ee70e	-0.8082131
7	0xbe962892	-0.29327828
8	0x3f07fe53	0.5312244
9	0x3ca36d7c	0.019949667
10	0xbf785bfe	-0.9701537
11	0x3ed47be3	0.41500768
12	0xbf05197e	-0.51992023
13	0x3ed2cbdf	0.41171166
14	0xbf81a696	-1.0128963
15	0xbecefe27	-0.40428278
16	0x3e89e213	0.26930293
17	0x3e86f413	0.2635809
18	0xbf4c8f8c	-0.79906535
19	0x3e25f929	0.16208328
20	0x3e174b62	0.1477485
21	0x3e4d34df	0.200397
22	0x3f0d6893	0.5523769
23	0x3e9d46a4	0.30717957
24	0xbe8ef069	-0.27917793
25	0x3ea3ee27	0.32017633
26	0xbee2e109	-0.44312313
27	0x3f19b973	0.600486
28	0x3ddca087	0.10772806
29	0xbf3b5c7c	-0.73187995
30	0xbefb5df6	-0.49095124
31	0x3e2978a0	0.16549921
32	0xbe865da7	-0.26243326
33	0x3e378e90	0.17925477
34	0x3e57fe55	0.21093114
35	0xbf18f202	-0.59744275
36	0xbf8e17cb	-1.1101011
37	0x3e6dacc0	0.2321043
38	0x3e59ef38	0.21282661
39	0x3ee9febb	0.45702156
40	0xbe532b99	-0.206221
41	0x3e993971	0.29926637
42	0x3c5dada5	0.01353017
43	0xbde2b573	-0.11069765
44	0xbe046aa1	-0.129313
45	0x3f2060f3	0.6264793
46	0x3e8a8aff	0.2705917
47	0xbe0e32ac	-0.13886517
48	0x3e90089b	0.28131565
49	0xbe4591ac	-0.1929385
50	0x3ea7973d	0.32732573
51	0xbf69fb40	-0.91399
52	0xbf1b593a	-0.60683024
53	0x3d4bcd38	0.04975626
54	0x3ef33dfb	0.47508225
55	0x3d10c630	0.035345256
56	0xbf0757e3	-0.5286848
57	0x3f0940ae	0.5361432
58	0xbe26d2a9	-0.16291298
59	0x3d9cd407	0.076576285
60	0xbe843714	-0.2582327
61	0x3f889dc0	1.0673141
62	0x3d9fd4d0	0.07804263
63	0x3eba6dfb	0.36412033

static_variable_selection.single_variable_grns.encoder_length.fc1.bias f4 [8]
0	0xbb96e9ed	-0.004605523
1	0x3d23f4d4	0.04002841
2	0xbcac075e	-0.020999607
3	0x3d0ae6dc	0.03391157
4	0x3d0a3dce	0.033750348
5	0xbd90d3e9	-0.07071669
6	0xbc311de2	-0.010810347
7	0x3d3ee159	0.046601627

static_variable_selection.single_variable_grns.encoder_length.fc2.weight f4 [8, 8]
0	0xbf35b5ae	-0.70980346
1	0xbdeb21f5	-0.11481086
2	0x3f0779b1	0.5292006
3	0xbef2362c	-0.47306955
4	0x3f28fc44	0.66009927
5	0x3d005335	0.031329352
6	0xbda948e8	-0.08265859
7	0x3c79920c	0.015232574
8	0xbe8bb782	-0.27288443
9	0x3e288477	0.16456781
10	0xbe27eff6	-0.16400132
11	0x3e8c5268	0.2740662
12	0xbe61e3c5	-0.22059543
13	0xbd47638c	-0.04867892
14	0xbefc2388	-0.49245858
15	0xbf1d292d	-0.61390954
16	0x3f59da22	0.8509847
17	0xbd188268	-0.03723374
18	0xbdde1840	-0.10844469
19	0xbe256b38	-0.16154182
20	0xbedefa57	-0.4355037
21	0x3c0542c5	0.008133595
22	0x3c3f98c7	0.01169414
23	0xbde1e455	-0.11029879
24	0xbf5c44d3	-0.8604252
25	0x3e6ea485	0.23304947
26	0xbea5d22a	-0.32386905
27	0xbf2b7eaa	-0.6699015
28	0xbd4c7c36	-0.049923144
29	0x3eb52cda	0.35385782
30	0xbe65a8ce	-0.22427675
31	0xbf32fd52	-0.69917786
32	0x3ec27daf	0.37986514
33	0xbf64a298	-0.893106
34	0xbf886f1b	-1.0658907
35	0x3e695ae1	0.22788574
36	0xbe271c6f	-0.1631944
37	0x3f020d85	0.5080188
38	0xbf583bc9	-0.84466225
39	0xbe8bf6fc	-0.27336872
40	0xbe2112a4	-0.15729767
41	0x3ed46b9e	0.41488355
42	0xb852ba12	-5.0241193e-05
43	0xbe9de830	-0.30841208
44	0x3d86d50f	0.065836065
45	0xbf0abb61	-0.5419217
46	0xbec84cf4	-0.3912121
47	0xbeff3d97	-0.49851677
48	0x3e63d261	0.22248222
49	0xbea956de	-0.33074087
50	0x3f54680f	0.8297128
51	0x3dc1272c	0.094312996
52	0xbe0887d2	-0.13333061
53	0x3f0e16c2	0.55503476
54	0x3e9a1489	0.30093792
55	0xbe92752b	-0.28605017
56	0x3f00c01f	0.50293154
57	0x3ea559da	0.32295114
58	0xbceb0893	-0.028690612
59	0x3e776432	0.24159315
60	0xbecf5591	-0.4049497
61	0xbe55d8d8	-0.208835
62	0xbe8c72cd	-0.27431336
63	0xbd7a6061	-0.06112707

static_variable_selection.single_variable_grns.encoder_length.fc2.bias f4 [8]
0	0xbc87e8d1	-0.016590508
1	0xbc663129	-0.014049807
2	0xbd82fa98	-0.06395453
3	0xbc8bc604	-0.017062195
4	0xbd1b01e8	-0.037843615
5	0xbbd5d8dc	-0.006526096
6	0xbd7a9428	-0.06117645
7	0x3d9a23a3	0.075263284

static_variable_selection.single_variable_grns.encoder_length.gate_norm.glu.fc.weight f4 [32, 8]
0	0xbc75ed05	-0.015010123
1	0x3e109038	0.14117515
2	0xbe154c62	-0.14579919
3	0xbdcf4527	-0.10120612
4	0xbe82ea8c	-0.2556957
5	0x3e9f4db0	0.31113958
6	0xbc0801c6	-0.008301204
7	0x3ea6c04a	0.3256858
8	0x3bca380c	0.006171232
9	0x3e861d65	0.261943
10	0xbe9aa067	-0.30200502
11	0x3e518cb7	0.20463835
12	0xbe9a9f78	-0.3019979
13	0x3ebd473b	0.36968407
14	0xbe7a683c	-0.24453825
15	0xbe515369	-0.20441975
16	0xbe879e1c	-0.26487815
17	0xbecbeb84	-0.39828122
18	0xbe86073d	-0.26177397
19	0xbead741a	-0.3387764
20	0x3eb71c05	0.35763565
21	0xbe0460ef	-0.12927602
22	0x3ddfdc29	0.10930664
23	0x3e9161c5	0.28394905
24	0xbe6d6a0c	-0.23184985
25	0xbe1fed57	-0.15617882
26	0xbe885a9f	-0.26631638
27	0x3e910406	0.28323382
28	0xbe87c21f	-0.2651529
29	0xbe971bab	-0.29513296
30	0xbc394db9	-0.011310034
31	0x3ceab13b	0.028648963
32	0x3e5bdc5d	0.2147078
33	0xbde54a81	-0.11195851
34	0xbdbec530	-0.09314954
35	0x3e2be4ce	0.16786501
36	0x3e21373f	0.15743731
37	0x3eb7b34d	0.35878983
38	0x3e9705b1	0.2949653
39	0xbe83a8ce	-0.25714725
40	0x3e810cfc	0.2520522
41	0x3e518c80	0.20463753
42	0xbead887b	-0.3389319
43	0x3ddc03fb	0.10742947
44	0xbe46b1cd	-0.19403763
45	0x3e2d4abf	0.16923045
46	0x3e14cde8	0.14531672
47	0xbe1a9a00	-0.15097809
48	0xbcd9755e	-0.026545223
49	0xbe536abc	-0.20646185
50	0xbe8ac2f3	-0.2710186
51	0x3e14a0ce	0.14514467
52	0xbc3a4ef3	-0.011371362
53	0xbe48199d	-0.1954102
54	0xbe8fafde	-0.28063864
55	0x3e22cae1	0.15897705
56	0x3e22aa56	0.1588529
57	0x3ea95369	0.3307145
58	0xbe49ed48	-0.19719422
59	0xbe197596	-0.14986262
60	0xbe397a96	-0.18113169
61	0x3e361ebf	0.17785166
62	0xbe95edb4	-0.29282916
63	0xbea988f0	-0.33112288
64	0xbcde2495	-0.027117053
65	0xbe3bac5f	-0.18327473
66	0x3e84f84b	0.25970683
67	0xbe4b86a7	-0.19875585
68	0x3d1e696a	0.03867475
69	0xbe916b9f	-0.2840242
70	0x3e9df915	0.30854097
71	0x3e6d3d71	0.2316797
72	0x3da6d8ed	0.08146844
73	0x3dfbc9cd	0.1229435
74	0xbe97ee7d	-0.2967414
75	0xbe746004	-0.23864752
76	0xbb107646	-0.0022043153
77	0xbc3567ec	-0.01107214
78	0x3e56e591	0.2098601
79	0x3e004d65	0.12529524
80	0x3cd4918e	0.025948312
81	0x3e563786	0.20919618
82	0xbe09e025	-0.1346441
83	0x3dd03ded	0.101680614
84	0xbea11d54	-0.31467688
85	0x3e74128d	0.23835202
86	0x3e6b072f	0.22951959
87	0xbce6c1e7	-0.028168632
88	0x3e8d9006	0.27648944
89	0xbe6f4353	-0.23365526
90	0xbd5cd236	-0.05391141
91	0xbe5907a1	-0.21194316
92	0x3bb9738f	0.0056595276
93	0xbe0b976e	-0.13631985
94	0x3e397dcf	0.18114398
95	0xbe59fd6c	-0.21288079
96	0x3c36b44b	0.011151384
97	0x3e354b3c	0.17704481
98	0x3eaac579	0.33353785
99	0x3ec9a6c3	0.39385042
100	0xbe467c23	-0.19383292
101	0xbdc7fe95	-0.097653545
102	0x3e97056e	0.2949633
103	0x3e164fd2	0.14678887
104	0x3e130ac6	0.14359578
105	0x3e3a2135	0.1817673
106	0xbedb9016	-0.42883366
107	0x3e852a44	0.2600881
108	0x3e718e5b	0.2358946
109	0x3e556690	0.20839906
110	0xbe671d88	-0.22569859
111	0x3d037bb2	0.032100387
112	0xbe353f31	-0.17699887
113	0x3e1ef87e	0.1552448
114	0x3e08667b	0.13320343
115	0xbe4447a1	-0.1916795
116	0xbd85ddc0	-0.06536436
117	0x3c5d1b72	0.013495313
118	0x3e7e1ddf	0.24816082
119	0x3d69fdbe	0.057126753
120	0xbe82e220	-0.25563145
121	0x3e338eee	0.17534992
122	0xbe27c580	-0.16383934
123	0xbd7be3a7	-0.061496403
124	0xbce71a6f	-0.028210847
125	0x3dc2765c	0.094952315
126	0xbdc243e1	-0.09485603
127	0x3d21c8bd	0.03949808
128	0xbe96f5b3	-0.2948433
129	0xbd67fe81	-0.0566392
130	0x3ec64453	0.38724002
131	0xbe60139b	-0.21882479
132	0xbd1a3569	-0.037648592
133	0xbba2e943	-0.0049716546
134	0x3df19225	0.11795453
135	0xbe0f388f	-0.13986419
136	0x3e13d7be	0.14437768
137	0xbdebb73a	-0.11509557
138	0x3c59a271	0.013283358
139	0x3ea4021a	0.32032853
140	0x3eb747c5	0.35796943
141	0xbe0763db	-0.13221686
142	0xbe820a2a	-0.2539838
143	0xbe8e9425	-0.278474
144	0xbd78fb7b	-0.060786705
145	0x3c5f0573	0.013612139
146	0x3e1bc827	0.15213071
147	0xbe3498e4	-0.17636448
148	0x3e3ad8e6	0.18246803
149	0xbcb59552	-0.022165928
150	0x3db1c0b3	0.086793326
151	0x3ebe012e	0.37110275
152	0x3d1714cf	0.03688508
153	0x3d553eba	0.052061774
154	0xbe26ab3b	-0.16276257
155	0x3e83a793	0.25713786
156	0xbec60ec4	-0.3868314
157	0xbe1f412e	-0.15552208
158	0xbb1f897b	-0.002434342
159	0x3e7e9bcc	0.2486412
160	0xbec2c647	-0.380419
161	0xbd178411	-0.036991183
162	0x3c3c8546	0.011506384
163	0x3ea97f39	0.33104876
164	0x3e23ad65	0.15984114
165	0x3eb6e989	0.35725048
166	0xbddcbb80	-0.1077795
167	0xbeb8bd67	-0.36082003
168	0x3ce8a235	0.028397659
169	0x3e91651e	0.2839746
170	0xbc95a1c6	-0.018265616
171	0x3db332c1	0.08749915
172	0x3eaabe68	0.33348393
173	0xbeb1b797	-0.3471038
174	0x3cb57857	0.02215211
175	0x3e23125e	0.15924975
176	0x3db8bac9	0.090200014
177	0xbd5ac117	-0.0534068
178	0xbe699cbb	-0.22813694
179	0x3e43a1db	0.19104712
180	0x3d5d83f8	0.054080933
181	0x3e119209	0.14215864
182	0xbd97aa24	-0.074054986
183	0xbe6edeb0	-0.23327136
184	0x3e4cd8c8	0.2000457
185	0xbe251f5c	-0.16125244
186	0xbea037fb	-0.3129271
187	0xbe61d6b3	-0.22054558
188	0xbebde2a3	-0.37086973
189	0xbe9a5226	-0.301408
190	0xbe0e6803	-0.13906865
191	0xbebced04	-0.3689958
192	0x3ea0b6de	0.31389517
193	0xbe98c73a	-0.29839498
194	0x3e1d40bd	0.15356727
195	0x3e12b22e	0.14325783
196	0xbe1c2761	-0.15249397
197	0x3da0775f	0.07835268
198	0x3eb519e1	0.35371307
199	0xbec64c0c	-0.38729894
200	0x3c6cc50e	0.014451278
201	0x3e8c3ad6	0.27388638
202	0x3eb05116	0.34436864
203	0x3dc40dd6	0.095729515
204	0x3eaa514b	0.33265147
205	0xbe53393d	-0.20627303
206	0x3e891514	0.26773894
207	0x3d72c30e	0.05926805
208	0xbe73d0a9	-0.23810066
209	0x3e8ef140	0.27918434
210	0x3e860ba3	0.26180753
211	0xbea5c54a	-0.32377082
212	0x3e1328d1	0.14371039
213	0x3e2dc5ec	0.16970032
214	0x3eb4af82	0.35290152
215	0xbe9f42c9	-0.3110564
216	0x3e818496	0.25296468
217	0x3ec22a43	0.37922868
218	0xbe3c9dad	-0.18419524
219	0x3d6c4487	0.05768254
220	0xbec33a80	-0.3813057
221	0x3dd6010d	0.10449419
222	0xbea32151	-0.31861356
223	0xbec09f25	-0.37621418
224	0x3e08cc4b	0.13359182
225	0x3e4ba8f9	0.19888677
226	0x3e68ac2b	0.22721927
227	0x3e99006e	0.2988314
228	0xbdfa7e21	-0.122310884
229	0xbe966182	-0.29371268
230	0x3e695bf3	0.22788982
231	0x3ea64ab5	0.32478872
232	0xbe7cddc9	-0.2469398
233	0xbeb6d565	-0.35709682
234	0xbe5e30a9	-0.2169825
235	0xbe77e5c7	-0.24208747
236	0x3ea97732	0.3309875
237	0xbebe8dc9	-0.37217548
238	0x3e2d463c	0.16921324
239	0x38a60218	7.915887e-05
240	0xbe9c3f24	-0.30516922
241	0xbeaab14f	-0.333384
242	0x3e8aeaa9	0.27132156
243	0xbe6f91f6	-0.23395523
244	0xbe94e89d	-0.2908372
245	0x3d8499e2	0.06474663
246	0xbeb981f2	-0.36231953
247	0x3c0a8471	0.008454428
248	0xbdcf9957	-0.10136669
249	0xbdf877f3	-0.121322535
250	0xbebc83d7	-0.36819336
251	0xbe82210f	-0.25415847
252	0x3e80168a	0.25017196
253	0xbe621d07	-0.22081386
254	0x3e500d33	0.20317535
255	0x3ea72cde	0.32651418

static_variable_selection.single_variable_grns.encoder_length.gate_norm.glu.fc.bias f4 [32]
0	0xbce2a126	-0.027664732
1	0xbd383269	-0.04496995
2	0x3d9d85ec	0.07691559
3	0x3d57e875	0.052711923
4	0x3989ac68	0.0002625913
5	0x3d25ba1a	0.040460683
6	0xbd2fdaf8	-0.042933434
7	0x3b969397	0.004595231
8	0x3c696109	0.014244326
9	0x3cbe2927	0.023212982
10	0xbd169d65	-0.036771197
11	0xbc9b12d6	-0.01892988
12	0x3d2292b2	0.03969068
13	0xbd6c070d	-0.05762391
14	0xbd87828f	-0.06616699
15	0x3d57fb4f	0.0527299
16	0x3c07c7b2	0.008287357
17	0x3c0b886d	0.008516413
18	0xbacec137	-0.0015774135
19	0xbd71f471	-0.059071008
20	0xbd1eae1e	-0.03874027
21	0xbd0e1771	-0.034690324
22	0xbd7b65f0	-0.061376512
23	0xbd5cfed9	-0.05395398
24	0x3b5fc8b2	0.0034146723
25	0xbc9b0d84	-0.018927343
26	0xbd9512b5	-0.07278959
27	0xbd06f85f	-0.03295171
28	0x3c00a139	0.0078509385
29	0x3d0ebcab	0.034847897
30	0xbc23ba1b	-0.0099931015
31	0xbc9b3d5b	-0.018950155

static_variable_selection.single_variable_grns.encoder_length.gate_norm.add_norm.norm.weight f4 [16]
0	0x3f774aed	0.965987
1	0x3f598105	0.84962493
2	0x3f8baa31	1.0911313
3	0x3f854e93	1.0414604
4	0x3f77749c	0.96662307
5	0x3f82b69a	1.0211976
6	0x3f7e212e	0.9926938
7	0x3f71a15e	0.9438685
8	0x3f7e0e45	0.99240524
9	0x3f861b6a	1.0477116
10	0x3f7811be	0.9690207
11	0x3f8052dc	1.0025287
12	0x3f60fa78	0.87882185
13	0x3f7882f8	0.9707484
14	0x3f7da441	0.99078757
15	0x3f705ea4	0.9389441

static_variable_selection.single_variable_grns.encoder_length.gate_norm.add_norm.norm.bias f4 [16]
0	0xbd14f56d	-0.03636687
1	0xbd0e665c	-0.034765586
2	0x3de027d8	0.109450996
3	0x3d4cf160	0.05003488
4	0xbd0f7053	-0.03501923
5	0x3d1ada67	0.03780594
6	0xb9f4a664	-0.00046663277
7	0x3d62a880	0.055336475
8	0x3ca8791e	0.020565566
9	0x3cbb7b91	0.02288607
10	0xbb92543d	-0.0044656084
11	0xbb9564fb	-0.004559157
12	0x3d5fa076	0.054596387
13	0xbd150ad5	-0.036387283
14	0xbd444b4f	-0.047923382
15	0x3d83ff63	0.064451955

static_variable_selection.single_variable_grns.views_center.resample_norm.mask f4 [16]
0	0xbb2d5047	-0.0026445554
1	0xbd3a13df	-0.045429107
2	0x3dfc87c8	0.12330586
3	0x3c9c23f6	0.019060116
4	0x3d36ea5e	0.044657104
5	0x3de04d80	0.10952282
6	0x3de56ff7	0.11202996
7	0x3dd43b33	0.10362854
8	0xbd806601	-0.06269456
9	0x3d242f1c	0.04008399
10	0xbd3923bd	-0.0452001
11	0x3cc0840d	0.023500467
12	0x3cd835c2	0.026392821
13	0xbce3e450	-0.027818829
14	0xbdf6609d	-0.12030146
15	0xbd8ebcf8	-0.06969637

static_variable_selection.single_variable_grns.views_center.resample_norm.norm.weight f4 [16]
0	0x3f75b5ee	0.9598073
1	0x3f761ef4	0.9614098
2	0x3f924604	1.1427617
3	0x3f88d6bc	1.0690532
4	0x3f8861b8	1.0654821
5	0x3f8ffb17	1.1248502
6	0x3f9436d0	1.1579227
7	0x3f929cf0	1.1454144
8	0x3f661491	0.8987513
9	0x3f837e23	1.0272869
10	0x3f6da1ea	0.92825186
11	0x3f83b084	1.0288243
12	0x3f820538	1.0157843
13	0x3f75d4e3	0.96027964
14	0x3f5ddc6b	0.86664456
15	0x3f696b0e	0.9117898

static_variable_selection.single_variable_grns.views_center.resample_norm.norm.bias f4 [16]
0	0xbd89af33	-0.0672287
1	0xbd7483c8	-0.05969599
2	0x3ca64b2d	0.020299518
3	0x3d98a655	0.074536
4	0xbd0cdec9	-0.034392152
5	0xbc08d644	-0.008351866
6	0xbcd5c6c7	-0.026095761
7	0x3d4d7b11	0.050166193
8	0xbd078f89	-0.03309587
9	0x3cc48b9b	0.02399235
10	0xbd7cf8ea	-0.06176082
11	0xbc511296	-0.012760779
12	0x3d966f9b	0.07345506
13	0x3c8ae095	0.016952792
14	0x3d28bcfe	0.041195862
15	0x3d2552b2	0.040362068

static_variable_selection.single_variable_grns.views_center.fc1.weight f4 [8, 8]
0	0x3f3ae873	0.7301094
1	0x3f22177d	0.6331709
2	0x3ea97197	0.33094475
3	0x3eecbb1d	0.46236506
4	0xbf4c23de	-0.7974223
5	0x3fad6be1	1.3548547
6	0xbf5c3a85	-0.86026794
7	0xbf066ea3	-0.5251257
8	0xbecfe3f1	-0.40603593
9	0x3d3a3458	0.045460075
10	0x3f08460b	0.5323188
11	0x3f60de8f	0.878396
12	0x3f1a0144	0.6015818
13	0xbea3a0dc	-0.31958663
14	0xbf3ae973	-0.73012465
15	0x3d23cf61	0.039992694
16	0xbd601be0	-0.054714084
17	0xbecc23a0	-0.3987093
18	0x3e3cc5c3	0.18434815
19	0xbf65c19d	-0.89748555
20	0x3e01bd43	0.12669854
21	0x3e30f6a7	0.1728159
22	0xbf271347	-0.6526379
23	0xbfad8c09	-1.355836
24	0x3ed6b14a	0.41932136
25	0x3e673bdd	0.2258143
26	0x3f0c089a	0.54700625
27	0x3f08b5eb	0.53402585
28	0x3e05cf75	0.1306742
29	0x3f0f1fec	0.55908084
30	0x3e96aef0	0.29430342
31	0xbedc1b3f	-0.42989537
32	0x3f5a2fb6	0.8522905
33	0x3f3bd334	0.73369145
34	0x3e898bfc	0.26864612
35	0x3e23c0fc	0.15991586
36	0xbccd5ddb	-0.025069168
37	0xbc7ebafb	-0.015547509
38	0xbf39d836	-0.72595537
39	0x3f4b809e	0.7949313
40	0xbe55a8b3	-0.20865135
41	0xbcb884a3	-0.022524184
42	0xbe0c2590	-0.13686204
43	0xbd3bfd79	-0.045896027
44	0xbcd5068a	-0.026004095
45	0xbf16b830	-0.588748
46	0x3e11fc02	0.1425629
47	0x3f194a22	0.5987874
48	0xbeec2a2b	-0.46125922
49	0xbe4a201c	-0.19738811
50	0x3eab0317	0.33400795
51	0xbe95adcd	-0.29234162
52	0x3e94521a	0.2896889
53	0x3e53cce6	0.20683631
54	0xbf7e3137	-0.99293846
55	0xbdb6ea6f	-0.089314334
56	0xbf1705f1	-0.5899344
57	0xbfaef0c3	-1.3667225
58	0xbebd416d	-0.36963978
59	0x3f698d72	0.91231453
60	0x3e2c2dad	0.16814299
61	0x3d077d9b	0.03307877
62	0x3ecf58dd	0.40497485
63	0xbe3ca2e2	-0.1842151

static_variable_selection.single_variable_grns.views_center.fc1.bias f4 [8]
0	0xbe11d9d4	-0.14243251
1	0x3cd939de	0.026516851
2	0xbd992a02	-0.074787155
3	0xbdfdf338	-0.12399906
4	0x3d70cbd3	0.058788132
5	0xbd00c86b	-0.031441133
6	0xbdb33d6b	-0.08751949
7	0x3d48f79b	0.04906426

static_variable_selection.single_variable_grns.views_center.fc2.weight f4 [8, 8]
0	0xbee8a2fb	-0.45436844
1	0x3e407844	0.18795878
2	0x3e1c4a83	0.15262799
3	0xbf418d64	-0.7560637
4	0x3dc186f2	0.09449567
5	0xbe1ded09	-0.15422453
6	0xbe3faa49	-0.18717302
7	0x3ec61f58	0.38695788
8	0xbb9565b4	-0.004559243
9	0x3e368344	0.17823511
10	0xbdb818a0	-0.08989072
11	0x3f2da9c2	0.67837155
12	0xbdba265e	-0.09089349
13	0xbea32d4e	-0.31870502
14	0xbf83552e	-1.026037
15	0xbebfdf30	-0.37474966
16	0xbe56910a	-0.20953766
17	0x3f021ab0	0.5082197
18	0xbd7eed68	-0.062238127
19	0xbe0a5973	-0.13510685
20	0x3f2f8d46	0.6857494
21	0xbf33f679	-0.7029796
22	0x3ead32ad	0.33827725
23	0xbf1a21d2	-0.60207856
24	0xbf196ebb	-0.59934586
25	0x3e4153b9	0.18879594
26	0x3eab7d8e	0.33494228
27	0xbf0c3029	-0.54760987
28	0xbeecd007	-0.46252462
29	0x3db30434	0.08741036
30	0x3f8578b9	1.0427467
31	0xbf7bc1c8	-0.9834256
32	0xbe6c0407	-0.23048411
33	0x3e84d6a2	0.25945002
34	0x3f88a25e	1.067455
35	0xbf186ba3	-0.5953924
36	0xbfcdec52	-1.6087744
37	0xbe900161	-0.28126052
38	0x3df326db	0.118726455
39	0xbed09747	-0.40740415
40	0x3ee066f4	0.43828547
41	0xbeb64eb0	-0.3560691
42	0x3ecfcb18	0.40584636
43	0x3c4ea33d	0.012612161
44	0xbfa613b7	-1.2974766
45	0x3ea2feae	0.3183493
46	0x3f537fc0	0.82616806
47	0x3eed6b9c	0.46371162
48	0xbf2b0a55	-0.6681264
49	0x3f354a55	0.70816547
50	0x3f0c57d7	0.5482153
51	0xbe8cd387	-0.27505133
52	0x3de9d034	0.11416665
53	0x3f0cface	0.550702
54	0x3e87719f	0.26453874
55	0x3e49f89a	0.1972374
56	0xbef8149a	-0.48453218
57	0xbe50b7d3	-0.20382623
58	0x3e42f8ff	0.19040297
59	0xbe2e33b4	-0.1701191
60	0x3e80da0d	0.2516636
61	0xbf422f39	-0.75853306
62	0xbe066091	-0.13122775
63	0xbeda4e38	-0.426378

static_variable_selection.single_variable_grns.views_center.fc2.bias f4 [8]
0	0x3e124b23	0.14286475
1	0xbd394bad	-0.045238186
2	0xbb20f4c6	-0.002455996
3	0xbd42d021	-0.04756177
4	0xbbc9ac42	-0.006154568
5	0xbd893c10	-0.06700909
6	0xbbe32569	-0.00693195
7	0x3cfbb474	0.030725695

static_variable_selection.single_variable_grns.views_center.gate_norm.glu.fc.weight f4 [32, 8]
0	0xba2fd7a0	-0.0006707851
1	0x3ea0b658	0.31389117
2	0x3df5d057	0.12002628
3	0xbd991a8c	-0.074757665
4	0x3e2c39d2	0.16818932
5	0xbdf3f2af	-0.119115226
6	0xbe095687	-0.13411914
7	0x3e2a792d	0.16647787
8	0xbe8286a4	-0.25493348
9	0x3e088966	0.13333663
10	0x3daf00d6	0.08545081
11	0x3e2f7ea0	0.17138147
12	0x3dae5960	0.08513141
13	0x3e79c250	0.2439053
14	0x3e54fad3	0.20798807
15	0x3e68890e	0.22708532
16	0xbea0ff6d	-0.31444874
17	0x3e4a5f0e	0.19762823
18	0x3e4d358c	0.20039958
19	0x3e0134e6	0.12617835
20	0x3e8d1c8f	0.2756085
21	0xbec82f58	-0.3909862
22	0x3e1c6c87	0.15275775
23	0x3e2cc8e5	0.1687351
24	0xbcff4289	-0.031159656
25	0xbe975143	-0.29554185
26	0x3e2a9549	0.1665851
27	0x3ebc1892	0.36737496
28	0x3e6297d4	0.2212823
29	0x3e0cbc2d	0.13743658
30	0xbea13bd3	-0.31490955
31	0xbeccb740	-0.3998356
32	0xbd858ad2	-0.065206185
33	0xbe63f03a	-0.22259608
34	0xbe89d06b	-0.26916823
35	0xbe49f8c4	-0.19723803
36	0x3e05a6bf	0.1305189
37	0x3e201176	0.15631661
38	0x3e78b632	0.24288252
39	0xbe8270c7	-0.25476667
40	0xbe08157f	-0.1328945
41	0xbda89ee4	-0.08233431
42	0x3e235272	0.15949419
43	0x3e63526f	0.22199415
44	0x3e2d6202	0.16931918
45	0xbd8e3da8	-0.06945354
46	0x3dfbd64c	0.12296733
47	0xbe6399d1	-0.22226645
48	0x3e9bbb9a	0.30416566
49	0x3ce536e8	0.027980283
50	0xbd496e61	-0.04917753
51	0x3e466887	0.19375812
52	0x3ebfd68d	0.37468377
53	0xbd9a4d3c	-0.075342625
54	0x3e445331	0.1917236
55	0xbdd57a63	-0.10423734
56	0xbd2d5bdc	-0.042323932
57	0xbdfd7d12	-0.12377371
58	0xbe6d480f	-0.2317202
59	0x3e6d1b55	0.23154958
60	0x3e8ebee8	0.27880025
61	0x3ea122b6	0.31471795
62	0x3eb09b51	0.34493497
63	0xbb514fa7	-0.0031938346
64	0x3eb4be81	0.35301593
65	0x3e6d21d6	0.23157439
66	0x3de3fcc0	0.111321926
67	0xbc695020	-0.014240295
68	0x3e1802d8	0.14844835
69	0xbd34c001	-0.04412842
70	0xbebf1632	-0.3732162
71	0x3db3fbb0	0.0878824
72	0xbdb0ea4e	-0.0863844
73	0xbdb86200	-0.09003067
74	0xbe10f374	-0.1415537
75	0xbe30b602	-0.1725693
76	0xbe01206f	-0.12610029
77	0x3e95abdf	0.2923269
78	0xbe4175e6	-0.18892631
79	0x3ce3de55	0.027815977
80	0xbd2d6946	-0.042336725
81	0x3ea54665	0.3228027
82	0xbe5b5b8a	-0.21421638
83	0x3d16d402	0.03682328
84	0xbeb82ccb	-0.35971674
85	0x3c0cf86e	0.008604152
86	0xbe854387	-0.26028082
87	0x3e4823b9	0.19544877
88	0x3db4ce3a	0.08828397
89	0x3e1c4adb	0.1526293
90	0x3d8fe397	0.07025831
91	0xbe89b681	-0.26897052
92	0xbe81905c	-0.2530545
93	0xbe8e6003	-0.27807626
94	0xbdcb91f0	-0.09939945
95	0xbd30840f	-0.04309469
96	0x3e85efb9	0.26159456
97	0x3e8c7b6c	0.27437913
98	0x3dd0c52a	0.10193856
99	0x3ea00b9e	0.31258863
100	0xbd83dc3c	-0.06438491
101	0xbeb37e78	-0.35057425
102	0xbe0a1816	-0.1348575
103	0x3ebcafc5	0.36852852
104	0x3dbac858	0.09120244
105	0x3c34ebf7	0.0110425865
106	0xbd9cf398	-0.07663649
107	0x3b2e6a6a	0.002661372
108	0xbcb68992	-0.022282396
109	0xbe2af711	-0.16695811
110	0xbd5f2634	-0.054479793
111	0xbe898d24	-0.26865494
112	0xbd28315f	-0.04106271
113	0x3de37a1b	0.11107274
114	0x3e56ae3f	0.20964907
115	0x3e9632a6	0.29335517
116	0x3e69b77a	0.22823897
117	0xbd5f3c59	-0.05450091
118	0xbd8f5443	-0.069984935
119	0xbef26696	-0.47343892
120	0xbceb3899	-0.028713511
121	0x3e7ce693	0.24697332
122	0xbd21ef66	-0.03953495
123	0xbc9bdf9d	-0.019027526
124	0x3eaf9baf	0.34298465
125	0x3e6e99e8	0.23300898
126	0x3e192b50	0.14957929
127	0x3d38d92a	0.04512898
128	0xbdfa5be0	-0.12224555
129	0x3e7b1f23	0.24523596
130	0xbe8d7c29	-0.2763379
131	0x3e964d49	0.2935584
132	0xbcc64720	-0.024203837
133	0xbccc4424	-0.024934836
134	0x3ea41e46	0.32054347
135	0x3eac4912	0.33649498
136	0x3ea80141	0.32813457
137	0x3d80ba55	0.0628554
138	0x3d278b6d	0.04090445
139	0xbd870723	-0.06593158
140	0x3cf639ef	0.030056922
141	0x3d6b83ff	0.05749893
142	0xbdfa1a7d	-0.122120835
143	0xbe3b5cba	-0.18297091
144	0xbe48e000	-0.19616699
145	0x3dd149a3	0.10219123
146	0x3dcc956b	0.09989437
147	0x3daca800	0.08430481
148	0x3e20d112	0.15704754
149	0xbd03060d	-0.031988192
150	0xbe19e53e	-0.15028855
151	0x3e7a3e1e	0.24437758
152	0x3e4a5a63	0.19761042
153	0xbd1d78de	-0.038445346
154	0x3ddbead7	0.107381515
155	0xbe4898ed	-0.19589587
156	0xbdbbdbab	-0.09172758
157	0x3ec91ae2	0.39278322
158	0xbe0da1e9	-0.13831295
159	0xbd4d0894	-0.05005701
160	0x3eaf136e	0.3419451
161	0x3ea93a2e	0.330522
162	0x3e54ce21	0.20781757
163	0xbc36b648	-0.011151858
164	0xbec6b948	-0.38813233
165	0xbdeaa95f	-0.11458086
166	0xbcfaebb8	-0.030629978
167	0xbd94449d	-0.072396494
168	0xbe5c82a3	-0.21534209
169	0xbe9809ab	-0.29694876
170	0x3e99554c	0.2994789
171	0x3dd42da9	0.103602715
172	0xbdce6039	-0.10076947
173	0xbe061e38	-0.13097465
174	0xbdc1f284	-0.09470084
175	0x3e848545	0.25882927
176	0xbcd2dc8d	-0.025739932
177	0xbe01e641	-0.12685491
178	0xbe756110	-0.23962808
179	0x3e3965a0	0.18105173
180	0x3f12f660	0.5740719
181	0x3e264be0	0.16239882
182	0x3e6efdda	0.23339024
183	0xbc163f4a	-0.009170363
184	0xbeb15bab	-0.3464025
185	0xbe489795	-0.19589074
186	0x3d833f70	0.06408584
187	0x3eb717e3	0.35760412
188	0x3d96c5ca	0.07361944
189	0x3e6d43ad	0.23170348
190	0x3eb6839a	0.3564728
191	0xbe4fe629	-0.20302643
192	0xbec99093	-0.39368114
193	0xbe99356d	-0.29923573
194	0xbf08beb5	-0.53415996
195	0x3e5962f5	0.21229155
196	0xbe272180	-0.16321373
197	0xbcfa3b70	-0.03054592
198	0xbe29216f	-0.1651666
199	0xbe34f18e	-0.17670271
200	0x3eb9f34b	0.3631843
201	0x3dbf7e0f	0.09350216
202	0xbe17b7ac	-0.14816159
203	0x3e9e2438	0.30887008
204	0xbe4ae0d8	-0.19812334
205	0x3dea3c5c	0.11437294
206	0xbea913d9	-0.33022955
207	0x3cb5e104	0.022202022
208	0xbe956486	-0.29178256
209	0x3e3a34ff	0.18184279
210	0x3d1f4ab9	0.03888962
211	0x3d78eccd	0.060772706
212	0xbe51bb45	-0.20481594
213	0x3eb156b4	0.34636462
214	0x3ebf4fbc	0.3736552
215	0x3e673928	0.22580397
216	0xbecaab93	-0.39584026
217	0xbed22012	-0.41040093
218	0xbe3d3bb7	-0.1847981
219	0x3e1b5ace	0.15171358
220	0x3e4676a4	0.19381195
221	0x3ddb6feb	0.10714706
222	0xbe9d24de	-0.3069219
223	0x3e6c6ef7	0.23089205
224	0xbe8421d2	-0.25807053
225	0xbeb4f1cc	-0.35340726
226	0xbe5b0baa	-0.21391168
227	0x3ea9bd6c	0.3315233
228	0xbe6db11b	-0.23212092
229	0x3e6835a8	0.22676718
230	0x3e684d25	0.22685678
231	0x3e4051a2	0.1878114
232	0xbe43cdb3	-0.19121437
233	0xbe89bcc2	-0.26901823
234	0xbf0de57c	-0.5542829
235	0x3e088a69	0.1333405
236	0x3e9581bb	0.2920054
237	0x3cbd5658	0.023112461
238	0x3f115688	0.5677266
239	0x3e68aaf4	0.22721463
240	0xbe45e58b	-0.19325845
241	0xbd5e0fdc	-0.054214343
242	0x3eb69859	0.35663107
243	0x3dcb24bc	0.09919116
244	0x3b5a3b09	0.0033299348
245	0x3ea88515	0.32914034
246	0xbe5ab6e3	-0.21358828
247	0xbe8df6b6	-0.27727288
248	0xbde8804d	-0.113525964
249	0x3ed8ac3c	0.42318904
250	0xbea9a554	-0.33133948
251	0xbe81cbdc	-0.25350845
252	0xbe0c558f	-0.13704513
253	0xbdae9b52	-0.08525719
254	0xbeb96b22	-0.36214548
255	0xbe8f6776	-0.28008622

static_variable_selection.single_variable_grns.views_center.gate_norm.glu.fc.bias f4 [32]
0	0xbca7d89b	-0.020489028
1	0xbd51183d	-0.051048506
2	0x3d271bac	0.040797874
3	0x3d7f0aac	0.062266037
4	0xbcd07e8e	-0.025450971
5	0xbd42fdbb	-0.047605257
6	0x3d5ad094	0.05342157
7	0x3d19f5ad	0.03758781
8	0x3aebd9e6	0.0017994016
9	0x3c94c296	0.018159192
10	0xbd9a800e	-0.07543956
11	0xbc8d7fd4	-0.017272867
12	0x3dac2ad2	0.08406605
13	0x3d1e3139	0.03862116
14	0x3de65e37	0.11248439
15	0x3cdddf8c	0.027084135
16	0xbdb5826d	-0.08862767
17	0xbcd1f121	-0.025627675
18	0xbcc9e500	-0.024645329
19	0xbd893582	-0.06699659
20	0x3c99beb2	0.018767688
21	0x3d06d3ea	0.03291694
22	0xbcc53d12	-0.024076972
23	0x3c93782f	0.018001644
24	0xbd4c2489	-0.04983953
25	0xbdb7514f	-0.08951055
26	0x3c6a4b98	0.0143002495
27	0x3bb50206	0.005523923
28	0xbbb553d7	-0.005533676
29	0xbe24ade6	-0.16081962
30	0x3d790b4e	0.060801797
31	0x3cab1c8b	0.020887634

static_variable_selection.single_variable_grns.views_center.gate_norm.add_norm.norm.weight f4 [16]
0	0x3f772ec6	0.96555746
1	0x3f77325f	0.96561235
2	0x3f925e35	1.1435
3	0x3f80bec1	1.0058213
4	0x3f845677	1.0338887
5	0x3f8bbe5c	1.0917468
6	0x3f9199ff	1.1375121
7	0x3f8f48c3	1.119408
8	0x3f735339	0.9504886
9	0x3f867c7b	1.0506738
10	0x3f7ae42e	0.98004425
11	0x3f8307a0	1.0236702
12	0x3f84e5ab	1.0382589
13	0x3f83e742	1.0304949
14	0x3f6d681a	0.9273697
15	0x3f7366db	0.9507882

static_variable_selection.single_variable_grns.views_center.gate_norm.add_norm.norm.bias f4 [16]
0	0xbd4a2ba9	-0.049358044
1	0xbcbc4aa7	-0.022984816
2	0x3db9ff64	0.09081915
3	0x3dca2de3	0.098720334
4	0xbcfb3f2d	-0.030669773
5	0x3c648d09	0.013949641
6	0xbc32250e	-0.010873092
7	0x3d88d5a6	0.06681375
8	0x3cce405d	0.025177175
9	0x3d6cbe41	0.057798628
10	0xbcc8c223	-0.024506634
11	0x3b0ee351	0.0021802972
12	0x3d3f635b	0.046725612
13	0xbccf949d	-0.025339419
14	0x3c750898	0.014955662
15	0x3ce35135	0.027748683

static_variable_selection.single_variable_grns.views_scale.resample_norm.mask f4 [16]
0	0xbda5fb03	-0.08104517
1	0x3eba5ffd	0.36401358
2	0x3c51bbe0	0.012801141
3	0x3e158990	0.14603257
4	0xbea32adf	-0.31868646
5	0x3e11ea45	0.14249523
6	0x3d880272	0.066410914
7	0xbdcf0e67	-0.10110169
8	0x3dd68339	0.104742475
9	0xbe2a939a	-0.16657868
10	0x3dd96ea6	0.10616808
11	0xbde10af1	-0.10988415
12	0xbdb6afef	-0.089202754
13	0xbe21c951	-0.15799452
14	0x3cc87d62	0.02447385
15	0x3d8994c6	0.067178294

static_variable_selection.single_variable_grns.views_scale.resample_norm.norm.weight f4 [16]
0	0x3f7f9f1b	0.9985215
1	0x3fad36bd	1.353233
2	0x3f80d05b	1.0063585
3	0x3f90c0de	1.1308858
4	0x3f277163	0.6540739
5	0x3f8a56bc	1.0807719
6	0x3f702441	0.9380532
7	0x3f5915f0	0.847991
8	0x3f872dcc	1.0560851
9	0x3f45a140	0.7719917
10	0x3f902155	1.1260172
11	0x3f804d10	1.0023518
12	0x3f5cf2e7	0.8630814
13	0x3f459046	0.7717327
14	0x3f7c3304	0.98515344
15	0x3f920123	1.1406597

static_variable_selection.single_variable_grns.views_scale.resample_norm.norm.bias f4 [16]
0	0x3d7946b1	0.060858432
1	0xbda491ee	-0.080356464
2	0x3d48a577	0.048985925
3	0xbdb799e6	-0.08964901
4	0xbca6742d	-0.020319069
5	0xbdf101ad	-0.11767898
6	0xbd902cb9	-0.0703978
7	0xbe063761	-0.13107063
8	0xbb689022	-0.00354863
9	0xbe2cd29c	-0.16877216
10	0x3cd84f62	0.02640504
11	0x3d967147	0.07345825
12	0x3dbfff1d	0.09374831
13	0x3e6d6d49	0.2318622
14	0x3d80a12f	0.06280743
15	0x3de30564	0.110850126

static_variable_selection.single_variable_grns.views_scale.fc1.weight f4 [8, 8]
0	0x3e62db71	0.22154023
1	0xbd1507e0	-0.036384463
2	0x3e8718e0	0.26386166
3	0xbf199db9	-0.6000629
4	0xbf15d966	-0.5853485
5	0xbcc94a3a	-0.024571527
6	0xbea87f17	-0.32909462
7	0xbf9c8aff	-1.2229918
8	0x3ecc8634	0.3994614
9	0x3ec1fd14	0.37888396
10	0xbd201a81	-0.039087776
11	0xbdbbb651	-0.091656335
12	0xbdbf6991	-0.09346307
13	0xbf106f58	-0.564199
14	0xbd7629d5	-0.060098488
15	0x3e1ec146	0.15503415
16	0x3f48161a	0.78158724
17	0xbf25d637	-0.6477999
18	0xbd190cf4	-0.03736587
19	0x3f32e192	0.69875443
20	0xbd9f76fe	-0.07786368
21	0x3f6d7271	0.9275275
22	0xbd2abf97	-0.04168662
23	0xbf379d79	-0.7172466
24	0xbe43163d	-0.19051452
25	0x3ec530c5	0.3851377
26	0xbeb37f3e	-0.35058016
27	0x3e7698b6	0.24081692
28	0xbe9b9c17	-0.30392525
29	0xbf5c0d18	-0.8595748
30	0x3f421422	0.7581197
31	0x3e81b8ac	0.25336206
32	0x3eb2bda1	0.349103
33	0x3e7ec078	0.24878109
34	0xbe367d2b	-0.17821185
35	0x3eedfc9a	0.46481782
36	0xbcf037a4	-0.029323407
37	0xbdeb846c	-0.11499867
38	0x3ec37bd7	0.3818042
39	0x3d811df5	0.06304542
40	0x3f12db8d	0.5736626
41	0xbeca18a3	-0.3947192
42	0x3eb4930c	0.35268438
43	0xbd6ebb22	-0.058283933
44	0xbdcaa9b3	-0.09895649
45	0x3f2bca3f	0.6710548
46	0x3e78e57c	0.24306291
47	0x3f8a211f	1.0791358
48	0x3ec894e6	0.391761
49	0x3d58d51e	0.05293762
50	0x3f1cdf44	0.61278176
51	0xbf211e51	-0.62936884
52	0xbf4655fa	-0.7747494
53	0x3f26882e	0.65051544
54	0x3ef0be1b	0.4702004
55	0xbeb16974	-0.34650767
56	0x3de1ffa3	0.11035087
57	0xbf0cc86c	-0.5499332
58	0x3ea7bffa	0.32763654
59	0x3e392df4	0.18083936
60	0x3dde4e93	0.108548306
61	0xbf0e6504	-0.5562289
62	0x3edb1cae	0.42795318
63	0x3efb6114	0.49097502

static_variable_selection.single_variable_grns.views_scale.fc1.bias f4 [8]
0	0xbbcd2b61	-0.0062612747
1	0x3c265b45	0.010153596
2	0x3d1b9d2d	0.03799169
3	0x3d84f540	0.0649209
4	0x3bf454c8	0.007456396
5	0x3dd3ea90	0.103474736
6	0x3cd5a0f3	0.026077723
7	0x3d312cae	0.0432555

static_variable_selection.single_variable_grns.views_scale.fc2.weight f4 [8, 8]
0	0x3f556c7a	0.8336865
1	0xbf090585	-0.5352405
2	0x3ed95bf5	0.4245297
3	0x3ebc36e5	0.3676063
4	0xbf162cd4	-0.5866215
5	0xbf4ab126	-0.7917656
6	0x3f85985b	1.043712
7	0xbef1dfd9	-0.47241095
8	0xbdd77587	-0.105204634
9	0x3f06c890	0.52649784
10	0xbef339e4	-0.47505105
11	0xbf3fd71b	-0.749376
12	0x3f4b253e	0.793537
13	0x3f3c9d5f	0.7367763
14	0x3f201849	0.62537056
15	0xbeb063a2	-0.34451014
16	0xbd263a74	-0.04058309
17	0x3f33462a	0.70028937
18	0xbf80000f	-1.0000018
19	0xbf6aaa7b	-0.9166638
20	0xbe52d575	-0.2058924
21	0x3ee403ea	0.44534236
22	0xbee4b620	-0.446702
23	0x3e4752bc	0.19465154
24	0x3ee8d8c6	0.45477885
25	0xbe27625e	-0.16346118
26	0x3d80f99a	0.06297608
27	0x3f2eacec	0.6823261
28	0x3f1b7776	0.6072916
29	0xbf47484a	-0.7784468
30	0x3df697a0	0.12040639
31	0xbed1f3df	-0.4100637
32	0x3e1c9e32	0.15294722
33	0x3d3295dc	0.04359995
34	0xbedb74de	-0.428626
35	0x3f817e7f	1.0116729
36	0x3e69b116	0.22821459
37	0xbeac7d91	-0.3368955
38	0xbe99c86d	-0.30035725
39	0x3f264f3f	0.6496467
40	0x3eaecccd	0.34140626
41	0xbe352129	-0.17688431
42	0xbda21c4d	-0.07915554
43	0x3f4cf7c5	0.80065566
44	0xbdb465ed	-0.08808503
45	0x3ef7c4e3	0.483924
46	0x3d4c3825	0.04985823
47	0x3e7e3215	0.24823792
48	0xbf03472a	-0.5128046
49	0x3eadadab	0.3392156
50	0x3ee7b55d	0.45255557
51	0x3f478b6b	0.7794711
52	0x3f2c955b	0.674154
53	0xbf010150	-0.5039263
54	0x3f2e4588	0.68074846
55	0xbed39bdb	-0.41329846
56	0xbf06bb71	-0.5262976
57	0xbf394746	-0.7237438
58	0x3c91e9dd	0.01781171
59	0xbf333438	-0.70001554
60	0xbe942db9	-0.28941134
61	0xbca2b607	-0.019862188
62	0x3f0431e4	0.5163863
63	0xbe9ec6f3	-0.3101116

static_variable_selection.single_variable_grns.views_scale.fc2.bias f4 [8]
0	0x3c4364b7	0.011925868
1	0xbcf05580	-0.029337645
2	0x3c8d6db0	0.017264217
3	0xbdf28634	-0.118420035
4	0xbda6b893	-0.081406735
5	0x3e44c27e	0.19214818
6	0x3c88f128	0.016716555
7	0xbdb2a9d6	-0.087238
