tft_model_hidden6_oneMonth.pth (torch, 117413 bytes, 258 tensors)

input_embeddings.embeddings.article.weight f4 [65, 6]
000000 74 b2 82 40 26 cb 21 3e 41 81 bf c0 b6 e7 fb bf
       4.084284 0.15800151 -5.984528 -1.9680088
000010 88 3d 86 c1 bc 25 03 40 6a d8 09 c1 76 e4 02 bf
       -16.780045 2.0491781 -8.615335 -0.51129854
000020 a8 ee 00 40 82 8d 03 41 82 1e 43 c1 6b 9f d3 3e
       2.0145664 8.222048 -12.194948 0.41332564
000030 71 1f 38 41 98 5e c9 bf 85 bf 58 c0 04 09 1f c0
       11.507676 -1.5731993 -3.3866894 -2.4849253
000040 31 92 60 c1 45 20 e6 40 1b 80 59 c1 36 0e 86 3f
       -14.035691 7.191439 -13.593776 1.0473087
000050 04 09 6f bf b4 9f 32 c1 b4 b8 48 3e bc 88 87 c0
       -0.9337313 -11.16399 0.19601709 -4.235441
000060 44 da 1b c1 04 5f 8d c0 c8 e0 5d 41 3f 15 89 41
       -9.7407875 -4.4178486 13.867378 17.135374
000070 2e 06 d1 40 42 ce cc c0 60 df d5 40 78 fe 04 3f
       6.5320044 -6.400178 6.6835175 0.5195079
000080 72 11 ac c0 d7 20 6d c0 4c b4 6d c1 72 0a 05 40
       -5.3771296 -3.7051294 -14.856518 2.0787625
000090 c1 e4 d8 40 9b 80 64 be f1 4f 46 40 6e a4 d5 bf
       6.777924 -0.22314684 3.0986292 -1.6690805
0000a0 ad 16 78 c1 5a cf a7 be 88 77 6b 41 20 59 37 40
       -15.505536 -0.32775384 14.716682 2.8648148
0000b0 94 75 09 c1 fe 43 77 c0 f5 bd 0c c1 46 2d ae 40
       -8.591206 -3.863525 -8.796376 5.4430265
0000c0 86 9b c7 40 da b2 a8 bf 8b 55 82 c1 8f 76 3e c0
       6.237735 -1.3179581 -16.291769 -2.9759862
0000d0 64 2a 83 c0 de 76 3f bf b6 41 e6 40 52 9e de 3f
       -4.0989246 -0.7479075 7.1955214 1.7392066
0000e0 d6 94 14 41 f8 f2 60 41 49 f8 27 c1 dd 29 b5 bf
       9.286337 14.059319 -10.4981165 -1.4153401
0000f0 c8 2f 06 3f 3c c6 54 3f 60 bc 01 41 38 43 d5 bf
       0.5241666 0.8311498 8.10849 -1.6661139
000100 d8 f3 86 41 04 3a de 3f f8 1c fe 40 ea 6f b6 bf
       16.869064 1.7361455 7.941036 -1.4252903
000110 a6 05 3c c1 38 d3 cf c0 63 8c a4 c0 c2 92 1b bf
       -11.751379 -6.4945335 -5.142137 -0.6077081
000120 68 78 cf 3f 24 2d 7d be d0 0f 31 c1 bc 19 2f c1
       1.620862 -0.24724251 -11.06636 -10.943783
000130 98 01 2d bf a5 88 10 c0 d4 b8 3b bf ae 17 06 c0
       -0.67580557 -2.2583401 -0.733289 -2.0951953
000140 1a 53 d8 40 6f d8 35 41 39 3b 4b c1 66 ab fe bf
       6.760144 11.36534 -12.701959 -1.9896057
000150 c8 73 30 bf d5 62 9d bd c3 12 4a 41 b0 bd 38 40
       -0.6892667 -0.07684866 12.6295805 2.8865776
000160 a2 0b 50 c1 3c 3d ed bf fa e8 1c 41 2e 9f 2c be
       -13.00284 -1.8534312 9.806879 -0.16857597
000170 36 9f 72 c0 c5 bd 09 3e 84 d8 77 c1 c0 c5 c4 bf
       -3.7909675 0.13451298 -15.49036 -1.5372849
000180 47 c9 8a 41 ec 24 0e 40 b1 61 3c 3f 21 cd b9 40
       17.34828 2.2210035 0.73586565 5.80629
000190 27 7a 2a c1 93 0d c0 40 fa 2b b7 c0 ba 0f 3d 3f
       -10.654822 6.001657 -5.724118 0.7385212
0001a0 25 56 7d 41 e8 2a 56 41 b6 ff 97 40 62 76 53 bf
       15.833531 13.385475 4.7499647 -0.8260251
0001b0 06 57 a4 c0 a6 1e 82 bf b6 9d 0a c1 60 64 db 40
       -5.135623 -1.0165603 -8.663504 6.856003
0001c0 9e ee 20 c1 ba 7b 85 be ba 29 f4 40 eb 68 a7 3f
       -10.058256 -0.26070958 7.6300936 1.3078893
0001d0 2e 20 f0 c0 9c a0 98 c0 84 fc 32 c1 d4 04 16 40
       -7.503928 -4.7696056 -11.186649 2.3440447
0001e0 3e cf 04 c1 26 c6 32 bf 38 e4 a6 c0 18 cf 1c 41
       -8.300596 -0.698336 -5.2153587 9.80056
0001f0 19 eb 18 c1 48 25 d8 bf 3e c3 49 41 66 fd 21 40
       -9.557397 -1.6886377 12.610167 2.5310912
000200 f6 e2 06 c1 f0 ee cf c0 ca e7 a5 c0 38 a0 ab 40
       -8.43041 -6.497917 -5.1845446 5.363308
000210 ce 39 1c c1 9b f0 f1 3f 17 25 1d 41 5e 8b 3f 41
       -9.764112 1.8901552 9.821555 11.971525
000220 3a 69 64 c0 b0 07 3f c0 a6 c0 6f 40 74 4e e3 be
       -3.5689225 -2.9848442 3.7461333 -0.44395792
000230 e4 d5 58 c1 4e f0 39 c0 be 69 83 3f 30 bc 2d c0
       -13.552219 -2.905292 1.0266645 -2.714611
000240 b7 4e 7d 40 6e cf 01 3f 3a f6 3f c1 9c cd 17 c1
       3.9579294 0.5070714 -11.997614 -9.487698
000250 ec 84 1d c1 c6 98 1c 3f df e2 11 40 54 7b e3 3f
       -9.844952 0.61170614 2.279472 1.7772012
000260 0f c4 2b c1 4e 96 95 40 8b f5 1f c1 cf a6 1f bf
       -10.735366 4.6745977 -9.997447 -0.62363905
000270 46 64 dd c0 c3 80 f1 3e e8 a6 ab bf 34 0d a7 40
       -6.9184904 0.4716855 -1.3410311 5.2203617
000280 9e 51 97 c1 01 7b 79 c0 5a 49 2b c1 fd aa c8 bf
       -18.914852 -3.8981326 -10.705408 -1.5677181
000290 e1 18 46 c1 94 ce a5 c0 92 d5 88 c0 b1 b4 7f c0
       -12.381074 -5.181467 -4.2760706 -3.9954035
0002a0 68 19 cc 40 b6 77 d3 3e 04 d6 a2 c0 a4 19 2c c0
       6.3781013 0.4130227 -5.088625 -2.689065
0002b0 5a 5c 8d c1 46 56 f5 3f 82 45 4a 40 10 c4 f0 bf
       -17.670094 1.9166954 3.1604924 -1.8809834
0002c0 d0 fa 17 bf db 02 57 c0 a2 27 b6 c1 a6 96 39 c0
       -0.59367085 -3.3595493 -22.769352 -2.8998199
0002d0 20 ac 77 c0 f4 3f e6 3e e7 5c bd c0 18 4d 7c c0
       -3.8698807 0.44970667 -5.9175906 -3.9422054
0002e0 bc 95 94 c1 9d 46 9b 40 f6 db 9e c0 08 ea 81 3f
       -18.573112 4.85237 -4.9643507 1.0149546
0002f0 73 d5 df c0 d2 09 a8 c1 9d 58 df c0 1a fc 29 bf
       -6.994806 -21.004795 -6.979567 -0.664003
000300 20 7c d7 3f ee e3 a0 3f 97 9b 40 c1 b8 00 08 c0
       1.6834755 1.2569559 -12.037986 -2.1250439
000310 f2 39 37 3f 96 3f 55 c0 fd 80 f3 40 88 c3 c5 bf
       0.7157279 -3.332006 7.6094956 -1.5450296
000320 fa 9c 3c c1 30 ff 08 c1 f1 8c 8f c0 86 38 73 3d
       -11.788324 -8.562302 -4.4859548 0.059380077
000330 9e 8c 89 41 a8 e2 01 bf b8 45 50 c0 04 89 43 c0
       17.19366 -0.50736475 -3.2542553 -3.0552378
000340 de b0 45 c1 2c f9 9f 40 de 1a d1 40 8e f2 db bf
       -12.35568 4.9991665 6.5345297 -1.7183397
000350 64 b1 34 c0 3c 7a 3a c1 4d 68 2e c1 3d 04 a9 c0
       -2.823327 -11.654842 -10.900464 -5.2817674
000360 54 08 28 41 08 0b 22 3f 80 d2 8a c0 e3 b2 9c c0
       10.502033 0.6329808 -4.338196 -4.8968368
000370 2c 64 57 c1 7c 4e ab be a4 d3 6a c0 6c f4 0a c0
       -13.461956 -0.33458316 -3.6691675 -2.1711683
000380 86 42 a4 c0 af e2 9b c1 7a 3f b1 c0 8d 93 c8 bf
       -5.1331205 -19.485685 -5.5389986 -1.5670029
000390 de 09 31 40 26 d8 5f bf 00 20 f2 40 fe dc 06 c0
       2.7662272 -0.8743919 7.5664062 -2.1072383
0003a0 d2 5e 8f 41 16 92 86 40 64 8e 1c c1 aa 9a d7 3e
       17.921299 4.2053328 -9.784763 0.42110187
0003b0 5e 18 23 c0 93 72 7d 40 a9 16 68 c1 0a bc 43 c0
       -2.5483623 3.960118 -14.505532 -3.058352
0003c0 3b 5d f5 40 6a 4b 0c 3e 8c da 28 c1 b9 b7 cd c0
       7.6676307 0.13700643 -10.553356 -6.428677
0003d0 ea 00 da c0 fe 60 05 be 5c de 14 41 f9 a5 d3 3c
       -6.8126116 -0.13025281 9.304287 0.025835978
0003e0 7e 61 11 c1 9a 7a c7 c0 4c 34 ce c0 08 d9 ce bf
       -9.086302 -6.233716 -6.443884 -1.6159983
0003f0 58 27 b1 c0 15 4a 90 bf dc a5 44 c1 b2 c3 3e c1
       -5.5360527 -1.1272608 -12.290493 -11.922777

input_embeddings.embeddings.dayofweek.weight f4 [7, 5]
000000 b4 7d 2d be 56 82 ad 3e 96 7c f9 3d a0 a4 85 3e
       -0.16942483 0.338885 0.12181966 0.2610216
000010 9e 97 7d be 36 cc f3 bc 8a 6d ca 3e 44 27 95 3d
       -0.24764869 -0.029760461 0.39536697 0.0728288
000020 a0 af 55 be 68 8f 46 be ed 5d b5 bc e4 9a ba 3d
       -0.20867777 -0.19390643 -0.022139514 0.09111574
000030 0c 34 d1 bc 4d a4 3b 3c b6 96 79 3e 4d 13 dd bd
       -0.025537513 0.011452747 0.24373898 -0.10794697
000040 5e 69 22 3f 0a c9 85 bd 9e 7f d5 3e 5e 9a 01 be
       0.6344203 -0.06532486 0.41698927 -0.12656543
000050 75 4f bd 3c f4 65 71 be 4e 18 84 bd 83 fe 83 3d
       0.023109177 -0.23574048 -0.06449948 0.06445029
000060 c2 bb 98 be 84 e7 58 3e 77 15 bc be 3a 55 b2 bd
       -0.29830748 0.21182066 -0.36735126 -0.08707662
000070 8e 53 0d bf 71 48 22 3f 86 58 62 bd 32 bc 1c bf
       -0.5520562 0.63391787 -0.055260204 -0.61224663
000080 20 cc 23 3e fa cc 84 3e aa e0 15 bf
       0.15995836 0.25937635 -0.58545935

input_embeddings.embeddings.month.weight f4 [12, 6]
000000 7b 11 c7 be 44 74 81 bf e4 85 f0 3e d6 30 12 be
       -0.38880524 -1.0113606 0.4697715 -0.14276442
000010 d3 b2 8a bf fe e8 90 3f 1e b2 ca 3c 1f 8e a5 bf
       -1.0835823 1.1321104 0.024743136 -1.2933997
000020 06 a8 8a bd 8a 18 08 bf f0 52 08 3f 0c 46 93 3d
       -0.06770329 -0.53162444 0.5325155 0.07191095
000030 af 5e 32 3f b6 ac 0c bf b8 59 2f bf 2a 89 e4 3f
       0.69675726 -0.54951036 -0.68496275 1.7854359
000040 c5 9c 2d bf 96 13 4d 3f ac 9b 87 bd 46 e1 24 3f
       -0.67817336 0.8010801 -0.06621489 0.6440624
000050 0c 27 3a bd b3 f7 f4 3e 00 df 37 bc f9 0c 65 3f
       -0.045447394 0.4784523 -0.011222601 0.8947292
000060 16 72 99 3d ef d2 8c bf 55 33 82 3d 58 3e 23 3f
       0.07492463 -1.1001872 0.06357447 0.63767004
000070 b9 e1 3b 3d d4 7b 0e bf 7b 99 6e 3e 06 cb a1 3e
       0.045869563 -0.55657697 0.23300736 0.31600207
000080 c2 c3 04 3f f4 3c 1f be 7d 88 b8 be 0b 4c 7c be
       0.518612 -0.15550596 -0.36041632 -0.24638383
000090 8c 69 03 be 1a ae fb 3e 90 20 16 be f6 9f 46 3f
       -0.12833232 0.49156266 -0.14660859 0.7758783
0000a0 5c 38 24 bf 86 f2 84 bf c5 6d a4 be 29 84 8b bf
       -0.641485 -1.0386512 -0.32114998 -1.0899707
0000b0 13 44 31 3e ba 14 13 bf de eb a3 be c2 9c 1a 3f
       0.17311125 -0.574535 -0.3201589 0.60395443
0000c0 30 9c e3 3e 44 ce 03 bf 74 db 25 3e 01 54 53 be
       0.444551 -0.5148661 0.16196996 -0.20637514
0000d0 48 49 1b 3f ea ca 79 bd 32 c6 2f bf ac 6c 81 3f
       0.60658693 -0.06098453 -0.686618 1.0111289
0000e0 b1 3e 43 3e bf 6d b4 bf a4 a1 47 3f 6c 30 8a bf
       0.19066884 -1.4095992 0.7798102 -1.0796027
0000f0 da 3a 69 3e 82 32 1a 3f e0 13 3e 3a 2a 78 01 bf
       0.22776356 0.6023332 0.00072508864 -0.5057398
000100 7d b1 16 3e a0 67 90 bf fe 57 96 bd a2 ed e6 3d
       0.14716144 -1.1281624 -0.07341002 0.112757936
000110 c0 eb 14 3b 62 67 3d bf 57 2c db 3e 0f 72 1a bf
       0.0022723526 -0.73985875 0.42807266 -0.6033029

input_embeddings.embeddings.year.weight f4 [8, 5]
000000 1a 2d 5e be 3d ea d1 bc 60 95 7b be 64 cf 15 40
       -0.21696892 -0.025624389 -0.24568701 2.340783
000010 2c 9f ed be e6 79 7e bf b8 3c 90 3e e5 31 4d be
       -0.464105 -0.9940475 0.28171325 -0.20038565
000020 fb b4 fc 3f b0 33 56 be 66 52 e6 bd 5a 0f e5 3e
       1.9742731 -0.20918155 -0.11246185 0.44738275
000030 b6 b0 93 3e ba 4c 3e 3e 30 2a 7e bf 0c 70 52 be
       0.28845757 0.18583956 -0.99283123 -0.20550555
000040 71 0f c0 3d 84 7e 1d 3e 20 36 3d 3f b6 ac c1 bf
       0.09377945 0.15380293 0.73910713 -1.5130832
000050 7a bf 49 3e ff 04 4f bd 10 18 57 3e 16 1a 67 3f
       0.19701949 -0.050541874 0.21005273 0.9027418
000060 c0 f0 13 c0 a0 0b 97 be 32 00 e3 3c b2 13 93 be
       -2.3115692 -0.29501057 0.027710054 -0.28725964
000070 fa 63 83 3f 36 1f b4 c0 1e db 6c 3f 25 4e 00 bf
       1.0264885 -5.62881 0.92521846 -0.5011924
000080 bc 49 62 3d 36 9b 50 3f 50 ce 1b c0 a0 20 1a 3f
       0.0552461 0.81486833 -2.4344673 0.6020603
000090 d2 3c ae 3f 9a 75 a4 3f 64 d7 34 3f 42 1c ac bf
       1.3612311 1.2848389 0.7064116 -1.3446124

prescalers.encoder_length.weight f4 [3, 1]
000000 a4 28 7d c0 08 bc 78 3f 43 6c 55 bf
       -3.9556055 0.9716191 -0.8336832

prescalers.encoder_length.bias f4 [3]
000000 1e e2 44 c0 11 37 38 3f ac ce 19 3d
       -3.076301 0.71959025 0.037550613

prescalers.views_center.weight f4 [3, 1]
000000 ce 2a 16 c1 78 bc 00 41 44 ce 76 be
       -9.38545 8.046013 -0.24102122

prescalers.views_center.bias f4 [3]
000000 a0 c0 aa 40 44 00 48 c0 32 8e a6 c0
       5.336014 -3.1250162 -5.204858

prescalers.views_scale.weight f4 [3, 1]
000000 da 4e 82 c0 bf 7d bb 40 9e 96 94 40
       -4.0721254 5.8591 4.643386

prescalers.views_scale.bias f4 [3]
000000 14 2c 88 40 36 17 ef be 94 ef 19 c1
       4.2553806 -0.46697396 -9.620991

prescalers.log_views.weight f4 [3, 1]
000000 e8 f9 3c 40 54 c4 76 c0 f1 a3 36 40
       2.952753 -3.855733 2.8537562

prescalers.log_views.bias f4 [3]
000000 f0 5b 1a 41 67 5c 06 c1 da 85 21 41
       9.647446 -8.397559 10.095179

prescalers.relative_time_idx.weight f4 [3, 1]
000000 ac f6 a3 3d 88 87 99 3d 6a 8f 62 bd
       0.08006033 0.07496554 -0.05531255

prescalers.relative_time_idx.bias f4 [3]
000000 77 65 41 3c 3c 20 70 c0 09 f8 ce 3f
       0.011803976 -3.7519674 1.6169444

prescalers.avg_by_song.weight f4 [3, 1]
000000 32 16 ab be 93 89 8d bf f8 11 d9 3f
       -0.3341537 -1.1057609 1.6958609

prescalers.avg_by_song.bias f4 [3]
000000 a8 25 82 bf 7e 35 90 bb 1c 7d 96 3f
       -1.0167742 -0.004400908 1.175693

static_variable_selection.flattened_grn.resample_norm.mask f4 [4]
000000 b8 9f 9b c0 33 0b 7a 40 b4 ac 8e bf 6c 1e cf c0
       -4.863247 3.9069335 -1.1146455 -6.4724636

static_variable_selection.flattened_grn.resample_norm.norm.weight f4 [4]
000000 68 5b a6 c0 30 52 16 41 b8 d9 87 c0 d9 a6 8d 41
       -5.198658 9.395065 -4.245327 17.706469

static_variable_selection.flattened_grn.resample_norm.norm.bias f4 [4]
000000 6a 85 93 3e 73 cb d8 3f be 14 22 c0 aa 4a cf bf
       0.28812724 1.6937088 -2.532516 -1.6194661

static_variable_selection.flattened_grn.fc1.weight f4 [4, 15]
000000 90 f0 9f 3e ea 0e 0b 40 95 d4 0c c0 5d f2 3e c0
       0.31238222 2.1727853 -2.200475 -2.9835427
000010 ec 06 63 3f 38 76 32 3e d6 f5 00 40 d2 2e 04 c0
       0.88682437 0.1742791 2.0150046 -2.0653577
000020 cc 26 b4 3f 86 e1 ab be b8 23 fd bf 29 3a f6 3f
       1.407434 -0.33570498 -1.9776525 1.9236499
000030 2e d3 64 be 2c e2 e9 bf ad 53 86 40 08 61 80 bf
       -0.22346184 -1.8272147 4.1977143 -1.0029612
000040 9a 3a 9f be c4 50 15 bf 5c 8a 84 3f f0 be f0 3e
       -0.31099397 -0.58326364 1.0354724 0.47020674
000050 72 de 21 bf 83 18 ad bc 96 e4 31 3d c6 05 ed bc
       -0.6323005 -0.021129852 0.043430887 -0.028933417
000060 92 72 0f bf 80 23 71 bf 12 0f a4 3f a8 1b 6d 3f
       -0.56034195 -0.94194794 1.2817099 0.92620325
000070 bc b3 3f c0 20 98 ae 3f 48 e8 e0 be 15 90 b6 3d
       -2.995345 1.3640175 -0.43927217 0.089142
000080 71 14 d2 3d 22 bf 94 bd 46 07 b2 3e 4c 28 8f bf
       0.10257805 -0.07263018 0.34771174 -1.1184173
000090 bd ea 07 3e e4 8e 0a bf 52 3e c1 3e 42 28 e8 bc
       0.1327314 -0.54124284 0.3774286 -0.028339509
0000a0 f6 8d 8c bf 2a 6a c4 3f 4b dd 49 be 16 d3 42 bf
       -1.0980823 1.5344899 -0.19713323 -0.7610334
0000b0 6e a3 05 40 26 fb d3 c0 a2 7a b8 bd 9b ef 24 c0
       2.0881 -6.624408 -0.09007765 -2.5771244
0000c0 fb d7 22 3f b2 91 d4 c0 1e 49 cb c0 4e e7 78 c0
       0.6361081 -6.642785 -6.3526754 -3.8891177
0000d0 22 90 d2 be 31 b1 b8 3e 59 02 13 41 93 86 8b c0
       -0.4112559 0.36072686 9.188073 -4.3601775
0000e0 6e 44 38 40 dd 3f 9d 40 0e cd 33 bf 6e 50 9f c0
       2.8791766 4.914046 -0.70234764 -4.978568

static_variable_selection.flattened_grn.fc1.bias f4 [4]
000000 78 fa 2d c0 81 8f 02 bf d8 33 74 bf fc b5 21 3f
       -2.7184124 -0.5100022 -0.9539161 0.6316831

static_variable_selection.flattened_grn.fc2.weight f4 [4, 4]
000000 42 a4 9d 3e b9 c1 89 40 aa 40 a8 40 7e c1 08 c0
       0.3078938 4.304898 5.2578936 -2.1368098
000010 3f cb 8a 40 a0 80 84 3f b9 24 d1 3f 68 99 67 bf
       4.3373103 1.0351753 1.6339332 -0.90468454
000020 6e 0b ba c0 c8 a1 68 c0 18 ef 80 c0 e1 af ef 3f
       -5.813895 -3.6348743 -4.0291862 1.8725549
000030 46 21 72 40 ae 10 81 40 66 e3 8c 40 df e7 9d c0
       3.7832808 4.033286 4.4027586 -4.9345546

static_variable_selection.flattened_grn.fc2.bias f4 [4]
000000 22 00 9f c0 d1 a4 23 c0 68 fb 39 40 62 fa 5f c0
       -4.968766 -2.5569346 2.9059696 -3.4996572

static_variable_selection.flattened_grn.gate_norm.glu.fc.weight f4 [8, 4]
000000 3f 98 9d be 4e 1e af 3e d6 b9 48 3e 23 8c 5d bf
       -0.30780217 0.34202808 0.19602141 -0.86541957
000010 6a 18 04 41 b2 c0 36 c0 c1 5f fc c0 82 d5 f4 40
       8.25596 -2.8555112 -7.8866887 7.651063
000020 c0 f4 02 bf 88 a4 48 c0 de 4f 01 40 a6 68 f4 bf
       -0.5115471 -3.1350422 2.0204997 -1.9094436
000030 0b 36 00 c1 d4 7a 07 40 b9 1f f2 40 5a 5e f2 c0
       -8.013194 2.1168718 7.5663724 -7.5740175
000040 4e da 21 bf e2 d6 a7 bf 77 61 6c c0 b9 11 3a 40
       -0.6322373 -1.3112452 -3.6934488 2.9073317
000050 f0 72 10 c0 22 0e 0c c0 c8 0d 24 40 aa 55 5e c0
       -2.2570152 -2.1883626 2.5633411 -3.4739785
000060 6c 58 f5 3e e4 7a 72 40 be 82 1a c0 7e 86 47 40
       0.47919023 3.7887506 -2.4142299 3.1175838
000070 3e 28 d5 bf 7c d9 c6 bf de f8 ec 3f 10 13 1c c0
       -1.6652906 -1.5535121 1.8513448 -2.4386635

static_variable_selection.flattened_grn.gate_norm.glu.fc.bias f4 [8]
000000 c3 91 41 c0 ec ae 1b 3f b7 14 6b 3f b6 88 49 3f
       -3.0245216 0.60813785 0.91828483 0.7872423
000010 ca 54 29 40 b2 6a b7 bf 56 73 7b c0 60 b6 26 c0
       2.6458 -1.4329436 -3.9289145 -2.6048813

static_variable_selection.flattened_grn.gate_norm.add_norm.norm.weight f4 [4]
000000 01 d8 3a be 70 37 95 3f 26 f9 ae bd aa 5d 9f 3e
       -0.18246461 1.1657543 -0.08543615 0.31126148

static_variable_selection.flattened_grn.gate_norm.add_norm.norm.bias f4 [4]
000000 82 96 56 40 d8 94 bc c0 70 5a 95 be 74 d3 02 c0
       3.3529363 -5.8931694 -0.2917056 -2.044156

static_variable_selection.single_variable_grns.article.mask f4 [6]
000000 22 b8 be 40 30 a3 f6 c0 3d 1d f0 40 d0 bb e3 40
       5.959977 -7.7074203 7.503569 7.1166763
000010 79 af 15 41 fe 5c 22 c0
       9.35534 -2.5369258

static_variable_selection.single_variable_grns.article.norm.weight f4 [6]
000000 ff 58 18 41 f6 d3 8a 41 f4 37 69 40 6e 38 16 41
       9.521728 17.353497 3.64404 9.388777
000010 a8 ba 68 41 70 0d 86 41
       14.54557 16.756561

static_variable_selection.single_variable_grns.article.norm.bias f4 [6]
000000 55 60 f2 40 14 6e cf 40 13 b5 b1 c0 29 6e c3 40
       7.5742593 6.4821873 -5.553354 6.1071973
000010 3d 30 06 c1 3b e7 c7 3e
       -8.386777 0.39043602

static_variable_selection.single_variable_grns.encoder_length.resample_norm.mask f4 [6]
000000 82 3c a7 3d 83 7c 91 be 45 2a 8f be 56 a7 09 3e
       0.08165838 -0.28415307 -0.27961937 0.1344274
000010 2a 22 d8 bd ad 57 88 3f
       -0.10553391 1.0651757

static_variable_selection.single_variable_grns.encoder_length.resample_norm.norm.weight f4 [6]
000000 fa 2e 2a 3f 2e 67 f4 3e 4e 8d 64 3f d4 ed 86 3f
       0.6647793 0.4773497 0.89278114 1.0541329
000010 a2 69 28 3f 84 e2 37 40
       0.6578618 2.8732004

static_variable_selection.single_variable_grns.encoder_length.resample_norm.norm.bias f4 [6]
000000 e6 65 8d be 2a dd ff bd bf 93 67 bd 24 45 63 3f
       -0.27616805 -0.124933556 -0.056537386 0.88777375
000010 64 83 c2 3e 3e 2b ce bf
       0.37990868 -1.6106946

static_variable_selection.single_variable_grns.encoder_length.fc1.weight f4 [3, 3]
000000 c4 58 1f 3a 0c a8 e0 3e 2e 97 42 3f 39 0f cb 3f
       0.0006078596 0.4387821 0.7601193 1.586402
000010 64 99 af be 98 07 11 be 74 ae 52 bf 18 60 73 3e
       -0.34296715 -0.14163053 -0.82297444 0.23767126
000020 06 42 5f 3f
       0.8721012

static_variable_selection.single_variable_grns.encoder_length.fc1.bias f4 [3]
000000 a8 8f 80 be fa 72 85 bd ce 82 d3 be
       -0.251096 -0.06516071 -0.41310734

static_variable_selection.single_variable_grns.encoder_length.fc2.weight f4 [3, 3]
000000 1c 3f 52 bf 62 b1 d5 be 9e 7f d0 3e 08 9a 46 be
       -0.8212755 -0.41736895 0.40722364 -0.19394696
000010 36 6d 6b bf 0d 5c ca 3f 96 84 0b 3f 01 2b bd be
       -0.9196352 1.5809342 0.54499185 -0.36946872
000020 1e ad be 3e
       0.37241453

static_variable_selection.single_variable_grns.encoder_length.fc2.bias f4 [3]
000000 7a c8 ba 3e 4a b7 29 bf 9c f6 0b 3a
       0.36481076 -0.662953 0.0005339177

static_variable_selection.single_variable_grns.encoder_length.gate_norm.glu.fc.weight f4 [12, 3]
000000 3c 33 3d 3e 32 4a 8a be 94 da 22 bd ec a9 83 3d
       0.18476576 -0.27009732 -0.039759234 0.064288944
000010 5c b0 93 3e 62 5d 1f bd d4 29 3f bd c2 97 43 be
       0.2884549 -0.038907416 -0.04667075 -0.1910086
000020 56 2e b5 be 18 c3 63 be 22 f6 0f bf f2 e0 0e bf
       -0.35386914 -0.22242391 -0.56234944 -0.5581199
000030 94 06 19 3e 0c 53 05 be ff be e7 3d d6 8a 16 bf
       0.14943916 -0.13019961 0.113157265 -0.58805597
000040 96 99 8a 3f e5 81 f3 3e a5 08 3d bf ed 33 c7 3e
       1.0828121 0.4756004 -0.73841316 0.38906804
000050 60 4c d2 be 24 fb e4 be d7 07 68 3f 74 3e 85 3f
       -0.41073895 -0.44722855 0.9063696 1.0409684
000060 c6 4b 1a bf ac 82 d5 3e 80 82 b0 bd e4 2c a6 3e
       -0.6027187 0.41701257 -0.08618641 0.32456124
000070 02 2c b8 3e 4a db b9 3e d0 8f b3 be a6 e2 2e 3e
       0.35971075 0.36300117 -0.35070658 0.17078647
000080 02 64 a6 3e 19 75 9d be fc 84 7e bf e2 d0 9f be
       0.32498175 -0.307534 -0.9942167 -0.31214052

static_variable_selection.single_variable_grns.encoder_length.gate_norm.glu.fc.bias f4 [12]
000000 90 a1 4d bb 6a f5 30 bd 3b a5 1b be fb 6f dd 3e
       -0.0031376816 -0.043202795 -0.15199749 0.43249497
000010 59 aa 29 3e 77 f6 9e bf 6a e3 17 bf b6 5a 23 bf
       0.16568889 -1.2418965 -0.5933138 -0.6381029
000020 dd a1 88 be 4f a3 80 be 2c 34 0e bf b0 7f 48 3f
       -0.26685992 -0.25124595 -0.5554836 0.78319836

static_variable_selection.single_variable_grns.encoder_length.gate_norm.add_norm.norm.weight f4 [6]
000000 de 63 08 3e 27 19 1d 3e d2 26 20 3e 28 b6 39 3f
       0.13319346 0.15341626 0.15639809 0.72543573
000010 e4 1b 3f 3d 90 a9 27 3f
       0.046657458 0.65493107

static_variable_selection.single_variable_grns.encoder_length.gate_norm.add_norm.norm.bias f4 [6]
000000 f4 b8 ab 3f d0 2c 85 bf 14 88 28 3e 9e a0 06 3f
       1.3415818 -1.0404301 0.1645816 0.5258883
000010 a2 40 36 bf 8d 9c b8 3e
       -0.7119237 0.3605694

static_variable_selection.single_variable_grns.views_center.resample_norm.mask f4 [6]
000000 a8 18 cf c0 86 88 04 41 98 08 97 40 eb 06 30 c0
       -6.47176 8.283331 4.719799 -2.7504222
000010 c4 f1 cd 40 76 df e1 c0
       6.4357624 -7.058528

static_variable_selection.single_variable_grns.views_center.resample_norm.norm.weight f4 [6]
000000 54 a4 97 3e 0a d2 44 41 ac 3d fd 40 e3 aa ac be
       0.2961756 12.301279 7.9137783 -0.33724126
000010 f4 f5 e1 40 e0 9c 9c 40
       7.0612736 4.89415

static_variable_selection.single_variable_grns.views_center.resample_norm.norm.bias f4 [6]
000000 16 4d 71 3f 88 d1 9b bf 08 1d e4 3d fc 62 35 40
       0.9425825 -1.2173319 0.1113835 2.8341665
000010 9c 29 44 3e c0 37 24 40
       0.19156498 2.5659027

static_variable_selection.single_variable_grns.views_center.fc1.weight f4 [3, 3]
000000 96 23 96 bf 72 4a c0 bf e8 5e bb 40 c1 dc a6 bf
       -1.172961 -1.5022719 5.855335 -1.3036119
000010 15 64 e9 3f b4 83 0c 41 74 44 bd bf 4c 55 cb bf
       1.8233668 8.782154 -1.4786515 -1.5885406
000020 de ac a5 40
       5.177352

static_variable_selection.single_variable_grns.views_center.fc1.bias f4 [3]
000000 56 23 e9 bf ec 0b 81 c0 9e 58 2b c0
       -1.8213909 -4.0327053 -2.6772838

static_variable_selection.single_variable_grns.views_center.fc2.weight f4 [3, 3]
000000 fb ae 0c 40 f6 db 23 40 79 fc 6f 40 1e f8 1a bf
       2.19818 2.5603004 3.7497847 -0.60534847
000010 6c 91 02 bf 88 6a 8b 3e 45 5e e4 3f a2 27 63 40
       -0.51003146 0.27229714 1.7841269 3.549294
000020 d8 08 00 40
       2.0005398

static_variable_selection.single_variable_grns.views_center.fc2.bias f4 [3]
000000 4d 12 6f c0 8a e9 92 bf 31 ab cc bf
       -3.735492 -1.147752 -1.5989743

static_variable_selection.single_variable_grns.views_center.gate_norm.glu.fc.weight f4 [12, 3]
000000 99 2d ce be 85 14 2e 40 a8 88 81 c0 5e a4 c0 3f
       -0.40269163 2.7200024 -4.0479317 1.5050161
000010 76 8e 8a c0 0e 8d 75 40 c5 82 3f 3e 9c 8b 0c c0
       -4.3298903 3.8367343 0.18702228 -2.196021
000020 2a c3 4d 3f fe f8 1b bf f1 5d 07 40 6a 9d 4b 40
       0.8037592 -0.60926807 2.1151087 3.1814828
000030 d0 50 9a 40 09 20 83 bf 44 60 66 40 c2 39 b3 c0
       4.822365 -1.0244151 3.5996256 -5.6008005
000040 87 70 3a 40 a8 b6 d5 c0 da a8 69 40 18 53 e2 bf
       2.9131181 -6.678547 3.650931 -1.7681608
000050 88 ab 6e 3f 4a 9b 4f 40 54 32 9c bf 8a f2 6d 40
       0.93230486 3.243853 -1.2202859 3.7179284
000060 ec f2 80 40 3c 12 ec bf c8 0b 2b 40 e4 54 20 3f
       4.0296535 -1.8443065 2.672594 0.6262953
000070 ca c0 09 bf bc 4a 5b 40 cc 4a d4 3f 7a 12 3a bf
       -0.538098 3.4264364 1.6585326 -0.72684443
000080 76 df d0 3f 2a ad f2 3f 5c c5 43 bf 1e 7e 4c 40
       1.6318195 1.8959095 -0.7647302 3.1951976

static_variable_selection.single_variable_grns.views_center.gate_norm.glu.fc.bias f4 [12]
000000 86 9f d3 bf 5e 83 35 40 01 d1 4d 3f c9 97 bf 3f
       -1.6533058 2.836143 0.8039704 1.4968196
000010 94 7d 4d bf 82 5a fe bf a6 59 31 c0 10 45 82 c0
       -0.8026974 -1.9871371 -2.7710967 -4.0709305
000020 f3 39 20 c0 f4 ca d1 bf 9d 59 11 c1 05 6f a8 c0
       -2.503537 -1.6390061 -9.084378 -5.263552

static_variable_selection.single_variable_grns.views_center.gate_norm.add_norm.norm.weight f4 [6]
000000 e6 57 d2 bf a1 c6 f2 40 08 7c f3 40 0e 84 59 3f
       -1.6433074 7.5867467 7.6088905 0.84967124
000010 c6 2a 52 41 00 cf b1 40
       13.135443 5.5565186

static_variable_selection.single_variable_grns.views_center.gate_norm.add_norm.norm.bias f4 [6]
000000 76 c7 58 40 0c 40 08 40 f6 e9 60 3f 3f b3 7b bf
       3.3871741 2.128909 0.87856996 -0.9832038
000010 ee 77 20 c1 80 c0 9d 40
       -10.02928 4.9297485

static_variable_selection.single_variable_grns.views_scale.resample_norm.mask f4 [6]
000000 52 d9 cc 3f fc a0 d5 3f b0 76 82 c0 eb e1 80 40
       1.6003821 1.6689754 -4.076988 4.027578
000010 6c ce c2 40 22 63 98 c0
       6.087698 -4.762101

static_variable_selection.single_variable_grns.views_scale.resample_norm.norm.weight f4 [6]
000000 0e 28 b2 3f 5e 75 26 40 1a b2 16 40 57 c6 c6 40
       1.3918474 2.6009135 2.3546205 6.2117114
000010 2e 61 57 41 e2 1c 9b bf
       13.4612255 -1.2118189

static_variable_selection.single_variable_grns.views_scale.resample_norm.norm.bias f4 [6]
000000 a4 03 39 3f 75 c6 60 3f 17 da a9 bf 89 bf 05 c0
       0.7227118 0.8780282 -1.3269681 -2.0898154
000010 50 c7 22 40 b6 3f 1b 3f
       2.543415 0.6064409

static_variable_selection.single_variable_grns.views_scale.fc1.weight f4 [3, 3]
000000 32 b5 12 bd 3c c3 8c bd 64 3b 38 be 45 77 13 3e
       -0.035817333 -0.068731755 -0.17991406 0.14400966
000010 b0 bf c9 bc b6 2f 07 bf 1c 0b 67 3f 60 5c 05 bf
       -0.024627537 -0.52807176 0.90251327 -0.5209408
000020 48 1d ac 3f
       1.3446436

static_variable_selection.single_variable_grns.views_scale.fc1.bias f4 [3]
000000 e9 79 fa bd 44 dd 6b be 8f f3 29 bf
       -0.12230284 -0.23033625 -0.66387266

static_variable_selection.single_variable_grns.views_scale.fc2.weight f4 [3, 3]
000000 b0 36 0c 3f 62 21 9b 3e cc 7f 8c bf be 80 9c 3e
       0.54770947 0.30298907 -1.09765 0.30566972
000010 37 49 87 3e 08 d6 5b c0 6b b6 59 bd 2a 71 0d bf
       0.26423046 -3.4349384 -0.053152483 -0.552508
000020 a2 65 74 3d
       0.059667237

static_variable_selection.single_variable_grns.views_scale.fc2.bias f4 [3]
000000 8a a9 c8 3f 1c c6 39 40 8e d2 ae 3e
       1.5676739 2.9027166 0.34145015

static_variable_selection.single_variable_grns.views_scale.gate_norm.glu.fc.weight f4 [12, 3]
000000 76 71 c3 3d ee cc 75 be 40 d6 58 3e e0 c9 3c bf
       0.09543125 -0.24003956 0.2117548 -0.73745537
000010 b2 19 7b be d5 d4 81 3f ce 6c c6 3e a4 06 0e be
       -0.2452152 1.0143076 0.38754886 -0.1386972
000020 dc a3 b4 3e 01 da 61 be 45 a3 2c 3e 86 eb ee 3e
       0.35281265 -0.22055818 0.16859157 0.46664065
000030 87 ab dc bb 16 66 28 3f 56 8c 4f 3d 24 01 2e be
       -0.006734315 0.6578077 0.050670944 -0.16992623
000040 27 4b 5d 3c aa af 96 3e f4 05 21 bf 6a 57 c1 bf
       0.013506687 0.29430896 -0.6289971 -1.5104802
000050 17 ec b9 3e ea bb 86 bf e4 7f 17 c0 71 01 84 3f
       0.36312935 -1.0526097 -2.3671808 1.031294
000060 ec 11 97 bf e0 6d ba bf dc 1e 54 3f 08 b3 77 bf
       -1.1802344 -1.4564781 0.8285959 -0.96757555
000070 d7 62 ac bf e0 dd 5c 3f 5c 50 bf bf 80 79 0a c0
       -1.3467664 0.86276054 -1.4946399 -2.1636658
000080 60 4b 1a bf 05 73 a9 bf c8 c0 03 c0 98 fc 0f 3f
       -0.60271263 -1.3238226 -2.0586414 0.562448

static_variable_selection.single_variable_grns.views_scale.gate_norm.glu.fc.bias f4 [12]
000000 f2 71 d7 bc d6 d8 54 3f dc 02 ce 3e 78 b4 0c 3f
       -0.02629945 0.83143365 0.40236557 0.54962873
000010 57 aa 22 bf a5 30 92 be 07 27 33 c0 80 5e 9c bf
       -0.6354117 -0.28552738 -2.799257 -1.2216339
000020 00 9a 1b c0 9a d2 2f c0 38 cf 18 c0 ba 71 29 c0
       -2.4312744 -2.747229 -2.3876476 -2.6475663

static_variable_selection.single_variable_grns.views_scale.gate_norm.add_norm.norm.weight f4 [6]
000000 0a 4b 65 40 a2 ca bb 40 2a bb b3 c0 c4 c7 21 41
       3.582705 5.8684855 -5.616597 10.111271
000010 27 21 2f 41 9c 89 34 c0
       10.945594 -2.820899

static_variable_selection.single_variable_grns.views_scale.gate_norm.add_norm.norm.bias f4 [6]
000000 77 96 59 3e 77 f5 bf 3f ea 13 60 bf 12 62 c3 3f
       0.21248804 1.4996785 -0.87530386 1.5264304
000010 eb 4a 9c bf 74 59 a6 3e
       -1.2210363 0.32490122

static_variable_selection.prescalers.encoder_length.weight f4 [3, 1]
000000 a4 28 7d c0 08 bc 78 3f 43 6c 55 bf
       -3.9556055 0.9716191 -0.8336832

static_variable_selection.prescalers.encoder_length.bias f4 [3]
000000 1e e2 44 c0 11 37 38 3f ac ce 19 3d
       -3.076301 0.71959025 0.037550613

static_variable_selection.prescalers.views_center.weight f4 [3, 1]
000000 ce 2a 16 c1 78 bc 00 41 44 ce 76 be
       -9.38545 8.046013 -0.24102122

static_variable_selection.prescalers.views_center.bias f4 [3]
000000 a0 c0 aa 40 44 00 48 c0 32 8e a6 c0
       5.336014 -3.1250162 -5.204858

static_variable_selection.prescalers.views_scale.weight f4 [3, 1]
000000 da 4e 82 c0 bf 7d bb 40 9e 96 94 40
       -4.0721254 5.8591 4.643386

static_variable_selection.prescalers.views_scale.bias f4 [3]
000000 14 2c 88 40 36 17 ef be 94 ef 19 c1
       4.2553806 -0.46697396 -9.620991

encoder_variable_selection.flattened_grn.resample_norm.mask f4 [6]
000000 72 cc 41 bd 02 b8 8f 3d 1e 6d b5 3e 55 c1 dc bd
       -0.047314115 0.070175186 0.35434812 -0.10779063
000010 74 a5 1c 3e c9 67 d7 be
       0.1529749 -0.4207137

encoder_variable_selection.flattened_grn.resample_norm.norm.weight f4 [6]
000000 ea 34 84 3f 47 5a 8c 3f 85 2e a5 3f 4d 37 4d 3f
       1.0328648 1.096505 1.2904822 0.8016251
000010 70 94 b2 3f b2 a8 1a 3f
       1.395155 0.6041366

encoder_variable_selection.flattened_grn.resample_norm.norm.bias f4 [6]
000000 86 b6 55 be 6c 29 47 bd a2 09 73 3f 20 42 3f be
       -0.20870408 -0.048623487 0.94936574 -0.18677568
000010 65 4f bc be ec 7d 8d be
       -0.36779323 -0.27635133

encoder_variable_selection.flattened_grn.fc1.weight f4 [6, 25]
000000 58 6b ca 3c 64 1f 27 3e a6 e1 9e 3e b2 d0 f1 bd
       0.024709389 0.16320568 0.3103153 -0.118073836
000010 d9 93 f4 3e 66 63 81 bd 34 f5 8a be 40 f8 2b 3e
       0.4776905 -0.06317787 -0.271402 0.16793919
000020 d3 5d dc be e6 48 c9 bc 72 b2 6f bd a6 1a b6 be
       -0.43040332 -0.024570893 -0.058519788 -0.35567206
000030 9f 13 eb bd 8a 19 0b 3f 28 de cf bd f1 5e 02 3e
       -0.11478352 0.54335845 -0.10149795 0.1273153
000040 8e 74 c5 3c 6b 61 19 be ae 75 ae 3e 9c c0 8c 3e
       0.02410343 -0.14978568 0.34074157 0.274907
000050 e8 f1 79 bd 97 65 88 3e d0 28 01 bf b8 3a a7 bd
       -0.061021715 0.26640007 -0.504529 -0.081654966
000060 72 5d 23 3d de ea 25 bd 01 3b 86 3c b2 3a 84 be
       0.03988404 -0.04050719 0.016385557 -0.2582603
000070 b6 d0 91 be 40 b4 50 3e a0 4e aa be bd 31 62 be
       -0.28479546 0.2038126 -0.3326311 -0.22089286
000080 48 84 33 be bc ed 29 3e 27 9a 89 be 86 c1 c7 be
       -0.1753093 0.16594595 -0.2687542 -0.39014834
000090 56 7f bd 3d e4 63 2e bc d2 f1 eb bd 38 35 3b bf
       0.09252803 -0.010643933 -0.11520733 -0.7312808
0000a0 72 59 c2 be 6c 61 17 bc 16 5d 8d be bc a2 87 bd
       -0.37958866 -0.009239536 -0.2761008 -0.06622836
0000b0 64 30 f2 be 51 8e db be 38 79 03 3e 8a 99 5a be
       -0.47302544 -0.42882016 0.1283921 -0.21347633
0000c0 44 fc 2d bf 18 31 25 3f da f5 cf 3e 4c 99 2d 3e
       -0.6796305 0.64528036 0.40617257 0.1695301
0000d0 8a 3e 49 3f 75 c0 d8 be 34 1c e6 3e c4 a0 85 be
       0.7861105 -0.42334333 0.44943392 -0.26099217
0000e0 9a 04 e9 be c8 e1 12 3f 1e d8 e5 be 4c 24 52 3e
       -0.45511323 0.57375765 -0.44891447 0.20521659
0000f0 2a e7 2d 3f 49 1e 1f bf 1a 16 1e 3d 50 b7 a3 be
       0.67930853 -0.62155586 0.038595296 -0.31975794
000100 7c 46 78 3e c4 6b bc be a0 ac 8f 3e 77 90 81 3f
       0.24245638 -0.3680097 0.2806139 1.0122212
000110 e6 be 23 be 1e 95 d9 3e 31 b8 3b bf f0 bc c7 3e
       -0.1599079 0.4249658 -0.7332793 0.39011335
000120 58 12 8a 3e 48 fe 92 bf c4 1f cb 3f 7b bd a3 3d
       0.2696712 -1.148385 1.5869069 0.07995125
000130 26 89 38 be b1 9b be bd 02 e4 74 3e a4 c7 77 ba
       -0.18021068 -0.093070395 0.23915103 -0.0009452051
000140 de 20 31 3e 91 db 1f bf 93 44 59 be 1a e3 87 be
       0.17297694 -0.62444407 -0.21217565 -0.26540452
000150 22 aa 89 3d 03 ea e5 be 50 65 71 3d 39 15 e3 3d
       0.067219034 -0.449051 0.05893451 0.11088032
000160 e6 51 09 be 1e 89 cb be 92 70 de bc ff b9 de 3e
       -0.13410148 -0.3975305 -0.027153287 0.4350128
000170 f0 05 b8 be 52 a3 14 3e fe 9f 07 3f 57 ff 66 3d
       -0.3594203 0.14515427 0.52978504 0.056395855
000180 14 89 c1 be 02 fc 10 be e8 0a 45 3e dc 54 5a bf
       -0.37799895 -0.14158633 0.19242442 -0.85285735
000190 da cd 88 3d b2 d3 97 3e 8c 8b 93 be 0f 40 49 be
       0.06679888 0.29653698 -0.28817403 -0.19653343
0001a0 aa c6 45 be b2 80 cb bd 0e c0 2b be 09 8f b0 3e
       -0.19314066 -0.09936656 -0.16772482 0.34484127
0001b0 46 60 ba 3d f6 fe 94 3e e0 cf fb 3d f8 b7 38 3e
       0.09100394 0.2910077 0.122955084 0.18038929
0001c0 16 19 4c 3e d6 58 33 be 80 d2 bf be 05 28 13 be
       0.19931445 -0.17514357 -0.37465286 -0.14370735
0001d0 ac 8b b6 bd aa 29 a5 be e0 fb aa 3e af 43 11 bf
       -0.08913359 -0.3225835 0.3339529 -0.567439
0001e0 14 6a d0 3e 40 63 18 3e f1 3a 67 be c7 c3 ff 3e
       0.4070593 0.14881611 -0.22581078 0.49954054
0001f0 49 9e 02 bf 6b a5 92 be c2 51 71 be 6c 7e 00 be
       -0.51022774 -0.2864183 -0.23566344 -0.12548226
000200 1a 9e 64 3e 7f a4 db bd 28 65 fa 3d c2 d5 b1 be
       0.22325936 -0.107247345 0.12226325 -0.34733397
000210 70 60 d5 3e 58 ca b9 3d 54 58 91 be c8 ba 61 3b
       0.41675138 0.09071797 -0.28387702 0.0034443606
000220 0a 56 6f be f6 cf 95 bc 24 8a 8e be 7a 12 15 bf
       -0.23372665 -0.01828764 -0.27839768 -0.5823132
000230 e9 60 e8 be 82 2d 2f bf dc 6b 1c bf 1e 1a 0d 3d
       -0.45386437 -0.68428814 -0.6110208 0.034448735
000240 d6 8e aa be 13 60 17 3f 7e 24 f6 be 08 68 bc b9
       -0.333121 0.5913097 -0.48074716 -0.00035935664
000250 76 af 91 3e d9 66 74 bf
       0.2845418 -0.95469433

encoder_variable_selection.flattened_grn.fc1.bias f4 [6]
000000 68 19 f1 bd 2a 36 d2 3c cf bf 6e 3e 80 f8 97 be
       -0.11772424 0.025660593 0.23315357 -0.29681778
000010 01 08 32 be 30 cb a4 be
       -0.17385866 -0.3218627

encoder_variable_selection.flattened_grn.context.weight f4 [6, 6]
000000 33 39 bb 3e f8 0e 88 be dc cb ba be b0 e2 1e 3e
       0.36567077 -0.2657392 -0.36483657 0.15516162
000010 d5 74 79 be b2 84 00 3f fb 2a 31 3f d4 26 bc 3d
       -0.24360974 0.50202477 0.6920621 0.091870934
000020 db 65 b6 be 14 48 ca bd 42 46 c8 3e df 84 da be
       -0.35624585 -0.09877029 0.39116102 -0.42679498
000030 09 8e 80 be fd 0b 18 bf 54 51 63 bf 52 40 15 bf
       -0.25108364 -0.5939329 -0.8879597 -0.5830127
000040 55 1d 87 be 22 64 2f 3f 18 41 36 3f a6 98 12 bf
       -0.26389566 0.68512166 0.71193075 -0.57264173
000050 36 03 31 bf 42 5b 09 3f ca 4c a8 3e d2 e7 e1 3e
       -0.69145525 0.53654873 0.32871085 0.44122177
000060 2e 3e c0 3e a0 b8 0b bf 1c f3 cf bd 4a f0 d1 3e
       0.3754744 -0.5457859 -0.10153791 0.41003639
000070 75 14 01 bf fc f9 32 bf 96 e0 5a 3f 87 06 fb be
       -0.5042184 -0.69912696 0.8549894 -0.49028417
000080 f4 b3 87 3e a5 2a e8 3e b2 89 8a bd 80 14 00 bf
       0.2650448 0.45345035 -0.067645445 -0.5003128

encoder_variable_selection.flattened_grn.fc2.weight f4 [6, 6]
000000 80 d0 13 3e bc b9 b0 be 79 91 75 bb f6 57 50 be
       0.14435005 -0.34516704 -0.0037470742 -0.20346054
000010 6a 0b 42 3f 78 39 e4 be 48 37 02 be 50 f9 2a 3f
       0.75798666 -0.44575095 -0.127164 0.6678667
000020 d3 0f 65 3f 96 83 ce 3e 3a 87 e8 3c 55 61 8e 3f
       0.8947727 0.40334767 0.028384794 1.1123453
000030 33 a2 5e be c4 b6 40 bf 5b e9 fb be 55 f1 b3 bd
       -0.21741562 -0.7527888 -0.49201474 -0.08786265
000040 99 c6 5e 3f 7b b0 d5 3e ec 57 17 3e 4b f8 a2 be
       0.87021786 0.41736206 0.14779633 -0.31830058
000050 34 2a b5 3f 94 d6 c4 bc 00 d8 45 3f e5 06 63 bd
       1.4153504 -0.0240281 0.77282715 -0.055426497
000060 4e ba dc be 1a 6a 9d 3c 66 7b a6 3e a3 63 8c bf
       -0.4311089 0.019215632 0.3251602 -1.0967907
000070 ab eb de bd 39 72 52 bf 8f dc 43 be 67 a8 1f bf
       -0.10884794 -0.8220554 -0.19127105 -0.62366337
000080 01 55 b8 bf 04 fc b3 be 53 fc 17 3f a8 83 e8 3e
       -1.4400941 -0.3515321 0.5936939 0.45412946

encoder_variable_selection.flattened_grn.fc2.bias f4 [6]
000000 ab 91 02 3e 16 9b 7a 3e a2 c5 97 bd 36 a7 f8 3d
       0.1275088 0.24473223 -0.07410742 0.12141268
000010 0a f4 40 3e f8 94 7e bc
       0.18843094 -0.015538447

encoder_variable_selection.flattened_grn.gate_norm.glu.fc.weight f4 [12, 6]
000000 9b d2 96 3e 72 cc ee be d4 af 3f 3f ac fa 5f bf
       0.29457554 -0.46640354 0.7487767 -0.8749187
000010 5b c3 c8 be a4 64 24 3e 98 88 7e 3e 0e ec d6 3e
       -0.39211544 0.16054016 0.24856794 0.4197697
000020 f1 44 6f 3f 54 bd 75 3e f9 f5 ba be 16 b7 4c 3f
       0.9346457 0.23998004 -0.36515787 0.79966867
000030 b2 27 34 3e ae 35 bd bc d6 cf be be 83 97 1d 3f
       0.17593268 -0.023096886 -0.3726794 0.61559314
000040 2a 93 a8 3c bc 68 41 be 28 17 3f bf 8a cb 06 bf
       0.020577986 -0.18887609 -0.7464471 -0.52654326
000050 0a 3c 7e 3e 21 88 12 bf b8 18 88 be ce 6c 74 bd
       0.2482759 -0.57238966 -0.2658136 -0.059674077
000060 28 58 13 3f ba 79 8d 3c fe ff cf be 98 58 8f be
       0.5755639 0.017269958 -0.40624994 -0.2799728
000070 b2 3f 0a be 14 12 4a be e1 73 ca 3e 92 b9 0a bf
       -0.1350086 -0.19733459 0.39541534 -0.5418941
000080 6e 62 df 3e 69 17 88 bf 23 f0 25 bf 29 b0 8b 3f
       0.43629783 -1.0632144 -0.64819545 1.0913135
000090 23 58 24 3e 55 32 35 be d0 b1 d8 be fc e6 91 3e
       0.16049246 -0.17694981 -0.4232316 0.2849654
0000a0 23 be 43 3e f8 31 c7 be 87 f1 21 3f fe 1c 25 3f
       0.191155 -0.3890531 0.63259166 0.64497364
0000b0 54 0e fe 3e c0 77 a5 bd db 07 12 bf 5a f5 de 3e
       0.49620306 -0.08079481 -0.57043236 0.43546563
0000c0 a3 4c 97 3e 28 3a c8 be 2a ff e9 be 3c 64 fe be
       0.29550657 -0.3910687 -0.45702487 -0.49685848
0000d0 64 9a 45 be 99 e9 eb 3e 00 41 99 3e 76 22 de be
       -0.19297177 0.46076658 0.29932404 -0.43385667
0000e0 f0 b8 18 bf e8 9c 3f 3f a4 c1 49 3e 0a 43 e0 3e
       -0.5965719 0.74848795 0.19702774 0.43801147
0000f0 ac ac 36 be d8 10 34 bf 08 d9 83 3e ba 1c 6e 3e
       -0.17839307 -0.703382 0.2575152 0.23253146
000100 38 c9 84 3e ae 47 2c 3f d0 e4 f9 3d 40 bd ad 3e
       0.25934768 0.67296875 0.12201846 0.3393345
000110 62 37 f3 be 7c d5 6d 3f ca 27 bc bd 94 9a 44 be
       -0.4750319 0.92903876 -0.09187277 -0.19199592

encoder_variable_selection.flattened_grn.gate_norm.glu.fc.bias f4 [12]
000000 1d 6c 96 be 4f e6 87 3d 36 29 53 3d cc 22 c2 bc
       -0.2937936 0.06635725 0.051552974 -0.023698233
000010 36 05 3d be fa 5f 82 be ea 3c 6c bc 8d e1 94 3d
       -0.18459019 -0.2546385 -0.01441882 0.07269583
000020 43 5c 70 bd 3d fd 53 3d e4 0b a3 bc 4d 0c 03 3e
       -0.058681738 0.05175518 -0.01990313 0.12797661

encoder_variable_selection.flattened_grn.gate_norm.add_norm.norm.weight f4 [6]
000000 b3 a2 b9 3e fe 42 4b be 56 2f 38 40 64 a3 3d 3e
       0.36256942 -0.19849774 2.8778892 0.1851936
000010 48 56 3d 3f f8 8d f5 3f
       0.7395978 1.918395

encoder_variable_selection.flattened_grn.gate_norm.add_norm.norm.bias f4 [6]
000000 bc 7c 16 bf e0 42 10 bf d6 2d c8 3f 1c 7c 3d bf
       -0.5878408 -0.56352043 1.5638988 -0.740175
000010 52 9d 1d bf e0 5a 23 3f
       -0.61568177 0.6381054

encoder_variable_selection.single_variable_grns.dayofweek.mask f4 [6]
000000 5a 35 54 3e a9 5a 3b 3e 02 62 ee 3c 6d 13 81 bd
       0.20723477 0.18296303 0.029099468 -0.06302533
000010 60 d5 21 bc e4 43 e6 be
       -0.009877533 -0.4497367

encoder_variable_selection.single_variable_grns.dayofweek.norm.weight f4 [6]
000000 85 5a 72 3f 3c 65 55 3f 08 7d 90 3f 66 8e 8a 3f
       0.9466937 0.83357596 1.1288157 1.0824707
000010 87 23 57 3f 30 17 e2 3d
       0.84038585 0.11039579

encoder_variable_selection.single_variable_grns.dayofweek.norm.bias f4 [6]
000000 92 66 39 bd cb 34 27 bd 26 97 52 be 52 a1 d1 bd
       -0.045263834 -0.04082183 -0.20565471 -0.102358475
000010 cb d5 80 be 64 a4 7b bd
       -0.2516311 -0.061436072

encoder_variable_selection.single_variable_grns.month.mask f4 [6]
000000 44 3b 98 3e 1a 25 93 3e a8 f9 a0 3e 97 96 2a be
       0.29732716 0.28739244 0.31440473 -0.16659008
000010 0b 81 a8 be d0 b7 11 be
       -0.32910952 -0.14230275

encoder_variable_selection.single_variable_grns.month.norm.weight f4 [6]
000000 f8 ed a1 3f 9e 15 0b 3f 2c d7 58 3f 1a e7 62 3f
       1.2650747 0.5432986 0.84703326 0.88633883
000010 30 41 4a 3e e2 e0 5a bf
       0.1975143 -0.85499394

encoder_variable_selection.single_variable_grns.month.norm.bias f4 [6]
000000 46 e1 88 be 14 3c b9 3d c0 ea 4a be 7c 98 a7 3e
       -0.2673437 0.09044662 -0.19816113 0.32733524
000010 01 7b ab 3e 2e cd db be
       0.33492282 -0.42929977

encoder_variable_selection.single_variable_grns.year.mask f4 [6]
000000 ce af bb bf 88 dd 3c bf de 06 49 be b6 39 6f 3f
       -1.4663026 -0.7377553 -0.19631526 0.93447435
000010 73 c1 fe 3f 8c d5 cb 3f
       1.9902786 1.5924544

encoder_variable_selection.single_variable_grns.year.norm.weight f4 [6]
000000 37 60 03 bc 4e a4 03 3f 0b 4c c5 3f ac eb d8 3f
       -0.008018545 0.51422584 1.5413831 1.6946921
000010 58 39 41 40 00 95 7b 40
       3.019125 3.9309692

encoder_variable_selection.single_variable_grns.year.norm.bias f4 [6]
000000 0e 18 dd 3f 39 ca 38 3f c6 24 34 bf 6e 2c a5 3e
       1.7272966 0.7218357 -0.7036861 0.3226046
000010 c0 3d f7 be 84 7d 1d c0
       -0.482893 -2.4607859

encoder_variable_selection.single_variable_grns.log_views.resample_norm.mask f4 [6]
000000 2f 20 9e 3d 18 42 17 3a 52 08 a8 bd 59 76 ff bc
       0.07720982 0.00057700416 -0.08204712 -0.031184362
000010 66 cd 6e 3b 70 5e 33 3d
       0.0036438345 0.043791234

encoder_variable_selection.single_variable_grns.log_views.resample_norm.norm.weight f4 [6]
000000 ad 72 8d 3f 16 7d 73 3f 5c cf 49 3f ba ba 70 3f
       1.1050621 0.9511274 0.7883203 0.9403492
000010 f2 d0 5f 3f 2d 38 6e 3f
       0.874282 0.9305447

encoder_variable_selection.single_variable_grns.log_views.resample_norm.norm.bias f4 [6]
000000 9c 51 0f be f4 0e 9a 3c 68 bc 26 be 1c 9d cd bd
       -0.13995975 0.018805958 -0.16282809 -0.10039732
000010 78 23 9f 3e 22 02 7a 3d
       0.31081748 0.06103719

encoder_variable_selection.single_variable_grns.log_views.fc1.weight f4 [3, 3]
000000 4b 1d 55 3f 1a 0e 02 40 48 e4 8f be 32 29 ad 3b
       0.8324782 2.0321107 -0.28103852 0.005284452
000010 da bc 58 bf c5 9a 7b bf 65 6c 40 bf 6f a4 0a be
       -0.84663165 -0.98283035 -0.75165397 -0.13539289
000020 5a 10 a6 3f
       1.297374

encoder_variable_selection.single_variable_grns.log_views.fc1.bias f4 [3]
000000 e6 58 90 3e b0 19 28 bc e2 37 fe be
       0.28192824 -0.010260031 -0.4965201

encoder_variable_selection.single_variable_grns.log_views.fc2.weight f4 [3, 3]
000000 cc 95 ec bf 60 7b 21 3f 2e 8c a6 3f 54 21 cc be
       -1.8483214 0.6307888 1.301153 -0.39869177
000010 02 0b bd be 9c 68 78 3f ba 11 d1 be 00 bf f3 be
       -0.3692246 0.9703462 -0.40833837 -0.4760666
000020 3e 62 44 bc
       -0.011986313

encoder_variable_selection.single_variable_grns.log_views.fc2.bias f4 [3]
000000 78 a9 b0 be b2 b6 03 be c1 58 ff bd
       -0.34504294 -0.12862661 -0.124681

encoder_variable_selection.single_variable_grns.log_views.gate_norm.glu.fc.weight f4 [12, 3]
000000 a8 d2 84 3f 00 67 f4 3e 26 17 95 3d 5e fd 83 be
       1.0376787 0.47734833 0.07279806 -0.2577924
000010 76 fa b8 be 84 92 a1 3d 11 92 26 3f dd 6e e3 3e
       -0.36128587 0.07889274 0.6506663 0.4442052
000020 71 8a 0d 3e f7 af 1f 3f 98 86 02 3f 5c b1 a1 be
       0.13822342 0.62377876 0.50986624 -0.31580627
000030 c1 ed d4 bf 44 b8 10 bf de f0 98 3e fe d7 5c be
       -1.6635057 -0.5653117 0.29871267 -0.2156677
000040 a8 91 d7 3e fa 38 16 3f 73 6f 04 bf 03 42 07 3e
       0.42103314 0.5868069 -0.5173256 0.13208775
000050 00 01 19 3f da 17 69 bc 66 98 6a be 9f 10 21 bf
       0.5976715 -0.014226878 -0.22909698 -0.62915987
000060 14 67 b4 be a8 77 c8 3e aa 82 ed bd c9 c0 05 bf
       -0.35234892 0.3915379 -0.11597188 -0.5224729
000070 d9 4d 89 3e 00 0d 15 3d d6 df fa be 55 44 db 3d
       0.26817206 0.03638935 -0.48998898 0.10706393
000080 01 21 1b 3f 74 29 97 bd 92 41 5f be 34 33 13 bf
       0.60597235 -0.073809534 -0.21802357 -0.57500005

encoder_variable_selection.single_variable_grns.log_views.gate_norm.glu.fc.bias f4 [12]
000000 48 5c 0f be b4 20 c8 3b 59 ad 8e bd 36 17 d2 bb
       -0.14000046 0.006107414 -0.06966657 -0.0064114584
000010 e5 1e 95 3e 88 71 fc bc c0 e5 ec bc cc 6d 09 be
       0.29125133 -0.030815855 -0.028918147 -0.1342079
000020 72 c9 05 3d 7a d7 b7 3d 67 d7 68 3d 08 42 c0 bd
       0.032662816 0.08976646 0.05684605 -0.093875945

encoder_variable_selection.single_variable_grns.log_views.gate_norm.add_norm.norm.weight f4 [6]
000000 74 7e 65 3f 90 91 57 3f 60 50 5e 3f 12 a5 a6 3f
       0.8964608 0.84206486 0.8684139 1.3019125
000010 1b ad d4 3e 56 5f 62 3f
       0.4153832 0.8842672

encoder_variable_selection.single_variable_grns.log_views.gate_norm.add_norm.norm.bias f4 [6]
000000 8f 75 08 be 8c df 08 3b 70 fd 15 be 0c 4e 34 be
       -0.13326095 0.0020885197 -0.1464746 -0.17607898
000010 02 ce 49 be 02 c6 2d bc
       -0.19707492 -0.010606291

encoder_variable_selection.single_variable_grns.relative_time_idx.resample_norm.mask f4 [6]
000000 fa 99 67 3c f8 df ab bd 17 c9 0b 3e 52 b6 d3 3d
       0.014135832 -0.08392328 0.13650928 0.10337509
000010 eb 82 ca bc e2 18 0e be
       -0.02472063 -0.1387668

encoder_variable_selection.single_variable_grns.relative_time_idx.resample_norm.norm.weight f4 [6]
000000 5a d9 94 3f b8 75 65 3f dc 2b 92 3f f6 9b 8e 3f
       1.162883 0.8963275 1.1419635 1.1141346
000010 fd 05 82 3f e9 af 1a 3f
       1.0158077 0.6042467

encoder_variable_selection.single_variable_grns.relative_time_idx.resample_norm.norm.bias f4 [6]
000000 d2 52 aa 3e 85 c8 02 3e 48 6d 04 be 56 ae 10 be
       0.33266312 0.12771805 -0.12932312 -0.14129004
000010 cc 30 31 3c 04 a3 6b be
       0.010814857 -0.23011404

encoder_variable_selection.single_variable_grns.relative_time_idx.fc1.weight f4 [3, 3]
000000 c8 1c d8 be eb 3e e0 3e 1b bc a0 3f d6 54 32 be
       -0.42209458 0.43798003 1.2557405 -0.17415175
000010 6a 55 6c 3f 9b c1 60 bf 70 80 15 be d4 8a 34 3e
       0.9231783 -0.8779542 -0.14599776 0.17631084
000020 ed 7a 0e 3f
       0.5565632

encoder_variable_selection.single_variable_grns.relative_time_idx.fc1.bias f4 [3]
000000 a6 0d 78 bd 34 36 df bb b3 f9 21 bd
       -0.06055989 -0.0068118814 -0.039544772

encoder_variable_selection.single_variable_grns.relative_time_idx.fc2.weight f4 [3, 3]
000000 38 b0 a3 be 6e e7 04 3f e1 90 a9 bf d8 94 97 3e
       -0.31970382 0.51915634 -1.3247339 0.29605746
000010 a0 ff cf 3f 98 8e 08 3f 4d 18 bf 3e c2 05 3c bf
       1.6249886 0.5334258 0.37323228 -0.73446286
000020 92 07 20 3f
       0.6251155

encoder_variable_selection.single_variable_grns.relative_time_idx.fc2.bias f4 [3]
000000 34 68 1e bd 2a 99 1e be 70 63 fa 3b
       -0.038673595 -0.15488115 0.0076412484

encoder_variable_selection.single_variable_grns.relative_time_idx.gate_norm.glu.fc.weight f4 [12, 3]
000000 74 e0 cc be 56 b3 37 bf 40 93 3e 3e 4f 76 0a bf
       -0.40014994 -0.7175802 0.18610859 -0.54086775
000010 b0 56 06 bf 6c 1a 04 bf d5 01 86 3b be f8 b0 be
       -0.52476025 -0.51602817 0.004089574 -0.34564775
000020 d7 da 14 3d a0 cb a0 3e f8 78 d1 3e 9b 11 33 bf
       0.036341514 0.31405354 0.40912604 -0.6994874
000030 9b 9b 04 3f d3 19 fd 3d 8c fb ee 3e e2 37 0c 3f
       0.51799935 0.12358441 0.4667629 0.5477277
000040 04 2c 81 3e e6 2b 87 be 52 fb df 3e ee fe e9 be
       0.25228894 -0.2640068 0.4374643 -0.45702308
000050 0e f4 13 3f 30 a9 08 3f 54 ca ce 3d a0 f9 85 be
       0.5779427 0.5338316 0.10097185 -0.2616701
000060 d3 f2 f6 be 40 d3 66 bc 5e fd 02 3f c9 6c 72 bc
       -0.48232135 -0.014088452 0.5116786 -0.014796444
000070 11 a5 3f be d4 8b 73 be ee 18 87 3d f2 b2 bb 3e
       -0.18715312 -0.23783809 0.06596552 0.36659962
000080 cc 84 a3 3d dc 57 5c 3d 52 9f f0 be b6 4a aa 3e
       0.07984313 0.053794727 -0.46996552 0.33260125

encoder_variable_selection.single_variable_grns.relative_time_idx.gate_norm.glu.fc.bias f4 [12]
000000 96 34 47 3e 14 d6 26 3d e1 38 dc bd be 89 7c bd
       0.19453654 0.040731505 -0.10753036 -0.0616548
000010 96 1f 82 bb 02 e7 13 be 88 ae 85 3d dc 88 30 3c
       -0.0039710505 -0.14443591 0.0652743 0.010774817
000020 c4 75 d8 bc 8c cc 46 3d be 23 fd bc c6 b4 02 3d
       -0.026423343 0.048534915 -0.030900832 0.03191068

encoder_variable_selection.single_variable_grns.relative_time_idx.gate_norm.add_norm.norm.weight f4 [6]
000000 e2 01 8e 3f 57 e5 6a 3f 0e 84 82 3f 89 b7 69 3f
       1.1094325 0.91756195 1.019655 0.9129568
000010 66 fe 51 3f 04 be b4 3e
       0.82028806 0.3530122

encoder_variable_selection.single_variable_grns.relative_time_idx.gate_norm.add_norm.norm.bias f4 [6]
000000 e4 da 14 3e 8c 50 64 3d 0a 64 7b bd 7a b7 3d 3c
       0.14536625 0.055740878 -0.0613747 0.011579389
000010 8f a3 0e be 93 a0 fd be
       -0.1392958 -0.4953657

encoder_variable_selection.single_variable_grns.avg_by_song.resample_norm.mask f4 [6]
000000 fa d7 c4 be 3a 2d 81 3d 26 6a 7a 3d 0a f2 c8 be
       -0.38446027 0.063074544 0.061136387 -0.3924716
000010 5a cd e8 be bc 24 63 3f
       -0.4546917 0.8872793

encoder_variable_selection.single_variable_grns.avg_by_song.resample_norm.norm.weight f4 [6]
000000 2c 70 98 3e 03 9d 9a 3f 82 c4 a7 3f ba 32 7f 3f
       0.2977308 1.2079166 1.3106844 0.9968678
000010 f7 49 1a 3f 04 b4 1e 40
       0.6026911 2.4797373

encoder_variable_selection.single_variable_grns.avg_by_song.resample_norm.norm.bias f4 [6]
000000 5d 30 9a 3d 86 a7 62 be 48 57 ce 3e 41 ef 2d bf
       0.07528756 -0.22134218 0.40300965 -0.679432
000010 33 32 28 bf 9d ed 53 3f
       -0.657016 0.82784444

encoder_variable_selection.single_variable_grns.avg_by_song.fc1.weight f4 [3, 3]
000000 11 d3 7a 3f 30 f7 0b bf f4 80 00 c0 fb 5f df bf
       0.9797831 -0.54674053 -2.0078707 -1.7451166
000010 18 5e f5 3e c8 cf 02 bf 6b 22 30 3c 74 8b a5 3e
       0.4792335 -0.510983 0.010750393 0.32332957
000020 10 e5 34 bf
       -0.7066202

encoder_variable_selection.single_variable_grns.avg_by_song.fc1.bias f4 [3]
000000 70 e4 38 be 9c d1 08 bf e0 04 b0 bf
       -0.18055892 -0.5344484 -1.3751488

encoder_variable_selection.single_variable_grns.avg_by_song.fc2.weight f4 [3, 3]
000000 42 fc a9 3f 18 fb a8 3e 06 af af 3e ca 86 db be
       1.3280108 0.3300407 0.3431322 -0.42876273
000010 82 b7 aa bf e2 17 c5 be 8c d9 98 3f 6e 81 a0 3f
       -1.3337252 -0.38494784 1.194139 1.2539499
000020 5a fe 37 3f
       0.71872485

encoder_variable_selection.single_variable_grns.avg_by_song.fc2.bias f4 [3]
000000 9c 86 f4 be de c3 95 3e e4 0f 52 bf
       -0.4775895 0.29250997 -0.820555

encoder_variable_selection.single_variable_grns.avg_by_song.gate_norm.glu.fc.weight f4 [12, 3]
000000 a6 cf b0 be 7d 5f 1f bf f8 bb e1 3d 28 1a 7e 3e
       -0.34533423 -0.6225508 0.1102218 0.24814665
000010 f4 a0 9b 3e 85 e3 1c 3f 9c 98 95 3e 8a f8 42 bf
       0.30396235 0.6128467 0.29217994 -0.7616049
000020 de cb fa 3e e6 e6 b2 3d 1c 1a 1e 3f 56 3b 64 be
       0.48983663 0.08735447 0.6175859 -0.2228826
000030 16 96 e0 3e e3 3d 12 be 58 cf d3 bd 61 c6 0e bf
       0.43864506 -0.1428142 -0.10342282 -0.5577145
000040 90 56 1b 3f 16 19 a1 bf f2 09 17 3f 14 42 8c be
       0.6067896 -1.2585781 0.5899955 -0.27394164
000050 dc 2b 04 bf f2 5b de 3e a9 1a 27 3f 84 17 b5 be
       -0.51629424 0.43429524 0.65275055 -0.35369503
000060 be 5c ea 3e b4 19 b8 3e fc 08 12 bf 0a 63 a7 3e
       0.45773882 0.3595711 -0.5704496 0.32692748
000070 f7 af 3c 3d c0 72 eb be 72 31 6f 3e cd 78 07 3f
       0.04606625 -0.45985985 0.23358706 0.529187
000080 fc 31 19 3f 12 40 13 bf 61 6d 06 3f 5e c6 0b be
       0.59841895 -0.5751964 0.5251065 -0.1364989

encoder_variable_selection.single_variable_grns.avg_by_song.gate_norm.glu.fc.bias f4 [12]
000000 fb ab 87 bb fe 17 f1 bd da 60 22 bc 64 7b 3e be
       -0.0041403747 -0.11772154 -0.0099107865 -0.18601757
000010 ee b9 c3 be 70 9a 3e 3f fe d0 22 bd 3e ef 38 bd
       -0.3822779 0.744544 -0.03975009 -0.045150034
000020 b9 34 a7 bd 34 55 85 bd 5a 10 27 3d 56 bc 3e 3c
       -0.08164353 -0.06510392 0.04078708 0.0116415825

encoder_variable_selection.single_variable_grns.avg_by_song.gate_norm.add_norm.norm.weight f4 [6]
000000 b5 9f de 3e f8 00 96 3f e7 dc 31 3f 5a f3 79 3f
       0.43481222 1.1719046 0.69477695 0.9763695
000010 24 60 83 3f 46 d3 06 40
       1.0263715 2.106645

encoder_variable_selection.single_variable_grns.avg_by_song.gate_norm.add_norm.norm.bias f4 [6]
000000 98 3e c2 3b 84 e3 03 bf 8a 78 60 bd 10 91 70 3d
       0.005927872 -0.51519036 -0.054802455 0.058732092
000010 f2 f6 f0 be 30 87 d7 be
       -0.47063404 -0.42095327

encoder_variable_selection.prescalers.log_views.weight f4 [3, 1]
000000 e8 f9 3c 40 54 c4 76 c0 f1 a3 36 40
       2.952753 -3.855733 2.8537562

encoder_variable_selection.prescalers.log_views.bias f4 [3]
000000 f0 5b 1a 41 67 5c 06 c1 da 85 21 41
       9.647446 -8.397559 10.095179

encoder_variable_selection.prescalers.relative_time_idx.weight f4 [3, 1]
000000 ac f6 a3 3d 88 87 99 3d 6a 8f 62 bd
       0.08006033 0.07496554 -0.05531255

encoder_variable_selection.prescalers.relative_time_idx.bias f4 [3]
000000 77 65 41 3c 3c 20 70 c0 09 f8 ce 3f
       0.011803976 -3.7519674 1.6169444

encoder_variable_selection.prescalers.avg_by_song.weight f4 [3, 1]
000000 32 16 ab be 93 89 8d bf f8 11 d9 3f
       -0.3341537 -1.1057609 1.6958609

encoder_variable_selection.prescalers.avg_by_song.bias f4 [3]
000000 a8 25 82 bf 7e 35 90 bb 1c 7d 96 3f
       -1.0167742 -0.004400908 1.175693

decoder_variable_selection.flattened_grn.resample_norm.mask f4 [5]
000000 12 46 a7 c0 00 03 e1 c0 a7 38 f8 c0 cb 16 01 41
       -5.2273035 -7.031616 -7.7569156 8.068065
000010 b9 99 b8 40
       5.768765

decoder_variable_selection.flattened_grn.resample_norm.norm.weight f4 [5]
000000 12 75 ff 41 80 13 e5 40 c0 c4 b4 42 73 c4 35 c2
       31.932163 7.1586304 90.38428 -45.441845
000010 c0 8a b6 41
       22.817749

decoder_variable_selection.flattened_grn.resample_norm.norm.bias f4 [5]
000000 48 68 0a 42 82 b9 65 c0 9a b6 35 c2 42 9a 85 41
       34.601837 -3.5894475 -45.42832 16.700321
000010 db 2e 81 41
       16.147879

decoder_variable_selection.flattened_grn.fc1.weight f4 [5, 22]
000000 b8 4d 99 bd 23 a8 7b 3e ac 26 df 3b 32 94 85 3e
       -0.07485527 0.24575858 0.00681003 0.26089627
000010 b6 c3 b0 3d e2 8e f1 bd 9e 71 bf bc 0c e9 a7 bd
       0.08631079 -0.11794831 -0.023369607 -0.08198747
000020 8c 74 1a be 63 00 cf 3d 1a 28 ad bc 3b c1 57 be
       -0.15083522 0.10107496 -0.021137286 -0.21069805
000030 0a 0b ae bd 25 6e 3e be 8d d8 5b be 8e c1 cf 3e
       -0.08498199 -0.18596704 -0.21469326 0.40577358
000040 e0 6c 01 c0 82 54 9a 40 a1 52 f1 c0 fe 02 1a 3c
       -2.0222702 4.822816 -7.5413365 0.009400127
000050 21 7b 08 40 a7 07 97 3f b8 25 7a be c4 2c 15 3e
       2.1325152 1.179921 -0.24428451 0.14567858
000060 90 3a 67 3e 54 a4 17 3f 27 30 5e bf ce 46 c4 be
       0.22580934 0.5923512 -0.86792225 -0.3833527
000070 86 21 14 bf d5 cd 01 3f 1b 2a ff bf 78 a7 1f 3f
       -0.5786365 0.507047 -1.9934725 0.6236491
000080 98 9e 5f bf a2 fa c2 be 67 ee 79 be 3e c1 66 be
       -0.8735137 -0.38081843 -0.2440735 -0.22534654
000090 0c 9d 75 3f cf 13 3a 3f 1a 1f 8f c0 38 d8 b4 bf
       0.9594276 0.72686476 -4.4725466 -1.4128485
0000a0 fe f7 eb c0 0e 40 00 bd 36 49 04 41 dc 8a ad c0
       -7.3740225 -0.031311087 8.267874 -5.4232006
0000b0 d0 cc fd 3d d0 06 fb be 5d ee 5d 3c 8c 0a 99 be
       0.123925805 -0.49028635 0.0135456 -0.2989086
0000c0 ea 3f db 3d 67 69 d6 3d 4a 59 42 be 0e 1f 9b bd
       0.1070555 0.10469323 -0.18979374 -0.075742826
0000d0 f0 cf 17 3c 2e c8 e1 bd 58 7c 5f 3e 68 23 92 be
       0.009265885 -0.11024509 0.21824777 -0.28542638
0000e0 98 98 43 3e 2a 5d 03 3d 06 0d 48 3e 4f e8 a1 3d
       0.19101179 0.03207127 0.19536218 0.079056375
0000f0 42 96 63 3f 6c f0 8c 40 e7 2b 60 c0 be ad c6 bc
       0.8890115 4.4043484 -3.5026796 -0.024252769
000100 5c d9 59 c0 be f8 03 40 7a ea 6c bf 0a 83 1d bf
       -3.4038916 2.062057 -0.9254528 -0.61528075
000110 74 03 0e 3f 10 a4 57 3f 74 5c ec be a4 c5 91 bf
       0.5547402 0.84234715 -0.46164286 -1.138844
000120 3b 35 c6 be 60 a1 77 3f 1e cb 65 3f 30 7d 98 be
       -0.38712487 0.96730614 0.8976306 -0.2978301
000130 a4 4f 2a be f2 de c0 3f 00 b4 44 be 47 c9 b4 be
       -0.16631943 1.5068038 -0.1920929 -0.35309812
000140 70 80 ca bf 02 6a 10 bf ba 3b 84 bf 06 70 3e c0
       -1.5820446 -0.56411755 -1.0330727 -2.9755874
000150 2c 29 bf be 8e 72 1d 3f c6 d3 6a 40 d9 12 80 c0
       -0.373361 0.6150292 3.6691756 -4.0023007
000160 34 f7 a7 bc a0 e9 cb bd 99 d1 20 3f d6 9f 82 3e
       -0.020503618 -0.0995667 0.6281982 0.2551257
000170 62 03 04 3e 3e 0b 0a 3f 0e a4 e5 bd b9 94 48 3f
       0.12891915 0.53923404 -0.112129316 0.7835193
000180 d8 e4 29 3e ca 65 01 3d 4b 4e 5c 3e 06 9c 29 3f
       0.16591203 0.031591214 0.21514241 0.662537
000190 31 fa 35 3e 3c f5 90 3d ea a0 80 bf 9c d5 43 bf
       0.17771222 0.07078025 -1.0049107 -0.7649782
0001a0 c0 65 4f bf 4c cd dd bf 9e 00 16 3e 96 58 dd 3b
       -0.81014633 -1.7328277 0.14648673 0.006754945
0001b0 ee 11 1b 40 11 39 d3 bf
       2.4229693 -1.650179

decoder_variable_selection.flattened_grn.fc1.bias f4 [5]
000000 78 7e 08 c1 3a 5a 18 c1 46 62 c7 40 4d aa 1b c0
       -8.530876 -9.522028 6.2307463 -2.4322693
000010 02 6c d5 bf
       -1.6673586

decoder_variable_selection.flattened_grn.context.weight f4 [5, 6]
000000 a4 14 32 be 78 60 db c0 45 4b d8 40 8b 54 ef bd
       -0.17390686 -6.855526 6.759188 -0.11686047
000010 fc 40 45 c0 bb 2d 8e 3f 5f 6f 44 c1 15 db e0 c0
       -3.0820913 1.1107706 -12.27719 -7.0267434
000020 14 30 e3 c0 26 87 03 3f 45 be fc 40 f4 12 7e bf
       -7.099619 0.51378095 7.8982263 -0.9924767
000030 74 5b 3a c0 ae ad 68 c0 b2 3d 90 40 64 56 8a 3d
       -2.9118319 -3.6356006 4.507531 0.06754759
000040 52 99 86 c0 c4 53 e2 3f 6c 08 04 40 b9 e2 14 3f
       -4.206216 1.7681813 2.063014 0.5815845
000050 60 66 85 bf c4 47 f9 3e 88 09 bd 3f 44 cc 0a 3f
       -1.0421867 0.48687565 1.4768534 0.54217935
000060 70 ff 10 3f b8 22 3c bf 8f 09 15 bf b4 55 70 be
       0.56639767 -0.73490477 -0.5821771 -0.23470193
000070 ca 0a 00 40 c6 11 55 3f
       2.0006585 0.83230245

decoder_variable_selection.flattened_grn.fc2.weight f4 [5, 5]
000000 ec da 07 40 26 95 db 3e 62 b1 d1 3e 6e 26 04 41
       2.122737 0.4288723 0.40955645 8.259382
000010 08 b8 10 41 de 73 34 40 11 8f c1 bf 3c 2b 83 3f
       9.0449295 2.819572 -1.5121785 1.0247569
000020 0f 48 cd 40 e7 bc d2 40 c0 41 cc bf 4e 21 58 41
       6.415046 6.5855594 -1.5957565 13.508131
000030 5b a4 a7 3f ae 61 bb 3d 18 74 7e 3f 01 c5 0e 40
       1.3097032 0.0914949 0.99395895 2.2307742
000040 4e e9 9d c0 51 9f 08 c0 9c d2 58 c1 9c c4 5e c1
       -4.9347296 -2.134724 -13.551418 -13.923
000050 28 05 cd bf 52 a4 01 bf 86 b7 f8 be 95 c5 02 c1
       -1.6017199 -0.5064136 -0.48577517 -8.173238
000060 b5 6c 1c c1
       -9.77654

decoder_variable_selection.flattened_grn.fc2.bias f4 [5]
000000 68 5d 02 c1 e5 7e e0 c0 06 08 86 bf 64 f9 5b 41
       -8.147804 -7.01549 -1.0471199 13.748386
000010 16 c5 09 41
       8.610617
