tft_model_hidden16_oneYear_newIndex.pth (torch, 186085 bytes, 258 tensors)

input_embeddings.embeddings.article.weight f4 [51, 14]
0	0x3c84bb48	0.016202584
1	0x3e1fe73f	0.15615557
2	0x3faef2fd	1.3667904
3	0xbf02c266	-0.5107788
4	0x3ea345b9	0.31889132
5	0xbedc41db	-0.43018994
6	0x3f4eb09f	0.8073825
7	0x3ec8c0c9	0.39209583
8	0x3f570d15	0.84004337
9	0xbfbe55da	-1.486995
10	0x3fd3a240	1.653389
11	0xc00d4c12	-2.207768
12	0xbf6cdc44	-0.925236
13	0x3f0006a1	0.50010115
14	0x3e2f47c7	0.17117225
15	0xbfb5f234	-1.421454
16	0x3f8ee1cd	1.1162659
17	0xbef42fdf	-0.47692773
18	0xbf003a0b	-0.50088567
19	0xbcd264e5	-0.025682876
20	0xbea35c4f	-0.31906363
21	0x3ce6bfbb	0.028167596
22	0xbfe38c67	-1.7777222
23	0xbfa65559	-1.2994796
24	0x3efad7cb	0.48992762
25	0x3f257ca7	0.6464333
26	0xbf91c660	-1.1388664
27	0x3f1c75a1	0.6111699
28	0xbf7786a7	-0.9668984
29	0x3e1f767e	0.15572545
30	0xbed43ec3	-0.41454133
31	0x3ef7aeaa	0.48375446
32	0x3ec0b769	0.3763993
33	0x3e6ffff2	0.23437479
34	0xbf3990db	-0.72486657
35	0xbeda836f	-0.426784
36	0xbfa770fb	-1.3081354
37	0xbf79bc8a	-0.9755331
38	0xbe68bca6	-0.22728214
39	0xbfe2c727	-1.7717026
40	0xbee01ea5	-0.4377338
41	0x3f771a3e	0.9652442
42	0xbeb12262	-0.34596545
43	0xbf8f66b5	-1.1203219
44	0xbe8c7048	-0.27429414
45	0xbead441c	-0.33841026
46	0x3f64b29a	0.89335024
47	0xbf8af282	-1.0855258
48	0xbed9a24a	-0.4250663
49	0x3f67c69c	0.9053743
50	0xbf4f79dd	-0.81045324
51	0x3ee5718a	0.44813186
52	0x3fac9999	1.3484374
53	0x3eef8be7	0.46786425
54	0x3e9ac07e	0.30224985
55	0xbd2461e0	-0.040132403
56	0xbf3f5a5b	-0.74747247
57	0x3d834d8f	0.064112775
58	0xbe587269	-0.21137394
59	0x3fa7d698	1.3112364
60	0x3f1c2e76	0.61008394
61	0xbd949c4b	-0.07256373
62	0x3ed71f0e	0.4201588
63	0x3f93e6f6	1.1554859
64	0xbfeedcfa	-1.8661187
65	0xbec5b90b	-0.3861774
66	0x3f24be15	0.6435254
67	0x3eb88fda	0.3604725
68	0x3ef8cfcb	0.48596033
69	0xbe1a812a	-0.15088335
70	0x3f856b2d	1.0423332
71	0xbefd37b4	-0.4945656
72	0x401682b3	2.3517272
73	0xbea6ba07	-0.32563803
74	0x3f46340f	0.77423185
75	0xbf0d8c35	-0.55292064
76	0x3eeb83b5	0.45998922
77	0xbfa8040b	-1.3126234
78	0x3f9fce31	1.24848
79	0x3fc16923	1.511021
80	0x3e97b764	0.29632103
81	0xbf8727aa	-1.055898
82	0xbf301ce7	-0.687941
83	0x3ed63346	0.41835994
84	0x3eb481f1	0.35255387
85	0x3f8ee068	1.1162233
86	0xbfab9744	-1.3405538
87	0x3f1666c3	0.5875055
88	0xbdcccf5d	-0.10000489
89	0x3ef89bd0	0.48556376
90	0xbfab3bb6	-1.3377597
91	0x3d3c565c	0.045980796
92	0x3fd07c8b	1.6288007
93	0x3eee7578	0.46573997
94	0x3eb2833f	0.34865758
95	0x3ee7520e	0.4517979
96	0x3f7a08d0	0.97669697
97	0xbf0a59bb	-0.5404317
98	0x3c49a8af	0.012308284
99	0xbe6a0e67	-0.22857057
100	0xbf4255a3	-0.7591192
101	0x3f60ecb5	0.87861186
102	0x3effad81	0.4993706
103	0xbf26215e	-0.64894664
104	0xbeb951d2	-0.36195236
105	0xbe8b13ca	-0.27163535
106	0xbf17d75d	-0.59312993
107	0xbf021c3d	-0.5082434
108	0xbd0d2bef	-0.034465726
109	0xbeb1feb9	-0.3476465
110	0x40080c2f	2.1257436
111	0x3f7aa76b	0.9791171
112	0x3faedab2	1.366049
113	0xbe944140	-0.28956032
114	0x3f85a3ee	1.0440652
115	0x3f9a62c5	1.2061392
116	0x3e4d5200	0.20050812
117	0x3dc55841	0.09635974
118	0xbf2e63d1	-0.6812106
119	0xbf373e68	-0.715796
120	0xbed55aa8	-0.41670728
121	0x3f9d9fcb	1.231439
122	0xbe32b0d3	-0.17450266
123	0x3f991585	1.1959692
124	0xbde6f4a7	-0.112771325
125	0x40233603	2.5501716
126	0xbfacaada	-1.348964
127	0x3f53cb33	0.8273193
128	0x3fb03146	1.3765037
129	0xbf3a8d75	-0.72872096
130	0xbff67dd5	-1.9257151
131	0xc003307c	-2.0498343
132	0xbf9ca1a2	-1.2236826
133	0xbf0be0f8	-0.5464015
134	0xbfa5af28	-1.2944078
135	0x3f52fbb3	0.8241531
136	0x3f94b767	1.161847
137	0x3f023438	0.5086093
138	0x3f56c7ea	0.83898795
139	0xbfc223fe	-1.5167234
140	0x3eed4376	0.4634053
141	0xbe7f6cc9	-0.24943842
142	0x3f12dd62	0.57369053
143	0x3d929ed9	0.07159204
144	0x3f97b66e	1.1852548
145	0x3f7f7e20	0.99801826
146	0x3f954686	1.1662147
147	0xbeb72610	-0.35771227
148	0xbf053497	-0.5203337
149	0x3f0aff8e	0.54296196
150	0xbf370f97	-0.71508163
151	0x3f403927	0.7508721
152	0xbedb801e	-0.42871183
153	0x3f80e650	1.0070286
154	0x3fb3e8e3	1.4055446
155	0x3ea5969e	0.32341474
156	0xbf33c7d0	-0.70226765
157	0x3ce5de10	0.02805999
158	0xbebef821	-0.37298682
159	0xbedb3960	-0.4281721
160	0x3f7ddfa4	0.99169374
161	0x3e7c9613	0.24666624
162	0x3f8dc980	1.1077118
163	0x3f11f6ab	0.5701701
164	0xbf075082	-0.5285722
165	0x3fd2a72b	1.6457266
166	0x3dd93ca4	0.106072694
167	0x3fe372f1	1.7769452
168	0x3f8b9d42	1.0907366
169	0xbcaeb849	-0.021328108
170	0xbf78f84d	-0.97253877
171	0xbf85affc	-1.0444331
172	0x3f483dc4	0.78219247
173	0x3f154b7e	0.58318317
174	0xbf08e7e6	-0.5347885
175	0x3f9fdbee	1.2488992
176	0xbea28391	-0.31741002
177	0xbf8da6f9	-1.1066581
178	0x3ebf1a86	0.37324923
179	0x3fb7de24	1.4364667
180	0xbfa8f483	-1.3199619
181	0x3eee2629	0.4651349
182	0x3e9e1284	0.308735
183	0xbf2e6e85	-0.6813739
184	0xbeba21bb	-0.3635386
185	0xbf0f2a15	-0.5592359
186	0xbe64b5cc	-0.22334975
187	0x3d4fba4c	0.050714776
188	0xbfe0cc29	-1.7562305
189	0x3f7196fc	0.9437101
190	0xbf790d70	-0.9728613
191	0x3f3820fc	0.7192533
192	0xbecd5acf	-0.40108344
193	0xbe27e82d	-0.16397162
194	0xbe6c11f2	-0.2305372
195	0x3eef102c	0.46692026
196	0x402f63fe	2.740478
197	0x3f142d7e	0.57881916
198	0xbf9e2dd2	-1.2357733
199	0x3f2de5f9	0.67929035
200	0x400dc96a	2.2154183
201	0xbf2d8a88	-0.67789507
202	0x3dd64858	0.10463017
203	0x3f3ce454	0.737859
204	0xbf3a7b3f	-0.7284431
205	0x3ecb3f26	0.39696616
206	0x3f070571	0.5274268
207	0xbe7800cb	-0.24219052
208	0x3f99e462	1.2022822
209	0xbfaa1ef6	-1.3290699
210	0x3fd7c0d2	1.6855719
211	0x3f8a3cf7	1.0799855
212	0xbf6601ab	-0.89846295
213	0xbedede57	-0.43529007
214	0xbfd43624	-1.6579022
215	0x3ed86a27	0.42268488
216	0xbba1f802	-0.004942895
217	0xbcb03b69	-0.021512704
218	0x3f90c2a5	1.1309401
219	0xbf404920	-0.7511158
220	0xbef6e7f9	-0.48223856
221	0xbf3e37b9	-0.74303776
222	0xbd9f265a	-0.07770987
223	0xbf826555	-1.0187174
224	0x3e07eb74	0.13273412
225	0xbed0dc3a	-0.4079302
226	0xbe43ea25	-0.19132288
227	0xbf820cfb	-1.0160211
228	0x3d4b384c	0.049614236
229	0x3ffe333a	1.9859383
230	0x3ec43d83	0.3832818
231	0xbee38bf2	-0.44442707
232	0x3ed900f0	0.42383528
233	0xbf71acbb	-0.9440419
234	0xbcb55bc4	-0.022138484
235	0xbe54d57e	-0.20784566
236	0xbdb3dce0	-0.08782363
237	0xbf9758cf	-1.1823977
238	0xbeb7cc52	-0.35898072
239	0x3f8eea3f	1.1165236
240	0x3f2e5f6e	0.68114364
241	0xc01764d2	-2.3655286
242	0x3f8a00c0	1.0781479
243	0xbf915580	-1.1354218
244	0xbf5fb8d7	-0.8739142
245	0xbec61cfc	-0.38693988
246	0x3fa68cc5	1.301171
247	0x3e999070	0.2999301
248	0xbed1d26e	-0.40980858
249	0xbde924ca	-0.1138397
250	0xbf960314	-1.1719689
251	0xbe9dfb00	-0.3085556
252	0x3e237bc4	0.15965182
253	0xbef1f8d2	-0.47260147
254	0xbf7ec44f	-0.99518293
255	0xbfb380cd	-1.4023682

input_embeddings.embeddings.dayofweek.weight f4 [7, 5]
0	0x3eb41b7a	0.35177213
1	0xbfa1913f	-1.262245
2	0xc0039279	-2.055815
3	0x3fab2326	1.3370101
4	0x3da6dec8	0.08147961
5	0xbf57993a	-0.8421818
6	0xc0146438	-2.3186169
7	0x3eadd115	0.3394858
8	0xbf7ca677	-0.98691505
9	0xbf0e7332	-0.55644524
10	0x3d9021d6	0.07037704
11	0xbe9384e7	-0.28812334
12	0xc014bb5b	-2.3239353
13	0xbecd15af	-0.40055606
14	0x400833e9	2.1281683
15	0xbe93ee2d	-0.2889265
16	0xbf9dccb5	-1.2328097
17	0xbf26aa1f	-0.65103334
18	0xbf841f58	-1.0322065
19	0x3f5d7785	0.865105
20	0xc015db10	-2.3414955
21	0xbda549a4	-0.080706865
22	0xbe8ac67e	-0.27104563
23	0xbf8b2a98	-1.0872374
24	0x3ee45200	0.4459381
25	0xbe6569a4	-0.2240358
26	0xbf86ce63	-1.0531734
27	0x3fafffe5	1.3749968
28	0x3e016e37	0.126397
29	0x3ed62621	0.41825965
30	0xbe88ffa9	-0.26757553
31	0xbf113c87	-0.5673298
32	0x3f3df7c4	0.74206185
33	0x3f15022d	0.58206445
34	0x3eb17823	0.3466197

input_embeddings.embeddings.month.weight f4 [12, 6]
0	0xbfb904e1	-1.4454614
1	0x3f9511b6	1.164603
2	0x3fbb5c77	1.4637593
3	0x3d58cfb6	0.052932464
4	0x3d556a7d	0.05210351
5	0x3f6a9d3a	0.9164616
6	0xbeca9f48	-0.39574647
7	0x3f280fb3	0.65648955
8	0xbfa00693	-1.2502006
9	0x3fe40d2d	1.7816521
10	0xbdcf7e2c	-0.10131487
11	0x3f9bf2ca	1.2183468
12	0x3f85e884	1.0461583
13	0xc017c968	-2.3716679
14	0x3ea388e7	0.31940386
15	0xbe650103	-0.22363667
16	0x3dfdd47b	0.12394043
17	0x3fcee7bc	1.616447
18	0x3fb86601	1.4406129
19	0x3f5a44a9	0.8526102
20	0xbde57735	-0.112043776
21	0xbd9596ac	-0.07304129
22	0x3ed72800	0.42022705
23	0x3edd903d	0.43274108
24	0xbf471c65	-0.777777
25	0xbec161bb	-0.37769875
26	0xbd90f7e5	-0.07078532
27	0xbf8d4e3f	-1.1039504
28	0x3dc0775d	0.09397767
29	0x3f87ec3a	1.0618966
30	0xbf838975	-1.0276324
31	0xbec2d382	-0.38051993
32	0x3f44e4bb	0.76911515
33	0xbfba5445	-1.4556967
34	0xbe645f2d	-0.22301932
35	0xbda5036c	-0.08057293
36	0xc009e7a5	-2.1547635
37	0x3f579c69	0.8422304
38	0x3e7b1075	0.24517997
39	0xbfb8f5ad	-1.4449974
40	0xbef5a331	-0.47976068
41	0xbf83270d	-1.0246292
42	0xbf436917	-0.7633223
43	0xbf69f79f	-0.91393465
44	0xbe4869f8	-0.19571674
45	0xc0191184	-2.391694
46	0x3e939c8d	0.28830376
47	0x3f184b80	0.59490204
48	0xbecac638	-0.39604354
49	0xbf2e55a1	-0.6809941
50	0xbe589bea	-0.21153226
51	0x3ecd9539	0.4015291
52	0xbf1c297b	-0.61000794
53	0xbf291ec9	-0.660626
54	0xbf14a723	-0.5806753
55	0x3fa1768a	1.26143
56	0xbf3066db	-0.68906945
57	0xbf032429	-0.5122705
58	0x3ba4a254	0.005024234
59	0x3e182d35	0.14860995
60	0xbfbf5232	-1.4946959
61	0xbe46d560	-0.19417334
62	0xbf34f506	-0.70686376
63	0x3baf0ff0	0.005342476
64	0x3f762e23	0.9616415
65	0x3fd1ecbc	1.6400371
66	0x3fd7f52d	1.6871697
67	0x3c4912e2	0.012272568
68	0x3ed62379	0.41823938
69	0xbf35f01d	-0.7106951
70	0x3ef82faf	0.4847388
71	0xbefe77eb	-0.49700865

input_embeddings.embeddings.year.weight f4 [7, 5]
0	0xbeb9a812	-0.3626104
1	0xbf415aa9	-0.7552896
2	0x3ebfed2f	0.37485644
3	0x3ebc5fe0	0.36791897
4	0xbf6e99a7	-0.93203205
5	0xbe53a00b	-0.2066652
6	0x3f85f845	1.0466391
7	0x3db92d50	0.09041846
8	0xbe509d8f	-0.20372604
9	0xbf1f8936	-0.6231874
10	0xbedf2ccd	-0.43588868
11	0x3f12aa10	0.57290745
12	0x3ed84d2c	0.42246377
13	0x3e06b3fe	0.13154599
14	0x3e2ecfa0	0.1707139
15	0xbe7fad1f	-0.24968384
16	0x3fc8489c	1.5647159
17	0xbd5d9748	-0.05409935
18	0x3e41828e	0.18897459
19	0x3ee80fe0	0.45324612
20	0x3d1fc9ba	0.03901074
21	0xbe0a5db0	-0.13512301
22	0x3fbe3d8b	1.4862531
23	0xbfdbcb78	-1.7171469
24	0xbf1f9f59	-0.6235252
25	0xbf0d307b	-0.551521
26	0xbf5fcc51	-0.8742114
27	0xbff3972e	-1.9030511
28	0x3f59d596	0.8509153
29	0xbf70af76	-0.9401773
30	0x3f602563	0.8755705
31	0xc003d725	-2.0600064
32	0xbf7a8151	-0.9785357
33	0x3f3b4006	0.73144567
34	0x403f8471	2.9924586

prescalers.encoder_length.weight f4 [8, 1]
0	0x3f15f000	0.58569336
1	0x3d2f024c	0.0427268
2	0xbf4be107	-0.7964024
3	0x3ed1549f	0.40884873
4	0x3ec9220b	0.39283785
5	0xbf006c7e	-0.50165546
6	0x3f27f295	0.65604526
7	0xbf4094c6	-0.7522701

prescalers.encoder_length.bias f4 [8]
0	0x3e1887f9	0.1489562
1	0xbf16e724	-0.5894644
2	0xbf5f9e06	-0.873505
3	0x3f170299	0.5898834
4	0x3f3f5320	0.74736214
5	0xbf5ec5a5	-0.8702033
6	0xbf2ea45a	-0.6821953
7	0xbef06cab	-0.46957907

prescalers.views_center.weight f4 [8, 1]
0	0xbf504937	-0.81361717
1	0x3e4ce18a	0.20007911
2	0x3f5f6dae	0.8727673
3	0x3e9588c9	0.2920592
4	0xbefd2ce1	-0.49448302
5	0xbecd0341	-0.40041545
6	0x3e3eb94a	0.1862537
7	0xbf253632	-0.6453582

prescalers.views_center.bias f4 [8]
0	0xbf4954bb	-0.78644913
1	0xbd5440de	-0.051819675
2	0xbc9fb3b8	-0.019494876
3	0xbf10a092	-0.5649501
4	0xbf337ae8	-0.70109415
5	0x3f69cf69	0.9133211
6	0x3e395475	0.18098624
7	0xbe1340e8	-0.14380229

prescalers.views_scale.weight f4 [8, 1]
0	0xbf214898	-0.63001394
1	0x3f0c6047	0.5483441
2	0x3d8838ae	0.06651436
3	0x3f364639	0.712009
4	0xbe0d8c5c	-0.13823074
5	0xbeeb0f1a	-0.4590996
6	0x3f580ce3	0.84394664
7	0xbf234aa5	-0.63785774

prescalers.views_scale.bias f4 [8]
0	0x3f473f5c	0.77831054
1	0xbc84b195	-0.016197959
2	0x3e1b0058	0.1513685
3	0xbf05e0c4	-0.5229609
4	0xbf6fc830	-0.93664837
5	0xbf170a49	-0.5900007
6	0x3ec037db	0.37542614
7	0xbf389cca	-0.7211424

prescalers.log_views.weight f4 [8, 1]
0	0x3c923b1f	0.017850457
1	0xbd776392	-0.060397692
2	0x3e6007f5	0.21878035
3	0xbf668214	-0.90042233
4	0xbe7a13d5	-0.24421628
5	0xbe0ddaa7	-0.1385294
6	0x3daf0c2e	0.08547245
7	0xbed10b01	-0.40828708

prescalers.log_views.bias f4 [8]
0	0x3f63bddd	0.88961583
1	0xbe8ae368	-0.27126622
2	0x3f777c8a	0.96674407
3	0x3f3c01f2	0.7344047
4	0x3f0bc86d	0.546027
5	0x3efd7e7c	0.49510562
6	0x3f806196	1.0029781
7	0xbf3cc032	-0.73730767

prescalers.relative_time_idx.weight f4 [8, 1]
0	0xbf3c4433	-0.73541564
1	0x3eabb814	0.33538878
2	0xbe9a1170	-0.3009143
3	0xbef098c3	-0.46991548
4	0xbf3d626b	-0.739783
5	0x3e771136	0.24127659
6	0x3f342270	0.7036505
7	0xbeb1e240	-0.34742928

prescalers.relative_time_idx.bias f4 [8]
0	0x3f1ff3c8	0.62481356
1	0x3ebb5501	0.3658829
2	0x3db9481a	0.090469554
3	0xbf0dfd06	-0.5546421
4	0x3f1e2b61	0.6178494
5	0x3eb57224	0.35438645
6	0xbea3559e	-0.31901258
7	0x3f4f4d5e	0.8097743

prescalers.avg_by_song.weight f4 [8, 1]
0	0x3f3c4987	0.73549694
1	0xbef5d624	-0.4801494
2	0xbf5f9ef3	-0.8735191
3	0x3eaef68c	0.34172475
4	0x3f1a35e5	0.60238487
5	0xbd578050	-0.052612603
6	0x3f4dcac6	0.8038753
7	0xbd1eac34	-0.038738444

prescalers.avg_by_song.bias f4 [8]
0	0xbdcac58f	-0.099009626
1	0x3f2e76b1	0.6814986
2	0xbd27043a	-0.040775515
3	0x3f529365	0.82256156
4	0x3e11324b	0.14179341
5	0x3ebe5f01	0.37181857
6	0xbe26f498	-0.16304243
7	0xbe097dc3	-0.1342688

static_variable_selection.flattened_grn.resample_norm.mask f4 [4]
0	0xbc085803	-0.008321765
1	0xbc64ca59	-0.013964259
2	0x3cecdc51	0.028913649
3	0xbcc0e518	-0.02354674

static_variable_selection.flattened_grn.resample_norm.norm.weight f4 [4]
0	0x3f67e0b3	0.9057724
1	0x3f7cc867	0.9874329
2	0x3f791097	0.9729094
3	0x3f957dbb	1.1678995

static_variable_selection.flattened_grn.resample_norm.norm.bias f4 [4]
0	0xbd4ce1c7	-0.050020006
1	0xbd9c237c	-0.076239556
2	0x3df474c4	0.11936334
3	0xbdddae51	-0.10824264

static_variable_selection.flattened_grn.fc1.weight f4 [4, 38]
0	0x3d58e1e8	0.052949816
1	0xbd41e2c3	-0.047335397
2	0x3e6afef4	0.2294882
3	0xbec1056d	-0.37699452
4	0x3e80c3f5	0.25149503
5	0xbeb58a52	-0.35457093
6	0xbde4e877	-0.11177152
7	0x3ddf49c5	0.10902742
8	0xbd7c75a4	-0.06163563
9	0xbead1b5f	-0.33809945
10	0xbd82d6d1	-0.06388629
11	0x3d38c6a7	0.045111325
12	0x3dcf8711	0.10133184
13	0xbbd46f49	-0.006482993
14	0x3c831f03	0.016005998
15	0xbda4db31	-0.0804962
16	0xbd80682f	-0.062698714
17	0xbe1429a3	-0.14469008
18	0x3ed589a7	0.41706583
19	0x3dab6941	0.08369685
20	0x3e4a5d13	0.19762067
21	0xbe6337b2	-0.22189215
22	0xbe2d1dda	-0.16905919
23	0x3eedd36b	0.46450362
24	0xbecee5ee	-0.40409797
25	0x3d10b264	0.035326377
26	0xbd73d5f1	-0.059530202
27	0xbe8ffa1f	-0.28120515
28	0xbe36a300	-0.17835617
29	0x3de3d725	0.1112502
30	0x3d64939f	0.055804845
31	0x3ce8cd17	0.028418107
32	0x3e1435b0	0.14473605
33	0x3ea6a468	0.32547307
34	0xbdf13e75	-0.11779491
35	0x3c45544d	0.012044025
36	0x3dea76f0	0.11448467
37	0xbed5a12a	-0.4172452
38	0xbed24c48	-0.41073823
39	0x3dd6c4f1	0.10486782
40	0xbc07c12f	-0.008285805
41	0xbe396a65	-0.18106993
42	0x3e1a4bba	0.1506795
43	0xbea394a8	-0.31949353
44	0xbd982bad	-0.074302055
45	0x3deacc92	0.114648
46	0xbe483281	-0.19550516
47	0xbdd30ec0	-0.10305548
48	0xbec3581e	-0.38153166
49	0x3c9da2a3	0.01924259
50	0x3e65a509	0.22426237
51	0xbe998ad6	-0.29988736
52	0xbb88868c	-0.00416643
53	0x3a21d223	0.00061729754
54	0x3e9196e3	0.2843543
55	0x3e90b1f2	0.28260761
56	0xbefad5b1	-0.4899116
57	0xbdb782d7	-0.089605026
58	0xbd8a231a	-0.06744976
59	0xbd495799	-0.049155805
60	0xbe936aaa	-0.28792316
61	0xbd7a0fba	-0.061050154
62	0x3e5823f2	0.21107462
63	0x3e70f8f0	0.23532462
64	0x3ea9fc10	0.3320012
65	0xbd4ebc86	-0.05047276
66	0xbe8c0f4f	-0.2735543
67	0x3d92c9a0	0.07167363
68	0x3eac5b95	0.33663622
69	0xbd650c94	-0.0559202
70	0xbd3ead80	-0.04655218
71	0x3db8b6e5	0.09019259
72	0x3d4e089b	0.050301176
73	0xbe050896	-0.12991557
74	0xbe7af851	-0.24508788
75	0x3e9512fa	0.2911604
76	0x3e8224c1	0.25418666
77	0x3b9bde0c	0.0047566947
78	0x3eb2c620	0.34916782
79	0x3d8d6de7	0.06905728
80	0x3ea9f468	0.3319428
81	0xbedc1cc8	-0.42990708
82	0xbe0b54d1	-0.13606574
83	0x3e1aaca5	0.15104921
84	0xbe9bbbc5	-0.30416694
85	0xbe4f6a87	-0.2025548
86	0x3cf0fd58	0.029417679
87	0x3e1921bf	0.1495428
88	0xbdc0da4f	-0.09416639
89	0x3ec291f5	0.3800198
90	0xbe22a4f4	-0.15883237
91	0x3d393c3a	0.045223452
92	0xbc5fd6a4	-0.013662014
93	0x3d9f24b3	0.07770672
94	0x3e9a2eb3	0.30113754
95	0x3d1355d7	0.035970535
96	0xbe3d4972	-0.18485048
97	0xbef07bae	-0.4696936
98	0x3e835bd5	0.25656
99	0xbd260525	-0.04053225
100	0xbf0bdf1e	-0.54637325
101	0xbec779c9	-0.38960102
102	0xbefb2dc9	-0.4905837
103	0xbef9cfda	-0.4879139
104	0xbd8a3b4d	-0.06749592
105	0x3d353f62	0.0442499
106	0x3cc3b395	0.023889342
107	0x3e6c5fc5	0.23083408
108	0x3c1076f4	0.008817423
109	0x3e162192	0.14661244
110	0xbee6808f	-0.45019957
111	0xbeaf5d0c	-0.34250677
112	0x3e0eb475	0.13936026
113	0x3e042478	0.12904537
114	0x3e803830	0.25042868
115	0x3eab4bf3	0.33456382
116	0xbefbd778	-0.49187827
117	0x3eb42975	0.3518788
118	0xbe18e1c5	-0.14929874
119	0xbd9fabba	-0.07796426
120	0x3d449a29	0.04799858
121	0x3ea721ef	0.32643077
122	0x3df68846	0.12037711
123	0xbbdd56f7	-0.006754752
124	0x3ceb01e6	0.028687429
125	0x3e5a3b0a	0.21311584
126	0x3e418853	0.1889966
127	0xbdd18c80	-0.102318764
128	0x3dd6cb70	0.104880214
129	0x3c9f2987	0.019428981
130	0x3e198370	0.14991546
131	0x3ebaede2	0.36509615
132	0x3df7300a	0.120697096
133	0x3eddfe7d	0.43358222
134	0x3e2090b7	0.15680204
135	0x3ee1f0e9	0.44129112
136	0xbcaf0445	-0.02136434
137	0xbe4e553b	-0.201497
138	0xbda3defa	-0.08001514
139	0x3e37dc97	0.17955242
140	0x3e8922cf	0.2678437
141	0x3e316526	0.17323741
142	0xbd48d891	-0.04903466
143	0x3e2d3a00	0.16916656
144	0xbcaaa55a	-0.020830799
145	0xbee4f889	-0.44720867
146	0xbe05d744	-0.13070399
147	0x3c22ef82	0.009944798
148	0xbda6b4f9	-0.081399865
149	0x3e89050d	0.26761666
150	0xbef96584	-0.48710263
151	0xbe06fa11	-0.1318133

static_variable_selection.flattened_grn.fc1.bias f4 [4]
0	0x3b0ec0bb	0.0021782357
1	0xbcf5d526	-0.030008864
2	0xbcd49b2b	-0.025952896
3	0xbd993f40	-0.07482767

static_variable_selection.flattened_grn.fc2.weight f4 [4, 4]
0	0x3e0a28dd	0.1349215
1	0xbf429dd3	-0.7602207
2	0xbea977b3	-0.33099136
3	0x3f152e1b	0.58273476
4	0x3f6c5cdc	0.9232919
5	0xbf05fbac	-0.52337146
6	0x3d4994bf	0.04921412
7	0x3e572172	0.21008852
8	0x3dc2da96	0.09514348
9	0xbf74b580	-0.9558945
10	0xbdcd1083	-0.10012915
11	0x3f7b293e	0.98109806
12	0x3eeef74f	0.46673056
13	0xbeefeeb9	-0.46861818
14	0xbf31dd03	-0.6947786
15	0xbdc702b0	-0.097173095

static_variable_selection.flattened_grn.fc2.bias f4 [4]
0	0xbcb8bade	-0.022550043
1	0xbc4cf6f3	-0.012510049
2	0x3dd1be47	0.10241371
3	0x3c2c3c7f	0.01051247

static_variable_selection.flattened_grn.gate_norm.glu.fc.weight f4 [8, 4]
0	0x3e9e5f28	0.30931973
1	0x3ee7be64	0.45262444
2	0xbf2b881c	-0.6700456
3	0x3b5aac08	0.0033366699
4	0x3f02c399	0.5107971
5	0x3e0febe3	0.14054827
6	0x3f0e13bb	0.55498856
7	0x3e8a7ad6	0.2704684
8	0xbf21c702	-0.63194287
9	0x3eb72f91	0.35778478
10	0x3ebdc58c	0.3706478
11	0x3e779729	0.24178757
12	0xbe4867a9	-0.19570793
13	0xbe46d146	-0.19415769
14	0xbd6f66fb	-0.05844782
15	0x3e0a594c	0.13510627
16	0x3e6bef63	0.23040538
17	0xbf0c5a4c	-0.5482528
18	0x3c3418ad	0.010992211
19	0xbb5f85c3	-0.0034106828
20	0x3ee3778b	0.44427142
21	0xbe398994	-0.18118888
22	0xbead1e3f	-0.33812138
23	0x3e82a303	0.25514993
24	0xbe33a8cb	-0.17544858
25	0xbe024f4b	-0.1272556
26	0xbe92312a	-0.28553134
27	0x3e8fd2bd	0.28090468
28	0xbe39e5ac	-0.18154019
29	0x3e2c8b9f	0.16850136
30	0xbf17615f	-0.5913295
31	0xbd12009c	-0.035645112

static_variable_selection.flattened_grn.gate_norm.glu.fc.bias f4 [8]
0	0xbd9eab9d	-0.077475764
1	0xbdb9959e	-0.0906174
2	0x3df853cd	0.12125359
3	0xbe27473d	-0.16335769
4	0xbd86073a	-0.06544347
5	0x3e12c45d	0.14332719
6	0xbdb1020d	-0.08642969
7	0xbdf70ce8	-0.120630085

static_variable_selection.flattened_grn.gate_norm.add_norm.norm.weight f4 [4]
0	0x3f41f3ac	0.7576244
1	0x3f796cfb	0.97431916
2	0x3f660dff	0.89865106
3	0x3f569959	0.8382774

static_variable_selection.flattened_grn.gate_norm.add_norm.norm.bias f4 [4]
0	0xbdabcbb3	-0.08388462
1	0xbd4ada60	-0.049524665
2	0x3d72d363	0.059283625
3	0x3e3dd9d1	0.18540122

static_variable_selection.single_variable_grns.article.mask f4 [16]
0	0xbdddc1bd	-0.10827968
1	0x3e0d519c	0.13800663
2	0xbd9a2886	-0.075272605
3	0xbcead716	-0.028667014
4	0xbde00300	-0.10938072
5	0xbc9aa79e	-0.018878754
6	0x3d879281	0.0661974
7	0x3da4f135	0.08053819
8	0xbdb3d370	-0.08780563
9	0x3dbf528a	0.09341915
10	0x3d118242	0.035524614
11	0x3d8dff3b	0.06933447
12	0x3db10e03	0.08645251
13	0x3dbbaa2f	0.09163319
14	0xbd889a3d	-0.066700436
15	0xbe282c7c	-0.1642322

static_variable_selection.single_variable_grns.article.norm.weight f4 [16]
0	0x3f6693dd	0.9006937
1	0x3f8f98a1	1.1218454
2	0x3f59fdd1	0.8515292
3	0x3f57e2aa	0.84330237
4	0x3f51d77f	0.81969446
5	0x3f6c7864	0.923712
6	0x3f86d078	1.053237
7	0x3f8dd920	1.1081886
8	0x3f6d3daa	0.92672217
9	0x3f858342	1.0430682
10	0x3f877af8	1.0584402
11	0x3f87511d	1.0571629
12	0x3f896971	1.0735303
13	0x3f8814c8	1.0631342
14	0x3f6a6d6c	0.91573215
15	0x3f531dcb	0.82467335

static_variable_selection.single_variable_grns.article.norm.bias f4 [16]
0	0xbdc8e2e9	-0.09808905
1	0xbd508145	-0.05090453
2	0xbd82825a	-0.06372519
3	0x3dd6c0b7	0.10485976
4	0x3cc10c7b	0.023565521
5	0xbd3a4bef	-0.045482572
6	0xbbb9e458	-0.0056729726
7	0x3be9d65a	0.0071361484
8	0xbdde75df	-0.10862326
9	0x3ceb6350	0.02873388
10	0xbd2e43ed	-0.042545248
11	0xbd14a814	-0.036293104
12	0x3da28a3f	0.079365246
13	0x3d20dc6e	0.039272718
14	0x3ca30b57	0.019902868
15	0x3d9253bc	0.07144877

static_variable_selection.single_variable_grns.encoder_length.resample_norm.mask f4 [16]
0	0x3ba89d2d	0.00514569
1	0x3d04edb5	0.032453258
2	0x3b8d0759	0.0043038544
3	0x3c8b3b8c	0.016996168
4	0x3c50456a	0.012711862
5	0xbd5a35bf	-0.053273913
6	0x3cd022ed	0.025407279
7	0x3ba0457a	0.0048910948
8	0xbc8edb16	-0.017438453
9	0x3ce3e91a	0.027821112
10	0x3c223a37	0.009901575
11	0xbcf9b800	-0.030483246
12	0x3bc470be	0.005994885
13	0xbdea00d7	-0.114259414
14	0xba7bb144	-0.0009601305
15	0x3c7fff44	0.015624825

static_variable_selection.single_variable_grns.encoder_length.resample_norm.norm.weight f4 [16]
0	0x3f8114a2	1.0084422
1	0x3f84bdb6	1.0370395
2	0x3f8137ed	1.0095192
3	0x3f84a58e	1.0363023
4	0x3f834d11	1.0257894
5	0x3f75385c	0.9578912
6	0x3f85033e	1.0391614
7	0x3f841e43	1.0321735
8	0x3f806d32	1.0033324
9	0x3f85d2f0	1.0454998
10	0x3f809af7	1.0047292
11	0x3f7a2261	0.9770871
12	0x3f80836f	1.004011
13	0x3f5e8f42	0.86937344
14	0x3f800d5a	1.0004075
15	0x3f82baf0	1.0213299

static_variable_selection.single_variable_grns.encoder_length.resample_norm.norm.bias f4 [16]
0	0x3b9eadfa	0.004842517
1	0x3d089898	0.03334865
2	0x3b354747	0.0027660893
3	0xbd16878f	-0.036750372
4	0xbceb4aff	-0.028722284
5	0x3d3e21a5	0.046418805
6	0x3d22c5db	0.03973947
7	0x3ce9a7c7	0.028522385
8	0x3b6e6966	0.003637874
9	0x3d26ac9d	0.04069196
10	0xbc5b2b19	-0.0133769745
11	0x3cc281d9	0.023743557
12	0xbcfc4d77	-0.030798657
13	0xbc87ece1	-0.016592445
14	0x3b8aadff	0.0042321677
15	0xbd0ce071	-0.03439373

static_variable_selection.single_variable_grns.encoder_length.fc1.weight f4 [8, 8]
0	0x3f02da53	0.51114386
1	0x3dc6d12d	0.09707866
2	0xbeb3985d	-0.3507718
3	0x3e67f3e4	0.2265163
4	0xbe409d05	-0.18809898
5	0x3fb4681b	1.409427
6	0xbe8f6dea	-0.28013545
7	0xbe8beadd	-0.27327624
8	0x3d641c46	0.055691026
9	0xbf8c4938	-1.0959845
10	0x3e9322ad	0.28737393
11	0x3dfb6d24	0.12276676
12	0x3f109b20	0.564867
13	0x3ead5ef4	0.33861506
14	0x3f96ed7c	1.1791224
15	0xbf35a7a0	-0.709589
16	0x3f752f4b	0.9577529
17	0x3e8eabdb	0.2786549
18	0xbe81eae9	-0.25374535
19	0xbf264b4a	-0.6495863
20	0xbe0dfd62	-0.13866189
21	0xbe70efcc	-0.23528975
22	0x3e8baf1d	0.27282038
23	0x3e6e1b53	0.23252611
24	0xbf16391a	-0.5868088
25	0xbd62247a	-0.055210568
26	0xbf31d213	-0.6946117
27	0x3ed178b3	0.409124
28	0x3ea58217	0.32325813
29	0xbec5cbf1	-0.38632157
30	0x3dbb6bda	0.091514304
31	0x3e8207cb	0.2539657
32	0x3f487467	0.78302616
33	0xbf61dc3e	-0.8822669
34	0x3eecfe7f	0.46287915
35	0x3eafe486	0.34354037
36	0x3edb53bc	0.42837322
37	0xbf4c23ae	-0.7974194
38	0xbc467698	-0.012113236
39	0x3f0787b2	0.5294143
40	0x3dc3ab3e	0.09554146
41	0x3eaa3d96	0.3325011
42	0xbe872f18	-0.26403117
43	0x3cac421f	0.021027623
44	0x3f13ca0e	0.57730186
45	0x3efc2e52	0.4925409
46	0xbcf63370	-0.030053824
47	0x3d331922	0.04372514
48	0x3f40f356	0.753713
49	0xbf266f76	-0.65013826
50	0x3f5f4888	0.8722005
51	0xbf1c10c9	-0.6096311
52	0x3ec27c93	0.37985668
53	0x3e8459d6	0.2584979
54	0xbf5f1a92	-0.8714992
55	0xbf066d4a	-0.5251051
56	0x3ed3eba0	0.41390705
57	0xbf3ce4ae	-0.7378644
58	0x3f281edc	0.6567209
59	0xbf0cda92	-0.5502101
60	0x3d2e9766	0.042624854
61	0xbe76e661	-0.2411132
62	0x3dd43a23	0.10362651
63	0xbe5f8a8f	-0.218302

static_variable_selection.single_variable_grns.encoder_length.fc1.bias f4 [8]
0	0x3d5ee1a3	0.054414403
1	0xbd28f73e	-0.041251414
2	0xbd940118	-0.07226771
3	0x3bf5dc7c	0.0075030904
4	0xbd0295e5	-0.03188123
5	0xbdae4154	-0.08508554
6	0x3c9009b8	0.01758276
7	0x3d811782	0.06303312

static_variable_selection.single_variable_grns.encoder_length.fc2.weight f4 [8, 8]
0	0xbb0591a6	-0.0020381003
1	0x3cfa95c9	0.030589001
2	0x3e6a0f72	0.22857454
3	0xbcbdff06	-0.023192894
4	0x3e2143df	0.15748547
5	0xbf13a21a	-0.5766922
6	0x3e9decc9	0.30844715
7	0x3e9b3796	0.30315846
8	0x3f322d8d	0.69600755
9	0xbeec11a9	-0.46107224
10	0x3e99eed2	0.30065018
11	0x3fb463c1	1.4092942
12	0xbdca12ab	-0.09866842
13	0xbe4893d1	-0.19587637
14	0xbe11a912	-0.14224651
15	0x3f35b13b	0.7097356
16	0x3e6a2d64	0.22868878
17	0x3d9d826e	0.07690893
18	0x3f79e031	0.97607714
19	0xbea2ced8	-0.31798434
20	0xbef3846a	-0.4756196
21	0xbea6c175	-0.3256947
22	0xbe9f4559	-0.31107596
23	0xbf25ad9b	-0.64718026
24	0x3f5d6333	0.8647949
25	0xbf1b379b	-0.6063172
26	0xbeb67821	-0.35638526
27	0x3ec5ea16	0.38655156
28	0x3eab00d7	0.33399078
29	0xbefb3fa9	-0.49072006
30	0x3aa74835	0.0012762608
31	0x3db6cabf	0.089253895
32	0x3e0999b0	0.13437533
33	0x3f70ff3b	0.9413945
34	0x3e83f769	0.25774696
35	0xbf9c0368	-1.218854
36	0x3f22dfb5	0.636226
37	0x3f73d829	0.9525171
38	0xbf18c80f	-0.59680265
39	0x3ca23533	0.019800758
40	0x3ee28e26	0.44249076
41	0xbe9de28a	-0.30836898
42	0x3edafd7d	0.4277152
43	0xbe5a3caa	-0.21312204
44	0x3f131aa1	0.5746251
45	0x3dfc31bb	0.12314173
46	0xbe390338	-0.18067634
47	0x3edf1801	0.43573
48	0x3e8d7ba1	0.27633384
49	0xbed04f4a	-0.40685493
50	0x3fa4a311	1.2862264
51	0x3f07a6a3	0.5298864
52	0x3e83a1b4	0.25709307
53	0xbd2fa9ff	-0.04288673
54	0x3eaa7c79	0.3329809
55	0xbeea4a54	-0.45759833
56	0xbd9d5f4e	-0.076841936
57	0xbdd0406c	-0.101685375
58	0x3e9fb7aa	0.31194812
59	0xbe486737	-0.19570623
60	0x3f023dee	0.5087575
61	0x3e557d0f	0.20848487
62	0xbe842355	-0.25808206
63	0xbf3f5c71	-0.7475043

static_variable_selection.single_variable_grns.encoder_length.fc2.bias f4 [8]
0	0x3d1f9f76	0.038970433
1	0xbcb5ea5e	-0.022206482
2	0x3d24cd34	0.04023476
3	0x3d590924	0.052987233
4	0xbcdb75b0	-0.026789516
5	0x3c69eeb7	0.014278105
6	0xbd573651	-0.052542035
7	0xbdc1a42d	-0.09455142

static_variable_selection.single_variable_grns.encoder_length.gate_norm.glu.fc.weight f4 [32, 8]
0	0x3dc73722	0.097273126
1	0xbe8cf786	-0.27532595
2	0x3dd68c0c	0.104759306
3	0xbe38fb62	-0.18064645
4	0xbc927d69	-0.017882066
5	0xbe5e16ef	-0.21688436
6	0x3e513b67	0.20432816
7	0xbe5227d4	-0.20523006
8	0x3e3cdd2a	0.18443742
9	0x3e2a5efd	0.16637798
10	0x3dfe64ee	0.124215946
11	0x3e30605c	0.17224258
12	0x3e0506cb	0.12990873
13	0xbe191a2c	-0.1495139
14	0x3e0827af	0.13296388
15	0x3e9eb3d2	0.30996567
16	0x3e64b263	0.22333674
17	0xbe8d4d7a	-0.27598172
18	0x3e018e81	0.12652017
19	0xbe01d60a	-0.12679306
20	0x3eb7a947	0.35871336
21	0xbe347029	-0.1762091
22	0xbdb5ac24	-0.08870724
23	0x3dc1f799	0.09471054
24	0xbe97ed99	-0.2967346
25	0x3cc6aa8c	0.024251245
26	0x3e28d966	0.16489181
27	0xbd716c43	-0.058941137
28	0xbec82331	-0.3908935
29	0xbec9ece0	-0.39438534
30	0xbeaea536	-0.3411042
31	0xbecad95d	-0.3961896
32	0x3e24be48	0.16088212
33	0xbe18c595	-0.14919122
34	0xbe244c4c	-0.1604473
35	0x3e54414d	0.20728035
36	0x3df04b8b	0.11733159
37	0xbe916c7c	-0.2840308
38	0xbad86faa	-0.0016512771
39	0x3de31c56	0.11089389
40	0xbe3e70dc	-0.1859774
41	0x3dc2b704	0.09507564
42	0xbe1d86d9	-0.15383472
43	0xbeae1812	-0.3400274
44	0xbe6b5c7d	-0.229845
45	0xbe4ae274	-0.19812948
46	0x3e6855dd	0.22689004
47	0x3eaa6b68	0.3328507
48	0xbe923ba2	-0.2856112
49	0x3e862a2f	0.2620406
50	0xbe0bdab9	-0.13657655
51	0xbd359539	-0.044331763
52	0x3cc612bf	0.02417886
53	0x3dd40119	0.10351772
54	0x3e205bf8	0.15660083
55	0xbe91cb78	-0.28475547
56	0x3db3ea11	0.08784879
57	0xbeb263d5	-0.3484179
58	0x3e9784c2	0.29593474
59	0x3ead4680	0.3384285
60	0xbeaab048	-0.33337617
61	0x3e23e8e6	0.16006812
62	0x3e8c2e6c	0.27379167
63	0xbe563184	-0.20917326
64	0x3dbb57bd	0.09147594
65	0xbe1631da	-0.14667454
66	0xbe872101	-0.26392367
67	0xbe4591d5	-0.19293912
68	0xbe36bb55	-0.17844899
69	0xbe8cfa9b	-0.27534947
70	0xbc3c5fea	-0.011497477
71	0x3eba5f9f	0.36401078
72	0x3de688b2	0.11256541
73	0x3cf657d2	0.030071173
74	0xbede6e3b	-0.43443474
75	0x3e0952d6	0.13410506
76	0x3ea6a3dd	0.32546893
77	0xbd833587	-0.06406694
78	0x3eafd1e6	0.34339827
79	0x3ebc0173	0.36719856
80	0x3dde772c	0.10862574
81	0xbeaaefdd	-0.33386126
82	0xbca42adb	-0.020039966
83	0xbd6b0830	-0.057380855
84	0x3c6c630a	0.01442791
85	0xbe0a01aa	-0.13477197
86	0xbe044284	-0.12915999
87	0xbde29ab1	-0.11064661
88	0xbd493d7b	-0.049130898
89	0xbe8315bf	-0.25602528
90	0xbe3e2aa2	-0.1857095
91	0x3d8ae59d	0.067820765
92	0x3e9ad1bc	0.3023814
93	0x3ebdfffd	0.37109366
94	0x3e944460	0.28958416
95	0xbea24666	-0.31694335
96	0x3af86eec	0.0018953956
97	0xbe1109ce	-0.14163896
98	0x3e381c26	0.17979488
99	0x3ed46567	0.41483614
100	0x3e3009dc	0.17191261
101	0x3e6de1f7	0.2323073
102	0xbe4ff8d1	-0.2030976
103	0x3ea1710d	0.31531563
104	0xbe39cb8f	-0.18144058
105	0xbeaa94cc	-0.33316648
106	0x3dd4b17f	0.10385417
107	0x3eaa7d43	0.33298692
108	0x3e05a756	0.13052115
109	0xbeca8fb8	-0.39562774
110	0x3e0bce41	0.13652898
111	0xbe6b6c4b	-0.22990529
112	0x3d4e7b8a	0.050410785
113	0xbe1491a0	-0.14508677
114	0xbe168f88	-0.1470319
115	0xbdb4e318	-0.08832377
116	0x3d0e57a6	0.034751557
117	0x3e300a9f	0.17191552
118	0xbde1a7ca	-0.11018331
119	0xbd8dffd7	-0.06933563
120	0x3e37a539	0.17934121
121	0xbe3f2ae2	-0.18668702
122	0xbe7ea19a	-0.24866334
123	0x3d36d817	0.044639673
124	0x3e445620	0.19173479
125	0xbcd3e64a	-0.025866646
126	0x3d4311fa	0.047624566
127	0x3eb89832	0.36053616
128	0x3e31c2b5	0.17359431
129	0x3c4e56d1	0.012593941
130	0x3e88a6d8	0.26689792
131	0xbdbcc8d3	-0.09217992
132	0xbe660dd1	-0.22466208
133	0x3e087197	0.13324581
134	0xbea38402	-0.3193665
135	0x3de1e4ee	0.11029993
136	0x3e345e89	0.17614187
137	0x3e1d1b40	0.15342426
138	0x3d653a37	0.05596372
139	0x3e8708e9	0.26373985
140	0x3e722338	0.23646247
141	0x3e56746c	0.20942849
142	0xbeb4f2ba	-0.35341436
143	0x3cb547e1	0.022129001
144	0x3e30a071	0.17248704
145	0x3ebba4d5	0.36649194
146	0x3e90ce1d	0.28282252
147	0xbec01eb6	-0.3752343
148	0x3ea51b59	0.32247427
149	0x3db87a3c	0.09007689
150	0xbe0ca2cb	-0.13733976
151	0xbe85208b	-0.2600139
152	0x3dbddc68	0.09270555
153	0x3eadf82c	0.33978403
154	0x3e99d37e	0.30044168
155	0x3e49a03a	0.19690028
156	0xbe818c72	-0.25302464
157	0xbeb48986	-0.35261172
158	0xbd0292d9	-0.031878326
159	0xbe0a788d	-0.13522549
160	0xbe711e79	-0.2354678
161	0xbec481de	-0.3838033
162	0x3e290783	0.16506772
163	0x3dbfd172	0.093661204
164	0x3e2f95fa	0.17147055
165	0xbe59d6ca	-0.21273342
166	0xbe638749	-0.22219576
167	0x3d27e4fb	0.040989857
168	0x3e65eda8	0.2245394
169	0x3e261757	0.16219841
170	0x3e0517f6	0.12997422
171	0xbdd25486	-0.10270028
172	0x3d873d45	0.06603483
173	0xbdf1b6cc	-0.11802444
174	0x3e791c3b	0.24327175
175	0x3e8d566e	0.27605003
176	0x3cc6cc7b	0.024267426
177	0xbd38d456	-0.045124374
178	0x3ec68c74	0.38779032
179	0xbe666a27	-0.22501431
180	0xbd187f2f	-0.037230667
181	0x3d85b5d1	0.06528819
182	0xbde20241	-0.11035586
183	0x3d2e570a	0.042563476
184	0xbe6592d8	-0.22419298
185	0xbd450cd7	-0.04810795
186	0x3e9596b6	0.29216546
187	0x3ea1ee32	0.3162704
188	0x3e75eb6c	0.24015588
189	0x3e31112c	0.17291707
190	0x3ea03827	0.3129284
191	0x3e066825	0.13125665
192	0x3e13c9fd	0.14432521
193	0x3e3641c3	0.17798524
194	0x3e496e6b	0.19671027
195	0x3d833480	0.06406498
196	0xbeb017e5	-0.3439323
197	0x3c779e27	0.01511339
198	0xbdf7a008	-0.120910704
199	0xbe2e0c44	-0.16996866
200	0xbe0a8b3c	-0.13529676
201	0xbdcf3a81	-0.101185806
202	0xbe34822a	-0.17627779
203	0x3ea7b45d	0.32754794
204	0xbe29bcf5	-0.16575988
205	0xbcc4d644	-0.024027951
206	0xbdbb4104	-0.0914326
207	0x3e8e248c	0.27762258
208	0xbe0a4293	-0.13501959
209	0x3dedbef1	0.11608685
210	0xbeccdcf3	-0.4001232
211	0x3d9d88bd	0.076920964
212	0xbe98689b	-0.29767308
213	0x3de07943	0.10960629
214	0x3d8eb92d	0.06968913
215	0x3d93bef3	0.07214155
216	0x3dcd9411	0.10038007
217	0xbe6f8f64	-0.23394543
218	0xbe2493cb	-0.16072004
219	0xbe41832f	-0.18897699
220	0xbe013264	-0.12616879
221	0xbdcd5fa1	-0.100280054
222	0x3e639248	0.2222377
223	0x3dd6f38e	0.10495673
224	0xbcceea43	-0.025258189
225	0x3e44f8e5	0.1923557
226	0x3ce1b784	0.027553327
227	0xbeb57352	-0.35439545
228	0xbdc81a9d	-0.09770701
229	0x3eaefa09	0.34175137
230	0x3e1a5678	0.15072048
231	0xbd8763b4	-0.06610814
232	0xbe5d1c95	-0.21592934
233	0xbd08fce8	-0.033444315
234	0x3d9d5515	0.07682244
235	0xbe93658d	-0.28788415
236	0xbd1cf2b9	-0.038317416
237	0xbe81f9a5	-0.25385776
238	0x3e51a361	0.2047248
239	0x3e26cec0	0.16289806
240	0x3dfa3342	0.12216808
241	0x3bf53140	0.0074826777
242	0x3e1ffe20	0.15624285
243	0xbe4bf961	-0.19919349
244	0xbe3c0530	-0.18361354
245	0xbea45867	-0.32098696
246	0xbd568ca6	-0.052380227
247	0x3dd030bd	0.10165546
248	0xbe0dd896	-0.13852152
249	0xbc076c09	-0.008265504
250	0x3eab6abf	0.33479878
251	0x3e7213ca	0.23640361
252	0x3e462dd2	0.19353417
253	0x3e1eeeb4	0.15520746
254	0x3da5698d	0.08076773
255	0x3eb7de36	0.3591172

static_variable_selection.single_variable_grns.encoder_length.gate_norm.glu.fc.bias f4 [32]
0	0xbbe8410d	-0.007087833
1	0x3d16c55a	0.036809303
2	0x3b266be4	0.0025393898
3	0xbd2fa50e	-0.042882018
4	0xbbbcc62a	-0.0057609277
5	0x3d17fa73	0.03710408
6	0x3d1e74c2	0.038685568
7	0x3c8dfc28	0.017332152
8	0x3cb40fb4	0.021980144
9	0x3d121e77	0.035673585
10	0xbc9612a3	-0.018319434
11	0x3ca1d50e	0.019754913
12	0xbca4ffb6	-0.020141464
13	0xbce20855	-0.027591864
14	0x3c6190de	0.013767449
15	0xbc8f4421	-0.017488541
16	0x3a1f3aac	0.00060741114
17	0xbd28520b	-0.041093867
18	0x3d7f4a89	0.06232694
19	0x3d0f6c61	0.035015468
20	0xbb95f664	-0.004576491
21	0x3c83d12a	0.016090948
22	0xbc6bdfdb	-0.014396633
23	0xbd67909c	-0.056534395
24	0xbcbbec08	-0.022939697
25	0x3ba11c14	0.0049166773
26	0xbd0d89c8	-0.034555227
27	0xbe02b30e	-0.12763616
28	0xbd7e9431	-0.062153045
29	0xbcc44aff	-0.023961542
30	0xbe01aa81	-0.12662698
31	0xb9c6c214	-0.00037910102

static_variable_selection.single_variable_grns.encoder_length.gate_norm.add_norm.norm.weight f4 [16]
0	0x3f7d5a7e	0.98966205
1	0x3f7cbb3f	0.98723215
2	0x3f8218b3	1.0163788
3	0x3f82669f	1.0187567
4	0x3f8119ba	1.0085976
5	0x3f5a4aa8	0.85270166
6	0x3f80fc38	1.0076971
7	0x3f7837e5	0.9696029
8	0x3f762c90	0.96161747
9	0x3f7f386a	0.99695456
10	0x3f7c37f4	0.9852288
11	0x3f74d6dc	0.9564035
12	0x3f7afc1d	0.98040944
13	0x3f6937d8	0.91100836
14	0x3f7652ca	0.96220076
15	0x3f82be62	1.021435

static_variable_selection.single_variable_grns.encoder_length.gate_norm.add_norm.norm.bias f4 [16]
0	0xbc40ed7f	-0.0117753735
1	0x3c03d615	0.008046647
2	0xbb621f42	-0.0034503494
3	0xbc838924	-0.016056605
4	0xbc98364d	-0.01858058
5	0x3d0df38b	0.03465609
6	0x3cae3404	0.021265037
7	0x3ba540cf	0.005043126
8	0xbd21b0c3	-0.039475214
9	0xb7833af2	-1.5643865e-05
10	0xbbf0032d	-0.0073245973
11	0x3ce1963d	0.02753746
12	0xbcab29a8	-0.020893887
13	0xbc9c4e43	-0.019080287
14	0x3bc7a09c	0.006092144
15	0xbcfc89a2	-0.030827347

static_variable_selection.single_variable_grns.views_center.resample_norm.mask f4 [16]
0	0xbcd49dcc	-0.02595415
1	0xbd4c8b76	-0.049937688
2	0x3daad6cb	0.0834175
3	0x3d87bc3c	0.066277
4	0x3d06cc2d	0.03290956
5	0xbcd2adbe	-0.025717612
6	0xbe1eae6e	-0.15496227
7	0xbda3b6fd	-0.079938866
8	0xbaf62a3d	-0.0018780899
9	0xbd329ffd	-0.043609608
10	0xbcd7ad3c	-0.026327722
11	0x3ba3e8bb	0.005002109
12	0x3d7d5bc2	0.061855085
13	0x3dc2cd30	0.09511793
14	0x3d1bd2d7	0.03804287
15	0x3d32f567	0.043691065

static_variable_selection.single_variable_grns.views_center.resample_norm.norm.weight f4 [16]
0	0x3f7c2007	0.9848637
1	0x3f73a770	0.95177364
2	0x3f84454a	1.0333645
3	0x3f87be02	1.0604861
4	0x3f83b934	1.0290895
5	0x3f7a9169	0.9787813
6	0x3f5cc69a	0.8624054
7	0x3f65d19b	0.8977296
8	0x3f809a28	1.0047045
9	0x3f748694	0.9551785
10	0x3f68fead	0.91013604
11	0x3f804e79	1.0023948
12	0x3f8677c7	1.0505303
13	0x3f8b4e0b	1.0883192
14	0x3f876bad	1.0579735
15	0x3f862772	1.0480788

static_variable_selection.single_variable_grns.views_center.resample_norm.norm.bias f4 [16]
0	0x3d4b2239	0.049593184
1	0x3d493ba0	0.04912913
2	0x3b7c502f	0.0038499942
3	0x3ba1dfb4	0.0049399976
4	0xbc880558	-0.01660411
5	0x3c6d5738	0.014486127
6	0xbc182e4c	-0.009288382
7	0x3c4d0c48	0.012515135
8	0xbb8e07d7	-0.0043344307
9	0x3cc5edb8	0.024161205
10	0xbe1a83ba	-0.15089312
11	0xbc344cd7	-0.011004648
12	0xbb4d8cd5	-0.003136446
13	0x3d5e4e52	0.05427391
14	0x3bbaf9da	0.005706054
15	0xbcb7c577	-0.022433026

static_variable_selection.single_variable_grns.views_center.fc1.weight f4 [8, 8]
0	0x3ebc2a07	0.36750814
1	0xbe2ccf65	-0.1687599
2	0x3e1154b5	0.1419247
3	0xbf0616e5	-0.52378684
4	0x3f2f2432	0.68414605
5	0x3e30dc9c	0.17271656
6	0x3dee6d48	0.116419375
7	0xbe8aed25	-0.27134052
8	0xbe9222f7	-0.285423
9	0x3ed6e082	0.4196816
10	0xbf22a084	-0.6352618
11	0xbd337961	-0.043816928
12	0xbea10ea7	-0.3145649
13	0xbc96d7a1	-0.018413367
14	0xbf02f531	-0.5115538
15	0x3ef06610	0.46952868
16	0xbeb08336	-0.34475106
17	0x3e5caafe	0.21549603
18	0x3f0b9d73	0.54537123
19	0x3dd1ae58	0.102383316
20	0xbe54dd37	-0.20787512
21	0xbd5670e9	-0.052353773
22	0xbf0c6d38	-0.54854155
23	0x3ed615b5	0.41813436
24	0x3d839aef	0.064260356
25	0xbe5835ca	-0.21114269
26	0x3e33cb60	0.1755805
27	0x3f30ba06	0.6903385
28	0xbea79b7d	-0.32735816
29	0x3ef2f34d	0.4745125
30	0xbd8d4bac	-0.06899199
31	0xbd9b494a	-0.07582338
32	0x3d934573	0.07190981
33	0x3d9db3e9	0.07700331
34	0xbf294dbb	-0.6613423
35	0xbf2e49c4	-0.6808131
36	0xbda4393d	-0.0801873
37	0xbf31eb03	-0.69499224
38	0x3eeb181b	0.4591683
39	0xbe9e468f	-0.30913207
40	0xbea93d94	-0.33054793
41	0x3d01f40c	0.03172688
42	0xbeb4d735	-0.3532044
43	0x3fbe1af0	1.4851971
44	0x3e110d71	0.14165284
45	0x3f57643d	0.84137326
46	0x3dd26111	0.1027242
47	0xbe997c76	-0.2997777
48	0xbe893f39	-0.26806048
49	0xbe3bfb5a	-0.18357602
50	0x3f09a8fa	0.5377346
51	0xbce2d651	-0.027690085
52	0x3f3d0c16	0.73846567
53	0x3d559f1e	0.0521537
54	0xbcd1edfe	-0.025626179
55	0xbdda3afd	-0.10655782
56	0xbf3509cf	-0.7071809
57	0xbf08ec53	-0.534856
58	0x3ea8e781	0.32989123
59	0xbf41687a	-0.75550044
60	0x3ee05976	0.43818253
61	0x3f26d304	0.65165734
62	0x3f72c68e	0.9483422
63	0x3e86f2cb	0.2635711

static_variable_selection.single_variable_grns.views_center.fc1.bias f4 [8]
0	0xbd60a02d	-0.054840256
1	0xbd98f161	-0.074679144
2	0xba5916e4	-0.0008281304
3	0xbc6db179	-0.014507645
4	0xbbc7da32	-0.006099009
5	0x3d8a426e	0.06750952
6	0xbd86759d	-0.06565402
7	0xbc9b8f9a	-0.018989373

static_variable_selection.single_variable_grns.views_center.fc2.weight f4 [8, 8]
0	0x3f5cf349	0.86308724
1	0x3e1c59f8	0.15268695
2	0x3f3a6a3f	0.7281837
3	0xbbfc5017	-0.007699977
4	0xbd0314a7	-0.032002117
5	0xbda1b4ef	-0.078958385
6	0x3f14efe2	0.5817853
7	0xbdcb2747	-0.09919601
8	0x3e8ab467	0.2709076
9	0x3eef335f	0.4671888
10	0x3e189e1f	0.14904068
11	0x3e92abf3	0.28646812
12	0xbea743e1	-0.32668975
13	0xbe588b1e	-0.21146819
14	0x3f1cd698	0.61264944
15	0xbeb88676	-0.36040086
16	0x3e985592	0.29752785
17	0x3f0016ff	0.5003509
18	0xbf8db63e	-1.1071241
19	0x3fc064af	1.5030726
20	0xbf3a8531	-0.72859484
21	0x3dad9dc4	0.08477357
22	0x3eeeb315	0.46621004
23	0x3cb97d14	0.02264265
24	0x3f30087a	0.68762934
25	0xbe899fd6	-0.26879758
26	0x3eda2529	0.42606476
27	0x3ec0c12d	0.3764738
28	0x3f6fff7e	0.93749225
29	0xbde97b05	-0.11400417
30	0x3f18a10f	0.59620756
31	0xbc70a713	-0.014688271
32	0xbe85a966	-0.26105803
33	0x3f0a4d46	0.5402416
34	0xbf2a0aab	-0.6642253
35	0xbe87098f	-0.2637448
36	0x3f7dc5bb	0.9912984
37	0xbe84ef8a	-0.25964004
38	0x3dc7bee5	0.09753207
39	0x3f145d9f	0.57955354
40	0x3e70c138	0.23511207
41	0x3f2bce02	0.6711122
42	0xbdaa169e	-0.08305095
43	0xbf40468a	-0.75107634
44	0xbf2e5769	-0.6810213
45	0xbe6d1062	-0.23150781
46	0xbf6efb0a	-0.93351805
47	0x3e6470b9	0.22308625
48	0x3da5b5f8	0.080913484
49	0xbde2e57e	-0.110789284
50	0x3d317a4e	0.04332953
51	0x3e89d6a1	0.2692156
52	0x3e9e1630	0.30876303
53	0xbf248ace	-0.642743
54	0xbdffc21a	-0.12488194
55	0xbd94d868	-0.07267839
56	0xbd66690e	-0.05625253
57	0x3f209626	0.6272911
58	0x3da39391	0.079871304
59	0xbee8a58d	-0.45438805
60	0x3c10ff48	0.008849926
61	0xbf073f42	-0.528309
62	0x3e41b085	0.18914993
63	0x3e9f5c7a	0.31125242

static_variable_selection.single_variable_grns.views_center.fc2.bias f4 [8]
0	0xbd8a0eac	-0.0674108
1	0xbd7901da	-0.06079278
2	0xbbe808e0	-0.007081136
3	0x3ca378f4	0.019955136
4	0xbd47af55	-0.048751194
5	0x3cda031b	0.026612809
6	0xbd1fba89	-0.038996253
7	0xbd3c4bbb	-0.04597066

static_variable_selection.single_variable_grns.views_center.gate_norm.glu.fc.weight f4 [32, 8]
0	0x3e71239f	0.23548745
1	0xbe821eec	-0.25414217
2	0x3da442ec	0.08020577
3	0x3def8d06	0.1169682
4	0xbe976223	-0.2956706
5	0xbe650f62	-0.2236915
6	0xbed8b583	-0.42325982
7	0x3e563eea	0.20922437
8	0xbd9992a3	-0.07498672
9	0x3e7eec4d	0.24894829
10	0x3d451244	0.048113123
11	0xbe270ffa	-0.16314688
12	0xbe68e4f9	-0.22743596
13	0x3d81bc06	0.06334691
14	0xbd2bc749	-0.0419381
15	0xbe15045f	-0.14552449
16	0x3e32b5ad	0.17452116
17	0x3e2b2115	0.16711839
18	0x3d8dd840	0.06926012
19	0x3de5c050	0.11218321
20	0x3e121643	0.14266305
21	0xbd89a14c	-0.06720218
22	0x3e97076f	0.2949786
23	0x3d8d9dd8	0.06914872
24	0xbe9da5de	-0.3079061
25	0x3e49d6be	0.19710824
26	0xbe7a7200	-0.2445755
27	0x3e58fde9	0.21190609
28	0x3ea7b6c9	0.32756642
29	0xbe9a220d	-0.30104104
30	0x3ca68d2e	0.020330992
31	0xbde24378	-0.11048025
32	0x3eca04c0	0.3945675
33	0x3e15dfdf	0.14636181
34	0xbd9f2484	-0.07770637
35	0x3ec6c03f	0.38818547
36	0xbd1516e7	-0.036398795
37	0x3d4957d1	0.049156014
38	0xbeae8d12	-0.34092003
39	0x3d924eba	0.07143922
40	0x3e4260dc	0.18982261
41	0x3e531ddf	0.20616864
42	0x3eda7256	0.42665356
43	0xbe26d63d	-0.16292663
44	0xbda6259b	-0.081126414
45	0x3eaf4282	0.3423043
46	0x3ea4147f	0.32046887
47	0x3e990a0e	0.29890484
48	0xbe8db63d	-0.276781
49	0x3e5eb320	0.21748018
50	0x3e97da9c	0.29658973
51	0x3d0cdf55	0.034392674
52	0x3ebe2bd4	0.37142813
53	0xbcd20fed	-0.02564236
54	0x3da7734e	0.081762895
55	0xbbb17db8	-0.005416598
56	0xbe210866	-0.1572586
57	0xbead464d	-0.33842698
58	0xbe135832	-0.14389113
59	0xbeb5b427	-0.35489008
60	0x3ed22f86	0.41051883
61	0x3cf64d00	0.030066013
62	0xbc6eacdf	-0.014567583
63	0x3eb32361	0.3498793
64	0x3e45472c	0.19265431
65	0xbe872759	-0.26397207
66	0x3d91a34f	0.07111227
67	0xbe766603	-0.24062352
68	0xbdb55e5f	-0.088558905
69	0x3e723008	0.23651135
70	0x3cbb1047	0.02283491
71	0x3ea71c67	0.32638857
72	0x3e82d2cd	0.25551453
73	0xbe7b556e	-0.24544308
74	0xbebf129d	-0.37318888
75	0xbe2c865f	-0.16848134
76	0xbe49b654	-0.19698459
77	0x3e22ec6b	0.15910499
78	0x3dc99024	0.09841946
79	0x3e7759b1	0.24155308
80	0x3ea2f19b	0.31824955
81	0x3ed26f8d	0.41100731
82	0x3e33fde9	0.17577328
83	0xbe1400bf	-0.1445341
84	0x3eab0800	0.3340454
85	0x3e87f106	0.26551074
86	0x3ee5dc70	0.44894743
87	0x3e80b815	0.25140443
88	0x3ebd3301	0.36952975
89	0x3e3d389f	0.1847863
90	0xbdac4780	-0.08412075
91	0x3df3d123	0.11905124
92	0xbeb33c77	-0.3500707
93	0xbe3e5f82	-0.18591121
94	0xbe2111e5	-0.15729482
95	0x3e682bd0	0.22672963
96	0x3d0a66bd	0.033789385
97	0x3e781c18	0.24229467
98	0xbe75ffcf	-0.24023364
99	0xbe003440	-0.12519932
100	0xbe696120	-0.22790956
101	0x3e9e903e	0.30969423
102	0xbe59f373	-0.21284275
103	0xbd065c66	-0.03280296
104	0x3e321972	0.17392519
105	0x3e361536	0.17781529
106	0xbe73e013	-0.23815946
107	0x3ec6eb53	0.38851413
108	0xbe82138f	-0.25405547
109	0xbecad01c	-0.396119
110	0xbe76f3cd	-0.2411644
111	0xbdf8b471	-0.121437915
112	0x3d94acd4	0.07259527
113	0xbe3f8a75	-0.18705161
114	0x3c96e067	0.01841755
115	0x3eb81ab3	0.3595787
116	0xbd14555b	-0.036214214
117	0x3e790a63	0.24320368
118	0x3b9dad38	0.004811909
119	0x3e94aebb	0.2903956
120	0xbe985684	-0.29753506
121	0x3d623c13	0.055233072
122	0x395249e2	0.00020054684
123	0xbea40c9c	-0.3204087
124	0x3e91d8b1	0.28485635
125	0x3e894d60	0.26816845
126	0xbd955b24	-0.07292774
127	0x3d85c991	0.06532586
128	0xbeb1c00a	-0.34716827
129	0x3dff7798	0.124739826
130	0x3e9795aa	0.29606372
131	0x3e30e3d6	0.17274413
132	0x3a78c590	0.00094898883
133	0x3e29eb96	0.16593775
134	0x3e7f7ab6	0.24949154
135	0x3e84714b	0.25867686
136	0xbe9e9d18	-0.30979228
137	0xbe30401c	-0.17211956
138	0x3d9d5ca8	0.076836884
139	0xbde5388a	-0.111924246
140	0xbead4c49	-0.33847263
141	0x3e9c61a7	0.30543253
142	0xbe3827a4	-0.17983872
143	0x3d9109a9	0.07081921
144	0xbeb13a28	-0.34614682
145	0xbe09864a	-0.13430133
146	0x3e19d0b0	0.15021014
147	0x3ea70a71	0.32625154
148	0x3dc0fdbb	0.09423395
149	0xbde20467	-0.11035996
150	0xbe255d7b	-0.16148941
151	0xbe56be0e	-0.20970938
152	0xbde5b584	-0.11216262
153	0x3e576c32	0.21037367
154	0x3e7c7fb7	0.24658094
155	0xbdba993f	-0.091112606
156	0x3ea3373b	0.31878075
157	0x3e9dc506	0.3081438
158	0xbd8f3903	-0.06993296
159	0x3ec3ba3b	0.3822802
160	0x3ccecf47	0.025245322
161	0x3dc6fae0	0.09715819
162	0x3e2067c5	0.15664585
163	0xbd87a85f	-0.06623911
164	0xbdf0d16b	-0.11758693
165	0x3e5c2a30	0.21500468
166	0xbe9a2f86	-0.30114383
167	0xbe99eba0	-0.3006258
168	0x3e71fdbc	0.23631948
169	0x3eb6cda1	0.35703757
170	0xbdf7ecaf	-0.12105691
171	0xbe6747bc	-0.22585958
172	0xbd8ab02b	-0.067718826
173	0xbe23a5d0	-0.15981221
174	0xbdad85bd	-0.08472774
175	0x3e2bcd55	0.16777547
176	0xbdd71341	-0.10501719
177	0x3eaa839a	0.3330353
178	0xbebaa4a2	-0.3645373
179	0x3e043872	0.12912157
180	0xbec1bdfd	-0.37840262
181	0x3c2e8b15	0.010653277
182	0xbdb59891	-0.0886699
183	0xbdf4e230	-0.11957204
184	0xbe67e2cd	-0.22645111
185	0x3d497934	0.049187854
186	0x3e9186eb	0.28423247
187	0xbeaf2605	-0.34208694
188	0xbeb97d67	-0.36228487
189	0xbe885641	-0.26628307
190	0xbe957345	-0.29189506
191	0xbe891392	-0.26772743
192	0x3e93fc2e	0.28903335
193	0xbe2189eb	-0.15775268
194	0xbe8d76a2	-0.27629572
195	0xbeb82fa1	-0.35973838
196	0x3e95216a	0.29127055
197	0x3e0fcd1e	0.1404309
198	0x3daf6a07	0.08565145
199	0x3e12141b	0.14265482
200	0xbed65947	-0.41864988
201	0x3ddbb5db	0.107280456
202	0x3d188bb3	0.037242603
203	0x3d67a125	0.056550164
204	0x3ec50589	0.38480785
205	0x3ec800b9	0.3906305
206	0xbc8b881f	-0.017032681
207	0xbeb498c3	-0.35272798
208	0x3a423792	0.00074087933
209	0xbe3f2920	-0.18668032
210	0x3c5c009b	0.013427879
211	0xbd038219	-0.032106493
212	0xbdcea8f6	-0.100908205
213	0xbd8f44d3	-0.06995549
214	0x3ec82027	0.3908703
215	0x3e06c5c7	0.13161384
216	0x3e18e2cc	0.14930266
217	0x3e367ce7	0.17821084
218	0xbead5eb1	-0.33861306
219	0xbe265357	-0.16242729
220	0x3d6abec1	0.057310823
221	0x3dd5092f	0.10402142
222	0x3e61cef0	0.22051597
223	0x3db9b6f4	0.09068099
224	0xbe6b076c	-0.2295205
225	0x3ec7b8a8	0.3900807
226	0xbe19fe0d	-0.15038319
227	0xbe849632	-0.2589584
228	0xbc58c2b0	-0.013230011
229	0xbe6258d8	-0.22104204
230	0x3d97c3f9	0.07410426
231	0xbe730cbe	-0.2373533
232	0x3c71d93c	0.014761265
233	0xbdb3a111	-0.08770955
234	0xbe73fca0	-0.23826838
235	0x3e78e0e0	0.24304533
236	0xbe0b13f0	-0.13581824
237	0x3dead97b	0.11467262
238	0x3e459d7b	0.19298355
239	0x3d373018	0.0447236
240	0x3de0ce79	0.109768815
241	0xbda733c2	-0.08164169
242	0x3de92106	0.11383252
243	0x3d7a3e5d	0.06109463
244	0x3ecea7e4	0.40362465
245	0xbe49cc94	-0.19706947
246	0x3e3b5a32	0.18296126
247	0x3ee2d023	0.4429942
248	0x3e1b13bf	0.15144251
249	0xbdedeeba	-0.11617799
250	0x3e4a975f	0.19784306
251	0x3ea4cca2	0.32187372
252	0x3d6b1d75	0.05740114
253	0x3c930f27	0.017951561
254	0xbe205974	-0.15659124
255	0xbd94a540	-0.072580814

static_variable_selection.single_variable_grns.views_center.gate_norm.glu.fc.bias f4 [32]
0	0x3d84ed40	0.06490564
1	0x3d5a773b	0.053336363
2	0x3ae103a4	0.0017167223
3	0x3b2cb190	0.0026350953
4	0xbb8ba8ee	-0.0042620813
5	0x3c057a5c	0.0081468485
6	0xbd077eba	-0.03307984
7	0xbb6ae6d9	-0.0035843162
8	0xbaa883ff	-0.0012856721
9	0x3d09fad7	0.033686485
10	0xbe1446be	-0.14480111
11	0xbcbf26e8	-0.023333982
12	0xbb948545	-0.0045324885
13	0x3d6dc09a	0.058045007
14	0x3cabe533	0.020983314
15	0xbce0b61c	-0.027430587
16	0xbd7a0ba9	-0.061046276
17	0x3d1d5b40	0.0384171
18	0xbcaf5cae	-0.021406498
19	0xbdbeb70e	-0.09312259
20	0x3c45ac5c	0.012065019
21	0xbbeacabe	-0.007165282
22	0x3d374a6f	0.04474872
23	0x3d84fa90	0.064931035
24	0xbc036986	-0.008020764
25	0xbda0485d	-0.07826302
26	0xba8973e9	-0.0010486814
27	0xba292d6d	-0.00064536073
28	0xbe442e2e	-0.19158241
29	0x3d5b384f	0.053520497
30	0xbdebed62	-0.115198866
31	0x3b8179ed	0.0039513023

static_variable_selection.single_variable_grns.views_center.gate_norm.add_norm.norm.weight f4 [16]
0	0x3f828fe5	1.0200163
1	0x3f7c33ef	0.98516744
2	0x3f82fc52	1.0233252
3	0x3f8504ed	1.0392128
4	0x3f83faab	1.0310873
5	0x3f81887b	1.0119776
6	0x3f63586f	0.88806814
7	0x3f79d964	0.97597337
8	0x3f861c04	1.04773
9	0x3f7519b4	0.95742345
10	0x3f7342de	0.95023906
11	0x3f859509	1.0436107
12	0x3f856435	1.0421206
13	0x3f881fcb	1.0634702
14	0x3f817737	1.0114506
15	0x3f82a98c	1.0207992

static_variable_selection.single_variable_grns.views_center.gate_norm.add_norm.norm.bias f4 [16]
0	0x3a0c5dcd	0.00053545536
1	0x3cd1122e	0.025521364
2	0x3c589a76	0.01322042
3	0xbb8fc740	-0.004387766
4	0xbc3a6b0a	-0.011378059
5	0xbbc0590b	-0.0058699897
6	0xbd15e4d5	-0.036595184
7	0xbc97dd04	-0.018538006
8	0xbd147b29	-0.036250267
9	0x3c25fd5b	0.010131205
10	0xbde28c0f	-0.1106187
11	0x3c6e15c7	0.014531559
12	0x3c347d9a	0.011016274
13	0x3d15a4a8	0.03653398
14	0x3c75413a	0.0149691645
15	0xbc5bac5d	-0.013407794

static_variable_selection.single_variable_grns.views_scale.resample_norm.mask f4 [16]
0	0x3cb97fd5	0.022643963
1	0xbd58afa3	-0.052901875
2	0xbdb9fdba	-0.090815976
3	0x3d22cc94	0.039745882
4	0xbc6d2459	-0.014473998
5	0x3de641ac	0.11242995
6	0x3c98929a	0.018624593
7	0xbd4128b4	-0.04715796
8	0xbc9a35bb	-0.018824449
9	0x3d188d00	0.037243843
10	0xbd2bd2b0	-0.041948974
11	0xbb8b1ccf	-0.0042453776
12	0x3d5cbca2	0.05389083
13	0x3d9fb90a	0.07798965
14	0xbd5cfc7a	-0.053951718
15	0xbd0afe1a	-0.033933736

static_variable_selection.single_variable_grns.views_scale.resample_norm.norm.weight f4 [16]
0	0x3f7cd28d	0.98758775
1	0x3f6e9a59	0.93204266
2	0x3f6b2b41	0.91862875
3	0x3f806903	1.0032047
4	0x3f84096f	1.0315379
5	0x3f896bee	1.0736063
6	0x3f7da218	0.9907546
7	0x3f6dc8a4	0.9288428
8	0x3f79ff8d	0.97655565
9	0x3f82e1c1	1.0225145
10	0x3f7c2c3e	0.9850501
11	0x3f6a6af9	0.9156948
12	0x3f8552ef	1.0415934
13	0x3f835208	1.0259409
14	0x3f7eb5c0	0.9949608
15	0x3f7c5779	0.9857097

static_variable_selection.single_variable_grns.views_scale.resample_norm.norm.bias f4 [16]
0	0xbd87bbdf	-0.066276304
1	0xbd91ed75	-0.071253695
2	0x3c384794	0.011247534
3	0xbcfd806f	-0.030945031
4	0xbb876390	-0.004131742
5	0xbd1c7111	-0.038193766
6	0x3c38207c	0.011238214
7	0x3cffbe3a	0.031218637
8	0x3c7b13a7	0.01532451
9	0xbd1c38af	-0.038139995
10	0x3d95f6d1	0.07322467
11	0xbd3c9f6d	-0.046050478
12	0x3d0bff13	0.034178805
13	0xbd28e2a4	-0.041231766
14	0x3d65dc30	0.05611819
15	0x3daac87e	0.08339022

static_variable_selection.single_variable_grns.views_scale.fc1.weight f4 [8, 8]
0	0xbeef494d	-0.46735612
1	0xbe7f39bd	-0.24924369
2	0xbdd3ce2b	-0.10342058
3	0x3e6eed35	0.23332675
4	0xbe673e6d	-0.22582407
5	0x3e5df2d4	0.21674663
6	0x3dfd7e2b	0.1237758
7	0x3d8d5da0	0.06902623
8	0x3f14c03f	0.58105844
9	0xbe657963	-0.22409587
10	0xbeaa4dc3	-0.33262452
11	0xbe1e0f46	-0.15435514
12	0xbd5ccd0f	-0.053906497
13	0xbe23cecd	-0.15996857
14	0xbe3a48b2	-0.18191794
15	0xbec98137	-0.39356396
16	0xbf13a2ed	-0.5767048
17	0x3f8c0c90	1.0941334
18	0x3c15b8a1	0.009138257
19	0xbf7c8c77	-0.9865183
20	0xbd92d8d9	-0.07170267
21	0x3ead5072	0.33850437
22	0x3f65ea69	0.89810807
23	0x3f1cfc8a	0.61322844
24	0x3f0ceb4f	0.5504655
25	0x3dd9eae4	0.10640505
26	0xbe2ca01e	-0.16857955
27	0x3e7047ac	0.2346484
28	0x3f06cd8f	0.5265741
29	0x3e9bb4e9	0.3041146
30	0x3e14ce9a	0.14531937
31	0xbea074d9	-0.31339148
32	0x3e58be2c	0.21166295
33	0x3f0d513c	0.5520208
34	0xbfa6923f	-1.3013381
35	0x3dd9861a	0.10621281
36	0x3e7d1a67	0.24717103
37	0xbe1debf0	-0.15422034
38	0x3eee94c3	0.4659787
39	0xbf5c927f	-0.86161035
40	0xbe8b2ef3	-0.27184257
41	0x3ec8890c	0.39167058
42	0x3fa9cff8	1.3266592
43	0xbed8ab29	-0.42318085
44	0xbe09733e	-0.13422868
45	0x3e59a335	0.21253665
46	0x3e03ff1a	0.12890282
47	0xbe9ed9a6	-0.31025428
48	0x3d8ab074	0.06771937
49	0xbf432c0e	-0.762391
50	0xbe7118c0	-0.23544598
51	0xbeba5e17	-0.3639991
52	0xbe57b4a8	-0.21065009
53	0x3d49736e	0.049182348
54	0xbf1a0c52	-0.6017505
55	0x3ed3c339	0.4135988
56	0xbe96a951	-0.29426053
57	0xbe9806dc	-0.29692733
58	0x3e84da2d	0.25947705
59	0x3e90c739	0.28276995
60	0x3f829851	1.0202733
61	0xbf4e863d	-0.8067358
62	0x3c288c9a	0.010287428
63	0xbedcae45	-0.43101707

static_variable_selection.single_variable_grns.views_scale.fc1.bias f4 [8]
0	0x3ce67482	0.028131727
1	0xbcf638ec	-0.03005644
2	0xbbce843a	-0.0063023837
3	0xbb34745e	-0.002753518
4	0xbd82014b	-0.06347903
5	0x3c95dc45	0.01829351
6	0x3d0a7aa5	0.03380837
7	0x3d5282dd	0.051394332
