Transformer/hidden16_oneMonth/epoch=0.ckpt (torch, 403265 bytes, 766 tensors)

input_embeddings.embeddings.article.weight f4 [102, 8]
00000000: 24d7 87bf 06d6 98bf 2b07 053f 22e8 a63d
00000010: 246d 233f 2c6c 9e3f 88d5 8b3f 47d3 b03e
00000020: 8f2d 873e 7ab5 903f cc16 59bd 9ad4 cb3d
00000030: bfcb 0abf 2a79 103f 4f92 cabf d007 3e3d
00000040: e947 393e 8634 513f f842 b1be 60a8 e6be
00000050: 303d b2bf 087d 8e3f 7f47 733f b629 383f
00000060: be5d bcba 9ac9 96bf 6418 153f 9630 44be
00000070: 50ef d4be 28a4 d03e b104 0bbf 9a9e 353f
00000080: 1bc1 f6bf 8e01 cbbf fa6c 14bf 26d9 7b3f
00000090: d2f7 c0bf 4248 2d3f e4f0 653e ef7f 6abf
000000a0: 9387 833f 9abb de3f 1786 53bf be4d 763d
000000b0: d262 733f 7983 49be 6f0f 5ebf 9476 dd3d
000000c0: 7c81 61bf 5470 963f f462 ab3e 9bb9 443f
000000d0: 968a a73d 5824 b33f b7af 4a3f 72ba fc3e
000000e0: e3b1 a5bf 2dee 8c3f 181d b3bd 1004 19bf
000000f0: 062f 6d3f a6da ccbe da01 0e3e 5ad7 773e
00000100: 6a6a 4340 1e7c 193f 88ad 81be 8a99 ad3e
00000110: 56ab f0be 15bd e8bd dae5 2fbf 084d 03bf
00000120: 95ff bfbf 31e8 e1be 0238 343f 0700 ed3e
00000130: 34e8 1c3f 8627 933f 87fe e13b d190 da3e
00000140: 0c52 5e3f d607 afbd db5b 80bf 76d5 93be
00000150: bb6c 65bf 681b 8b3d 9cc8 0ac0 d085 843e
00000160: c6c2 7b3f 0ecc 72be 9ae3 5a3e 662d 82bf
00000170: c616 70bf 64dc 6c3f c066 cb3f 75f0 15bd
00000180: 0d66 523e c837 fdbe 8247 d7be 8dac 19bd
00000190: b021 b13f bd87 aa3f 0436 5fbc e8d3 2ebe
000001a0: ddc2 64bf 46f0 8f3f 64ce 13bf 9a7b a23f
000001b0: a64c ffbf ec5c 89bf 7665 5fbf 4268 02c0
000001c0: 23e9 c73f b052 ac3d 41c7 eb3e f72c 9e3e
000001d0: 7c56 b5bf 7c3f bc3f 8805 473f ad1e 5abe
000001e0: 20c7 763f 1502 d3be f8f1 a13e d803 563f
000001f0: f004 c0bf ab0f 383d 845f 0abf 44ac e13f
00000200: f4a5 773f 9603 b93e 9e6a 1340 3a9e 233f
00000210: 3e38 dfbf c89a c43e f1c6 f93f 12d6 b43f
00000220: 4811 773f 5b68 273f 2acc 95bf 69f6 403f
00000230: b667 21c0 0ab0 193f b20a 0dc0 f6c9 1fbd
00000240: d456 e03f 62e7 a23f 4a6d fa3e ccba b23f
00000250: 0a47 a0bd adf7 c0bf b20e 293e aed0 37bf
00000260: 7cd6 b23e 59f4 e6be 6ada 093e 8abd 3f3f
00000270: 4542 36bf 577f 243f 5eb4 f33e 6eb1 a63e
00000280: c08b 9dbc 3ac1 813e c5a8 903f 2ce3 20be
00000290: 9ccf 31bf f60b 82bf 8084 3c3f 581a e83f
000002a0: 7156 003c 5209 babf 4b41 56bf 2b47 43bf
000002b0: 20e3 aa3e 3414 d23e 87f8 c5bf 22c4 92bf
000002c0: 7f72 d5bf 3aec 483e 1489 35bf 38a4 f8be
000002d0: 2aeb 633f 5305 fd3e 5211 503f 98ae 963e
000002e0: 6031 92bf 0bc5 6c3f 9549 b93e ecbe debf
000002f0: 1282 4f3e 5632 813f 6228 ff3e 0204 ebbe
00000300: fcf8 40be d859 d2be 306c 0a3f 35e8 e6bf
00000310: 4896 93bd 924c dd3f e021 2b3f de03 c5bd
00000320: ce9e c93d 2927 913f b3bf 673f bea6 69bf
00000330: 5d0d 67be c350 3f3d 4441 8cbf 2501 bb3f
00000340: 4c62 40bf c444 2b3d 0868 1cbf 5ca5 40bf
00000350: f4d3 023e dd4e 2d3f 6c49 18bf ccce 9d3e
00000360: 56a4 3fbf 6cc1 a6be 0054 983f c045 043f
00000370: 8276 58bf ae1d 0f3e 9eb4 a23d 8fe8 86bd
00000380: ca41 683f 1c6a 94be 210d 833e c849 093d
00000390: bee3 ccbf e894 87bf b670 12bf 70c1 903f
000003a0: f4df ac3f 4ddf 23bf de6c 0940 92e9 86be
000003b0: eb1d 5bbf d6af dfbe 68ae 18bf 3cc3 fdbd
000003c0: 32b3 a1bf f827 e53e a8b9 9ebf 1449 b3bf
000003d0: 8e3f 003e 2fed 7d3f f48f 06bf 72bf bb3d
000003e0: bc44 b03e f956 903f 6aa7 b4bd 34e5 183e
000003f0: c1ae 9a3f 3e47 5ebf 6aa8 b73e 01cc 72bf
-1.0612531 -1.1940315 0.5196406 0.081497446 0.6383841 1.2376761 1.092454 0.34536192
0.26401946 1.1305382 -0.053000256 0.0995266 -0.5421714 0.5643488 -1.58259 0.04639417
0.18093838 0.8172077 -0.34621406 -0.45050335 -1.3924923 1.1131907 0.9503097 0.71938646
-0.0014371199 -1.1780274 0.5824034 -0.19159159 -0.4158883 0.4075024 -0.54304034 0.7094513
-1.9277681 -1.585985 -0.57978785 0.9837822 -1.5075629 0.6768838 0.22455174 -0.9160146
1.0275749 1.7401001 -0.8262648 0.060132734 0.9507266 -0.19679059 -0.867423 0.108136326
-0.880882 1.175303 0.33473933 0.7684571 0.0818073 1.3995466 0.7917437 0.49360996
-1.2944912 1.1010185 -0.087457836 -0.59771824 0.9264988 -0.40010566 0.13867894 0.24203244
3.05337 0.5995501 -0.25327706 0.33906204 -0.4700572 -0.113641895 -0.687101 -0.51289415
-1.4999872 -0.4412246 0.7039796 0.46289083 0.61291814 1.1496437 0.006896797 0.4268861
0.86843944 -0.085464165 -1.0028032 -0.28873795 -0.89619035 0.06792337 -2.1684942 0.2588334
0.98344076 -0.23710653 0.21375886 -1.0170105 -0.9378475 0.9252379 1.5890732 -0.03660627
0.20546742 -0.4945662 -0.42046744 -0.037518073 1.3838406 1.3322674 -0.013623718 -0.17073023
-0.8935984 1.1245201 -0.577368 1.269397 -1.9945266 -1.0731483 -0.8726419 -2.0376134
1.5618023 0.08414209 0.46050456 0.3089368 -1.4167018 1.4706874 0.77742815 -0.21300764
0.9639759 -0.41212526 0.3162992 0.83599615 -1.5001507 0.044936817 -0.54051995 1.7630696
0.967376 0.36135548 2.3033824 0.6391331 -1.7439039 0.3839934 1.9513837 1.4127829
0.96510744 0.6539361 -1.1702931 0.7537599 -2.521955 0.6003424 -2.2037778 -0.039010964
1.7526498 1.2726862 0.48911506 1.3963256 -0.078260496 -1.5075585 0.16509512 -0.71802795
0.34929264 -0.45108297 0.13462225 0.7489859 -0.7119487 0.64256805 0.47598547 0.32557243
-0.019231677 0.25342733 1.1301504 -0.15711659 -0.6945741 -1.01599 0.7363968 1.813304
0.007833109 -1.4534094 -0.8369338 -0.7628047 0.33376408 0.4103104 -1.546647 -1.1466105
-1.6675566 0.19621363 -0.7091229 -0.4856279 0.89030707 0.49418125 0.8127643 0.2943008
-1.1421318 0.92488164 0.3618895 -1.7402015 0.20264462 1.0093486 0.49835497 -0.45901495
-0.1884498 -0.4108417 0.5407133 -1.8039614 -0.07206398 1.7288992 0.66848564 -0.09619878
0.09844743 1.1340076 0.90526885 -0.91270053 -0.22563691 0.04670788 -1.0957417 1.4609724
-0.7514999 0.041813627 -0.6109624 -0.7525232 0.12776166 0.6769846 -0.5948703 0.30821836
-0.7486013 -0.32569444 1.1900635 0.5166893 -0.8455583 0.13976166 0.07944606 -0.06587326
0.90725386 -0.28987205 0.25595954 0.03351763 -1.6007001 -1.0592318 -0.57203233 1.1309032
1.3505845 -0.64012605 2.1472697 -0.26350075 -0.85592526 -0.4368884 -0.5964112 -0.123907536
-1.2632811 0.44757056 -1.2400408 -1.4006677 0.12524244 0.9919004 -0.52563405 0.09167375
0.3442744 1.1276542 -0.08820994 0.14931184 1.2084581 -0.86827457 0.35870677 -0.94842535

prescalers.encoder_length.weight f4 [8, 1]
00000000: b07c 26bf d665 323e d4d7 423f 0c44 b83e
00000010: 5aac d5be 320e 413f a8e8 be3e ff01 613f
-0.6503401 0.1742166 0.7611058 0.35989416 -0.41733056 0.75412285 0.37286878 0.8789367

prescalers.encoder_length.bias f4 [8]
00000000: f6e5 7c3f 10bb a8bd 9247 2abf fdda 063f
00000010: ecf6 a03e 890b 313f 80e9 e4be 6a9c 393f
0.9878839 -0.08238804 -0.6651546 0.526779 0.31438386 0.69158226 -0.44709396 0.72504294

prescalers.views_center.weight f4 [8, 1]
00000000: 5e2a 4abf 3e8f 4f3f f3de 29bf 2a49 38bf
00000010: d28e 423f 6c13 433f 16af 78bf 4ae5 33bf
-0.789709 0.81077945 -0.6635582 -0.7198664 0.75999177 0.7620151 -0.9714216 -0.7027174

prescalers.views_center.bias f4 [8]
00000000: 681a 5b3e c334 6cbf 8cd0 01be f059 11bf
00000010: 52fb 3d3f ee7d 50bf c612 4fbe 1a71 84be
0.21396792 -0.9226801 -0.1267721 -0.5677786 0.7421161 -0.81442153 -0.20222005 -0.2586754

prescalers.views_scale.weight f4 [8, 1]
00000000: 55ef 29bf d827 23bd b652 3f3f f090 1cbf
00000010: 31d0 593f 5c5c 2bbf 84e6 ecbe cfbe ebbe
-0.66380817 -0.03983292 0.7473558 -0.6115866 0.850833 -0.66937804 -0.4626962 -0.46044013

prescalers.views_scale.bias f4 [8]
00000000: 94e5 0fbf af75 6b3f e917 11bf ce03 58bf
00000010: 2d7f 253f cb6c 5d3f d828 d1be b61c a33e
-0.56209683 0.91976446 -0.5667711 -0.84380805 0.6464718 0.8649413 -0.40851474 0.31857842

prescalers.log_views.weight f4 [8, 1]
00000000: da18 423f a694 1cbb 588f fd3e 8c7f dfbe
00000010: 48bd b83e a606 1bbf b6cd 0bbd 7bda 7bbf
0.7581917 -0.0023892312 0.49523425 -0.43651998 0.3608191 -0.6055702 -0.034131728 -0.9838025

prescalers.log_views.bias f4 [8]
00000000: 3aee c23e 77ee 4e3e ca1d c4be 2629 623f
00000010: f893 10bf 9040 4c3f f97e 28bf 299f 28bf
0.38072377 0.20208155 -0.38303977 0.8834404 -0.5647578 0.79786015 -0.65818745 -0.6586786

prescalers.relative_time_idx.weight f4 [8, 1]
00000000: f76b 1abe 09ba 20bf 823e 44bf f06e 7a3f
00000010: c064 583f d053 50bf 4410 163d ccf0 0bbf
-0.15080248 -0.6278387 -0.7665788 0.9782553 0.8452873 -0.8137789 0.036636606 -0.546643

prescalers.relative_time_idx.bias f4 [8]
00000000: 88f2 ccbd 361f 4fbf 5e60 683f 42ef d7be
00000010: 44c4 68bd 38fc 6f3f 6436 513f d6c3 663f
-0.10007197 -0.80907 0.90772045 -0.42174727 -0.0568278 0.9374423 0.8172362 0.9014257

static_variable_selection.flattened_grn.resample_norm.mask f4 [4]
00000000: d0bc 273c 3d25 09bc e317 083c d863 1bbc
0.0102378875 -0.008370695 0.008306476 -0.009484254

static_variable_selection.flattened_grn.resample_norm.norm.weight f4 [4]
00000000: d21f 813f a0da 7d3f da18 813f d82c 7d3f
1.0087836 0.9916172 1.0085709 0.9889655

static_variable_selection.flattened_grn.resample_norm.norm.bias f4 [4]
00000000: cac5 023c 46a7 38bc 1100 3c3c 326c 6eba
0.007981727 -0.01127035 0.011474625 -0.0009095102

static_variable_selection.flattened_grn.fc1.weight f4 [4, 32]
00000000: e0e6 903e c43a 9cbe 2bed 033e 80b6 483d
00000010: 1fa2 49be 46c9 93bd a8f4 83be b090 103e
00000020: 16e5 6fbe 42e3 863b 869c 93bd 8459 edbc
00000030: 4cc1 b03d 0bf9 42bd ec9e af3c 1ca4 f7bd
00000040: ab8a e6be 69a4 3dbd 46e5 763e 305f 11be
00000050: fd0d bc3a 65e9 d53c 0404 973e 43f2 6c3e
00000060: 1c3b a73e 97e9 9b3e 0845 83be 56e9 a53c
00000070: f440 edbd 90fa 1d3f de19 0a3e 12fb a2be
00000080: a834 0a3e 4c95 31be 1a61 233e eed3 fc3d
00000090: 2455 b73d fe9f 92be dca0 6bbe 729d 7c3e
000000a0: 9898 403f 6e96 013e 82ea 3b3c 50b2 dd3d
000000b0: 796b 32bf 2afe 8f3d d277 8bbe 7a6c d0bd
000000c0: 5fc9 7ebe 1e7a 9dbd 7e67 583e 8cf8 383e
000000d0: 7600 b6bc 02bb 2a3d a7da 64bd 35d9 ae3d
000000e0: de2b 94be 54ef fe3c 4295 a5be 7fcd a8bd
000000f0: 1142 8cbe fcc7 9f3e a25a a93d b8eb 033e
00000100: 9eeb f23d 690b 55be 7c84 583d 95c5 5b3e
00000110: 449a 323d 2c49 b6bc bc2e a13e 8edc dcbd
00000120: 528c b7be 5c60 de3d e050 b4bd 82ea c73e
00000130: 96c4 533d 0e2b 2b3d 0ad4 a8bd e80a ee3d
00000140: 6688 9c3c 1c23 8f3d e812 8bbe 649d 6ebd
00000150: ccf8 093e 1e94 573e 5206 c2be ec69 e7be
00000160: 7c1c 20bd b200 8cbe e23e 9cbe 9eef 043e
00000170: a47f 903d 1620 87be c42c 0a3d e63c 563e
00000180: e600 3bbe a266 583c b808 85bc 4f5f 66bc
00000190: caa0 dfbd ea26 5b3e c4e9 c3be 1c3f 20be
000001a0: 781c 2bbe 8a13 c7be 0155 1d3e de8b 1c3c
000001b0: ec35 7ebc b2bf 9d3e 28a4 583d 80ee 5e3d
000001c0: b9af 7fbd d654 3c3d d3bb 603e 5d0a 173d
000001d0: 4872 043e c4cc 5f3e 1831 8a3e 65ff 2a3d
000001e0: 71f7 633e bfd1 4cbe 1c7d c3bd 0392 3abf
000001f0: 2163 9e3e 56ff f0bd 6837 aa3e 5a99 24bf
0.28301144 -0.30513585 0.12883441 0.04900217 -0.1969075 -0.07216124 -0.25772595 0.14117694
-0.23427233 0.0041164467 -0.07207589 -0.028973348 0.086306185 -0.047600787 0.021438085 -0.12091848
-0.4502767 -0.046299372 0.24110898 -0.14196467 0.001434743 0.026112268 0.2949525 0.2313929
0.32662284 0.30451652 -0.25638604 0.020252865 -0.115846545 0.61710453 0.1348643 -0.31832176
0.1349665 -0.17342108 0.1595501 0.1234511 0.08951786 -0.2863769 -0.23010582 0.24669436
0.7523284 0.1265504 0.011469485 0.10825026 -0.6969524 0.070309 -0.27239853 -0.1017694
-0.24881504 -0.07689308 0.21133229 0.18063563 -0.022217017 0.04168225 -0.055872586 0.08537523
-0.28939718 0.03111998 -0.32340437 -0.0824232 -0.27394155 0.31207263 0.0826924 0.12882888
0.11861347 -0.20805134 0.052860722 0.2146209 0.04360415 -0.022251688 0.31480968 -0.10784255
-0.35849243 0.10858223 -0.08804488 0.39046103 0.05170115 0.041789107 -0.08243568 0.11623174
0.019108009 0.069891185 -0.27162862 -0.05825557 0.13473815 0.21052596 -0.37895447 -0.45198
-0.039089665 -0.2734428 -0.30516726 0.12982032 0.070555955 -0.26391667 0.033734098 0.20921668
-0.18262061 0.013208063 -0.016239509 -0.014060809 -0.1091934 0.21401563 -0.38264287 -0.15649074
-0.16710079 -0.38882095 0.15364458 0.009554831 -0.015515786 0.30810314 0.052890927 0.05442667
-0.06242344 0.045979343 0.21946649 0.036875118 0.1293422 0.21855456 0.2699058 0.04174747
0.2226236 -0.20001887 -0.09545347 -0.72879046 0.30935004 -0.117674515 0.33245397 -0.64296496

static_variable_selection.flattened_grn.fc1.bias f4 [4]
00000000: d149 993b 165a 2abb 42b7 023c 0e23 f5bb
0.004677989 -0.0025993637 0.007978262 -0.0074809855

static_variable_selection.flattened_grn.fc2.weight f4 [4, 4]
00000000: f67e 8abe b614 aabf e2f9 d4be a0dd 8a3d
00000010: a8da 893d f7a8 e8be 6eb6 163f ac72 09bf
00000020: 28d8 da3b 54f5 3ebf 8439 b5bf 4443 6d3e
00000030: c028 203f d6e3 983d 04a0 45bd cbd6 143f
-0.27049989 -1.328757 -0.41596895 0.06780553 0.067311585 -0.4544141 0.58872116 -0.536906
0.0066786 -0.7459309 -1.4158177 0.23170191 0.6256218 0.07465331 -0.048248306 0.5814025

static_variable_selection.flattened_grn.fc2.bias f4 [4]
00000000: 4cfc a23a 80a3 ee39 0e2d c8bb 390f efbb
0.001243481 0.00045516714 -0.0061088866 -0.007295516

static_variable_selection.flattened_grn.gate_norm.glu.fc.weight f4 [8, 4]
00000000: 766f 353e 242a 1b3f b818 ed3e 76a1 103f
00000010: c472 8cbe a08e 08be 454a ab3e 9b2b 2c3f
00000020: 7c54 a1be b064 35bf 3cde 03bf 05a2 8bbe
00000030: 0614 f2bd 1919 f6be 4745 0cbf cae8 dfbe
00000040: 5cc4 a83e a3b2 24bf ac04 09be bdf3 40be
00000050: b92a a8be 78a3 8e3e 2a86 283e eb01 30bf
00000060: 8a57 a83e da5c d33d 72e4 223f 84a0 273f
00000070: 7a48 9d3e f27a 03bf fa59 3fbd c2d7 0cbe
0.177183 0.60611176 0.4630792 0.5649637 -0.2743131 -0.13335657 0.334551 0.67254037
-0.3150977 -0.7085676 -0.5151098 -0.2727205 -0.118202254 -0.48066023 -0.5479321 -0.4373229
0.3296231 -0.6433508 -0.13380688 -0.18842979 -0.32845095 0.27859092 0.1645743 -0.68752927
0.32879287 0.103204444 0.6362983 0.654793 0.30719358 -0.51359475 -0.046716668 -0.1375418

static_variable_selection.flattened_grn.gate_norm.glu.fc.bias f4 [8]
00000000: 76c6 d73b e084 26bc baf1 213c 8495 c1b8
00000010: 6705 77bb e0cb 9a3b 593c fb3b a82a abb8
0.0065849377 -0.010163516 0.009884292 -9.2308066e-05 -0.003769243 0.004724011 0.007667106 -8.161861e-05

static_variable_selection.flattened_grn.gate_norm.add_norm.norm.weight f4 [4]
00000000: 92f9 803f 83aa 7e3f 6f4a 813f 66bc 7d3f
1.0076163 0.9947893 1.010084 0.991156

static_variable_selection.flattened_grn.gate_norm.add_norm.norm.bias f4 [4]
00000000: a732 183c 15e7 36bc 387d 423c dc06 9fbb
0.00928942 -0.011163493 0.011870675 -0.0048531126

static_variable_selection.single_variable_grns.article.mask f4 [8]
00000000: 6892 8ebb 36c2 053b b880 1a3b 589c 433b
00000010: f24d 753b a3d7 dc3a f4bc c7bb 4642 05bb
-0.004350949 0.0020409948 0.0023575258 0.0029847827 0.0037430492 0.0016848933 -0.006095523 -0.0020333692

static_variable_selection.single_variable_grns.article.norm.weight f4 [8]
00000000: fe58 803f 617b 803f b998 803f 14f7 803f
00000010: cc8d 803f fae8 803f 8cf3 7d3f bb1c 803f
1.0027158 1.0037652 1.0046607 1.0075402 1.0043273 1.0071099 0.9919975 1.0008768

static_variable_selection.single_variable_grns.article.norm.bias f4 [8]
00000000: fe30 fbbb e4c4 853a 0e9f 3c3c f21f 33bc
00000010: 1145 333c c0ce 2ebc b100 3a3c a955 013c
-0.0076657524 0.0010205773 0.011512531 -0.010932909 0.01094176 -0.01066941 0.011352704 0.007893958

static_variable_selection.single_variable_grns.encoder_length.fc1.weight f4 [8, 8]
00000000: 3e77 193d 9236 163d e078 563e 6669 fabe
00000010: 2e04 253e 9732 3abe c49d 1c3e 4d68 73bf
00000020: 5281 473f c663 ecbe c285 12bf c679 01bf
00000030: 134e 26bf 6e17 a3bd 9822 cfbc 2e64 d23e
00000040: 4082 533e e080 8cbe eb50 6b3e 3f63 20bf
00000050: bf9d aabe ece3 443f 67c6 edbe 00be 24bf
00000060: eac7 49bd 545f 8e3c 161b afbe 4c39 823d
00000070: 66fb ce3e 1d95 903e a42b 76bf 2491 973e
00000080: 7a0a 10be 7e6e a63e 8813 53be e863 52be
00000090: 2cff eabd 077d 14bf b08c d03e f61e 73be
000000a0: 545c 93be b043 71be 4e51 11be 3c21 45bf
000000b0: 2060 27bf aca6 45be c7be 403e 6244 a8be
000000c0: 6c25 403f f554 883e 30a5 953f e085 9f3f
000000d0: 6263 3ebf 983b b93e 0e90 4abb 5e6b 1dbe
000000e0: 3a9e b43d e443 fd3e f403 c0be d2da 24bf
000000f0: e9f3 2d3f 4cf8 adbe 103a f23e 8c9c abbd
0.037467234 0.036673136 0.20944548 -0.48908538 0.16114876 -0.18183361 0.15294558 -0.95081025
0.779317 -0.4616987 -0.5723535 -0.50576437 -0.6496288 -0.07963453 -0.02528505 0.41092056
0.20655155 -0.27442074 0.22980087 -0.6265144 -0.33323476 0.7691028 -0.4644043 -0.64352417
-0.04926292 0.01737944 -0.34200352 0.06358585 0.40426177 0.28238764 -0.9616034 0.2960292
-0.14066496 0.32506174 -0.2061292 -0.20545924 -0.114744514 -0.58003277 0.40732336 -0.2374228
-0.28781378 -0.23560977 -0.14191172 -0.77003837 -0.6538105 -0.19301862 0.18822776 -0.32864672
0.750571 0.26627317 1.1691036 1.246273 -0.74370396 0.3617828 -0.0030908617 -0.15372989
0.08819242 0.4946586 -0.37503016 -0.64396393 0.679503 -0.33978498 0.47309923 -0.08379468

static_variable_selection.single_variable_grns.encoder_length.fc1.bias f4 [8]
00000000: dac9 0fbb 2206 3c3c a9df 99bb 746b d6bb
00000010: 1c59 df3b 3832 123c 9057 3d3c 12b0 c83a
-0.0021940381 0.011476072 -0.004695852 -0.006543571 0.0068160426 0.008923106 0.011556521 0.0015311262

static_variable_selection.single_variable_grns.encoder_length.fc2.weight f4 [8, 8]
00000000: 2ca4 583e c082 41bd 78cc 293f 5c40 37bd
00000010: 8af6 513f 0dde 7f3f 7141 8e3e 60fd 9c3f
00000020: 7a74 4a3f b4ff 83bf e02b 34bf 5af8 a2bd
00000030: cc8a bfbe 341f 0e3f 8d38 083f b735 2ebf
00000040: daa1 4bbe 222c 18bf 0823 21be 1ee8 9ebc
00000050: 608c 22be 4e03 3b3e a889 603e 004d 01be
00000060: 545f 423d 2611 95be c2d7 55be 87f1 74bf
00000070: 76c0 b0be 3a3f c7be e6d0 41be 7401 cabd
00000080: 841b 07be efbe b23e 24b1 3fbf 93e3 22bf
00000090: 6233 833f 3263 85be 7d53 39be ef10 6f3f
000000a0: 9440 17bd 0f00 84bd e401 ff3c 28f6 b6bf
000000b0: 6e83 45bf ee71 00be 8089 dabe d6f9 73bf
000000c0: 8a95 aa3e 8b16 bcbf dc07 79be e6d6 4a3e
000000d0: c239 b83d 7eaf 8cbf ea83 90bf 7611 343e
000000e0: ab44 6abe 96d4 b43e 1ca5 e1be 3049 91be
000000f0: 6683 1fbf 4a97 56bf 9988 7a3e 3b35 e2bd
0.21156377 -0.047243834 0.6632762 -0.044739112 0.82016814 0.999482 0.27784303 1.2264824
0.7908398 -1.0312409 -0.7037945 -0.079575256 -0.3741058 0.5551636 0.5321129 -0.6805071
-0.1988596 -0.5944234 -0.1573602 -0.019397791 -0.15873861 0.1826298 0.21927512 -0.1262703
0.047454193 -0.29114646 -0.20883086 -0.9568104 -0.34521836 -0.38915426 -0.18927345 -0.098635584
-0.1319409 0.34911296 -0.7487967 -0.636285 1.0250056 -0.26052243 -0.18098255 0.93385214
-0.03692682 -0.06445324 0.031128831 -1.4293871 -0.7715367 -0.1254346 -0.4268303 -0.95303094
0.33317214 -1.469438 -0.24319404 0.1980854 0.089953914 -1.0991056 -1.1290257 0.17584786
-0.22877757 0.3531844 -0.4407128 -0.2837615 -0.62309873 -0.838246 0.2446617 -0.11045309

static_variable_selection.single_variable_grns.encoder_length.fc2.bias f4 [8]
00000000: f8a5 6fba 8f88 d93b 8e27 a43b 43e4 39bc
00000010: b162 2b3c 167b 133c 0701 40bc 06a0 0bbc
-0.0009141858 0.0066385935 0.005009598 -0.011345926 0.010460542 0.009001514 -0.011718995 -0.008522039

static_variable_selection.single_variable_grns.encoder_length.gate_norm.glu.fc.weight f4 [16, 8]
00000000: f7a5 6d3c 3418 0bbe 1958 79bb b8b9 823e
00000010: 14fb 1ebe 3ce0 87be 6427 77be b42f 5e3e
00000020: 90b4 ecbe 8273 523e d671 d3be dbbb 033d
00000030: b600 d83e 300c b6be c3a8 9b3e 7eba 623d
00000040: e6e1 adbd 2848 2d3e 6cf6 c33d f3a4 99be
00000050: 3c9c e53e 58ee 7a3d 8e05 8dbe b9c0 da3e
00000060: 42c5 ad3c a2a3 ce3d bd74 873d b272 d2be
00000070: 6790 86be c551 dabe a5cf a13d 64d7 aebc
00000080: 2f4a 7ebe 2793 9ebe 461e e6be 8caa 00bf
00000090: c2c5 dd3d fe35 5fbb aa25 ddbe f12c bdbe
000000a0: 2be3 ec3e 16dc 2c3e a318 7c3e 3afc b33e
000000b0: 8ad3 943c 5994 8f3e eb27 e1bd 6640 c43e
000000c0: cac6 b93e 724d 443e 7008 da3e ce0c 98be
000000d0: c8f5 17be dea5 2e3e f2c2 cbbe 1ae9 7b3d
000000e0: 4fac 573e 00e6 ba3e e276 d33e 3c77 59be
000000f0: 0855 8b39 b4a2 d43e 3b59 dbbe 5c97 ee3e
00000100: 0a34 85be eaec 4c3e 96ee 93bd d22c aebe
00000110: 858d a1be 6831 a1be 2ae2 f43e 52fe 2a3e
00000120: 35ba 523e 1c97 00be 14c1 f0be b3fc e53e
00000130: 0237 a73e 50b1 2abc 801e fb3e 1ed7 213d
00000140: 9570 0dbe e20b 4a3d 584b d5be aee3 febe
00000150: ba15 103d ce99 e7be 741a 84be 2161 e0be
00000160: 777c dd3d d51b ad3e be6b 973c 0ba1 c03e
00000170: 45ed 04bd badd 41be 949b 663e 19fd dd3e
00000180: e54b aa3e a22c ccbe ac66 49be 8731 bf3e
00000190: fb7e fd3e 8588 adbe e9ca 8ebe 9fe6 923e
000001a0: effa cebe 411a cb3e 49d8 f7be 84a6 c43e
000001b0: a888 e63e acac f9be 20eb ad3e d480 bb3d
000001c0: 662e a5be aa36 983e 506a d73e d2bb 4fbe
000001d0: 90f7 d33c f4c3 cabe 99b3 443e 96c7 483d
000001e0: 26cd f43e b472 adbe d881 2bbe 8b4e ad3e
000001f0: 9a4a d43e 53a7 89be faa2 bdbe ae4d ae3d
0.014504901 -0.13583452 -0.0038046895 0.25532317 -0.15525466 -0.26538265 -0.2413612 0.21697885
-0.46231508 0.20551875 -0.41297787 0.032161575 0.42188042 -0.35556173 0.30402192 0.055353634
-0.08490352 0.16922057 0.095684856 -0.3000866 0.4484576 0.06126246 -0.275433 0.4272516
0.021212224 0.10089804 0.06614063 -0.4110313 -0.26282045 -0.4264051 0.07900933 -0.02134294
-0.24832986 -0.30971643 -0.44944972 -0.50260234 0.10828735 -0.0034059281 -0.43192798 -0.3694835
0.46267065 0.16880831 0.24618773 0.3515337 0.018167276 0.28042868 -0.10993942 0.38330382
0.36284477 0.19170168 0.42584562 -0.2969727 -0.14839852 0.17055461 -0.3979717 0.0615016
0.21061824 0.365036 0.41301638 -0.2123689 0.000265755 0.41530383 -0.42841515 0.46599853
-0.26016265 0.2001225 -0.07223241 -0.3401857 -0.31553283 -0.31483006 0.478288 0.16698578
0.20578845 -0.12557644 -0.47022307 0.44919357 0.32659155 -0.010418251 0.49046707 0.039511792
-0.13812478 0.04932774 -0.41659045 -0.4978308 0.03517697 -0.4523453 -0.25801432 -0.43824103
0.108147554 0.33810297 0.018483993 0.37622866 -0.03245284 -0.18932238 0.22520286 0.4335716
0.33261028 -0.39877802 -0.19668072 0.37342474 0.4951094 -0.3389322 -0.27889183 0.28691575
-0.40425822 0.39668468 -0.484072 0.3840829 0.45026135 -0.4876455 0.3396845 0.091554314
-0.32261962 0.29729205 0.42073298 -0.20286492 0.025874883 -0.39602625 0.19209136 0.049018465
0.47812766 -0.33876574 -0.1674875 0.33848986 0.41463166 -0.2688547 -0.37038404 0.0851091

static_variable_selection.single_variable_grns.encoder_length.gate_norm.glu.fc.bias f4 [16]
00000000: 60dd 32bc 812e 87bb 2ec3 343c 6651 15bc
00000010: 1789 9a3b 0ed5 30bc 1855 283c 408c 1e3c
00000020: 1afa 01bc e657 8d3a 2902 0f3c 4876 ebbb
00000030: e83d 3e3b e768 c13b 5091 003c 1e74 193c
-0.010917038 -0.0041254167 0.011032863 -0.009113645 0.0047160494 -0.010792984 0.010274194 0.009676993
-0.007933164 0.0010783642 0.008728542 -0.007185731 0.0029028598 0.005902398 0.007847145 0.009366063

static_variable_selection.single_variable_grns.encoder_length.gate_norm.add_norm.norm.weight f4 [8]
00000000: 6972 7e3f 40a3 803f 988e 7d3f ca2c 7d3f
00000010: 465b 7d3f b256 7d3f 5c0e 7d3f 2e7c 813f
0.99393326 1.004982 0.99045706 0.9889647 0.989674 0.9896041 0.98850036 1.0116022

static_variable_selection.single_variable_grns.encoder_length.gate_norm.add_norm.norm.bias f4 [8]
00000000: 9c55 22bc f711 76bb 0a1b 443c 2c01 2fbc
00000010: 6796 2e3c 94e8 3dbc 4311 483c 0c7b 303c
-0.009908106 -0.003754733 0.011969337 -0.010681432 0.010655976 -0.0115910955 0.012211147 0.010771524

static_variable_selection.single_variable_grns.views_center.fc1.weight f4 [8, 8]
00000000: 8e6b 563d bc73 e2be 8852 413f e9a4 503f
00000010: 620b 043e 955b 6fbe 42da 6f3e 118c 843f
00000020: d6de 243f 090e 0f3d e5b3 a2be dc9a 06bf
00000030: 810a e9bd baec 7ebd fe1d c93d 9fa6 013e
00000040: 2925 9cbd 0df4 953e 82a0 8dbd b477 5e3e
00000050: 62a9 10be 4602 cf3e 46a3 873e 3874 5a3e
00000060: b84b 55bf 9a6d bcbe dffb 12be 8cd5 003f
00000070: d8c9 313f 1aa9 eb3e f47d 9c3d b52b 003e
00000080: 9e9a 2c3e dc0d 043f 6e54 093f f2db 053e
00000090: 86c9 44be a05f 8a3e 205f 953d 44cd a4be
000000a0: fd1f 483a f871 1cbf aa34 c13e a6f8 aa3e
000000b0: 88af 43bf 5cf4 f3bd 2465 8cbe 56e9 413e
000000c0: d270 6ebe 0c3c 0cbe 97df 81bf c4d0 febe
000000d0: e024 55bf 80bc 30bf d6da 493e 9ea6 2b3f
000000e0: bede 85bd 1284 b93d 7df7 233e 2ffc 5abf
000000f0: 1153 0b3e 965e 14be c86c ed3d 126c 9dbe
0.052348666 -0.44228923 0.7551656 0.8150163 0.12894967 -0.2337478 0.23423102 1.0355245
0.6440252 0.034925494 -0.31777874 -0.52580047 -0.113789566 -0.06223748 0.09820174 0.12661217
-0.07624275 0.29287758 -0.0691538 0.2172535 -0.14127114 0.40431422 0.26491755 0.21333396
-0.8331866 -0.3680237 -0.14353894 0.50325847 0.69448614 0.46027452 0.07641211 0.12516673
0.16855857 0.5158365 0.53644454 0.13072184 -0.192175 0.2702608 0.07293534 -0.32187855
0.0007634161 -0.611114 0.37735492 0.3339283 -0.76439714 -0.11911842 -0.27420914 0.18936667
-0.23285225 -0.13694781 -1.0146359 -0.4976865 -0.8325939 -0.6903763 0.19712386 0.6705111
-0.06536625 0.090583935 0.16012378 -0.8554105 0.13605906 -0.14489207 0.11593014 -0.30746514

static_variable_selection.single_variable_grns.views_center.fc1.bias f4 [8]
00000000: 933b a0b9 00cd 093c 533e 6e3b 59e9 ebbb
00000010: 4e11 623b 6682 6f3b a521 033c f45d f23a
-0.00030561964 0.008410692 0.0036353066 -0.007199448 0.0034495178 0.003654623 0.008003627 0.0018491135

static_variable_selection.single_variable_grns.views_center.fc2.weight f4 [8, 8]
00000000: 209d 843d a276 0b3f 846d 233f d2b6 44bf
00000010: f065 adbe 209c 7a3f f2f9 e73e a04b 1a3d
00000020: 98bd 0ebf 1a55 193e b292 29bf bcff 503f
00000030: d163 74bd b87c fc3e 5298 73bf d650 0f3e
00000040: 5689 18bf 7af0 d2bd 3c68 97bd 7a55 97bd
00000050: 54b6 b1bd 9843 383d f96a 8bbe 16f2 bdbe
00000060: 351e 613f a68b 5bbf a03d 2e3e 801e 86be
00000070: c1a5 363e 348e 093e 20a0 d3be 6d23 3abf
00000080: 8ce9 3cbf 52b4 a0be aa80 133f 5cdb 4abf
00000090: fef8 b1be 59c5 a5be e25c 713e 9445 133e
000000a0: 1725 3dbe c285 b1bc d444 47bf c534 893b
000000b0: b9e3 1cbe 2c63 6cbf 1707 313e ffce aa3c
000000c0: 8e40 dabe e601 3dbf eddf 1dbb 08b8 fb3e
000000d0: 222b b5bc 6a4c 6abe 565f 933e eadf 6bbe
000000e0: 4eaf 473e a779 d03e 8488 ac3e 4ce5 c3be
000000f0: fe7e 27be 2731 01bf a666 bc3d 48bd 383e
0.06475282 0.54477894 0.6383898 -0.7684146 -0.33866835 0.9789448 0.4530788 0.037669778
-0.5575805 0.1497387 -0.66239464 0.8164022 -0.059665505 0.49313903 -0.951543 0.1399568
-0.5958456 -0.102997735 -0.07392928 -0.0738935 -0.086773545 0.044986337 -0.2723005 -0.3709876
0.8793672 -0.8575996 0.17015696 -0.26195145 0.17836668 0.13433152 -0.41333103 -0.72710305
-0.73793864 -0.31387573 0.576182 -0.79240966 -0.34760278 -0.32377127 0.23570588 0.1438201
-0.1847118 -0.021670226 -0.778394 0.004187199 -0.15321244 -0.92338824 0.17287861 0.020850657
-0.42627376 -0.7383102 -0.002408977 0.49163842 -0.022115294 -0.22880712 0.28783673 -0.23034635
0.19500467 0.40717813 0.33697903 -0.38260877 -0.16357037 -0.50465626 0.09199266 0.18040955

static_variable_selection.single_variable_grns.views_center.fc2.bias f4 [8]
00000000: e4dc 5dbb 9267 29bc 8a3b 2d3c d8ed 24bc
00000010: d9a4 9bbb bf5a 08bc 1bf3 18bc 5c3e 2bbc
-0.0033853585 -0.0103396345 0.010573277 -0.010066472 -0.004749876 -0.008322417 -0.009335305 -0.010451879

static_variable_selection.single_variable_grns.views_center.gate_norm.glu.fc.weight f4 [16, 8]
00000000: 92b2 433e a176 a43b 1c08 483e a09b dc3e
00000010: 1cb1 ff3e cc58 cebe d052 f8bd bd77 7e3e
00000020: c474 f83e 69ef 6f3e 4600 d53e ce0f e33e
00000030: 2cfd 77be 4e95 513b 5493 efbe 32f0 14bd
00000040: ea24 8abe beeb a0be cc63 3e3e 7053 8c3e
00000050: f1a5 bc3e 8b33 c6be 0454 f3bd f43f b2be
00000060: 2428 f23c 3ef1 ef3d e8f9 a1be f615 d13e
00000070: 3f3f e43e abbd d73b f68e 1b3c fc76 a53e
00000080: 7c43 d5be 76bf 0a3e d19b 783e 56ed d1be
00000090: e0ce 5f3d 46d0 9d3d 2ba1 143e 46e0 cabd
000000a0: 0a40 c9bc 8eea a93e 6005 bcbe aa92 3a3d
000000b0: e365 a23e 1aa6 9dbc 2a45 de3e 0d0a e63d
000000c0: 3c60 8b3e bafd cfbe dd96 12be 87aa 1cbe
000000d0: ac0b df3e 58cd 56be fd83 c3be 9925 00be
000000e0: 7b15 133e d010 96be 649b 31bd bee0 59be
000000f0: caeb 8dbe 88e7 c13e 55d2 46bd feae 97be
00000100: ec35 40be 826e 2cbe e62c bc3e c0c0 7f3d
00000110: ea69 edbe 201f c6bd 3cfd a9bd 8c8d 05be
00000120: 6e3a 823e c45b c33e a2fa 173e 69a8 c93d
00000130: 980a 963e 3053 46be cb09 6cbe aa72 af3e
00000140: 48ac f5be 2eec 3d3e bbd7 55be dc57 f33e
00000150: c4da bcbe a92e 4a3e cfb7 443e 6274 313e
00000160: c16e 24bd 088c c93e 2249 c63e d023 d63d
00000170: f685 ee3e f074 32bd 1ad3 d13e ec07 3cbe
00000180: e179 d03d da35 d93e 1242 d83e a00f 6cbe
00000190: 4b6d cf3e 63cd 4cbd fe02 5f3d ff42 cf3e
000001a0: 0b08 fcbe 8af2 943e 1524 26be 1f34 d63e
000001b0: 8439 e6bd 3ec5 e83e a446 3c3c 61fb d53e
000001c0: 0844 efbe de79 b93e 59e4 f63e 7243 9b3e
000001d0: 3f38 b93e a522 2e3e da04 e13d 9c32 ae3e
000001e0: 00cb 69be 0f05 763e c0d2 f7be e052 533e
000001f0: a18f ac3e c2fd ebbd 1612 bb3d 1e4c dbbc
0.19111088 0.0050190245 0.19534343 0.43087482 0.4993981 -0.40302122 -0.1212517 0.24850364
0.48526585 0.23431171 0.4160177 0.44347996 -0.24217671 0.0031979862 -0.4679209 -0.03636188
-0.26981288 -0.31429857 0.18592757 0.27407408 0.36845353 -0.387112 -0.11881259 -0.34814417
0.029560156 0.11715935 -0.31635976 0.40837067 0.44579503 0.0065838895 0.009494534 0.3231734
-0.4165305 0.13549599 0.24278189 -0.41001385 0.05464065 0.07705741 0.14514606 -0.09906058
-0.024566669 0.33186764 -0.3672285 0.045550026 0.31718358 -0.019244242 0.43412143 0.11232386
0.27221859 -0.40623266 -0.14315362 -0.15299426 0.43563592 -0.2097677 -0.38186637 -0.12514342
0.14363663 -0.29309702 -0.043361083 -0.21277139 -0.27718955 0.37871957 -0.048540432 -0.29625696
-0.1877057 -0.1683903 0.36753005 0.06243968 -0.4636987 -0.096739054 -0.08300254 -0.13042277
0.25435203 0.3815595 0.14841703 0.09846575 0.29304957 -0.19367671 -0.2305061 0.3426717
-0.47983003 0.18547127 -0.20883076 0.4752797 -0.36885655 0.19744362 0.19210742 0.17329553
-0.040144686 0.39364648 0.3872767 0.104560494 0.4658658 -0.04356855 0.4098137 -0.18362397
0.101794966 0.42423898 0.42237908 -0.23052835 0.4051307 -0.05000056 0.054446213 0.404808
-0.49224886 0.29091293 -0.16224702 0.4183664 -0.11241439 0.45462984 0.011491451 0.4179335
-0.4673159 0.3622579 0.4822109 0.30324894 0.36175725 0.17005403 0.109872535 0.34022987
-0.22831345 0.24025367 -0.48402977 0.20637083 0.3370333 -0.1152301 0.09134309 -0.026769694

static_variable_selection.single_variable_grns.views_center.gate_norm.glu.fc.bias f4 [16]
00000000: e62b 1dbc bc4d 21ba 2ee3 2e3c ba43 17bc
00000010: ba66 0f3c e8ba 2abc 0490 273c c3b7 a73b
00000020: 784b 133c 571b dc3a 161b 06bc 2956 813b
00000030: 6ceb ec3b 8fbc 9ebb ee36 bbbb 304a cc3a
-0.009592986 -0.0006153246 0.010674281 -0.009232456 0.008752519 -0.0104205385 0.010227207 0.0051183417
0.008990161 0.0016792816 -0.008185169 0.0039470387 0.007230213 -0.0048442553 -0.0057133352 0.0015586074

static_variable_selection.single_variable_grns.views_center.gate_norm.add_norm.norm.weight f4 [8]
00000000: 5c27 813f 2618 7f3f 822b 7d3f ac48 813f
00000010: 349e 813f 62b9 7d3f f00a 7d3f 30ca 7f3f
1.0090137 0.9964622 0.9889451 1.0100303 1.0126405 0.99110997 0.98844814 0.9991789

static_variable_selection.single_variable_grns.views_center.gate_norm.add_norm.norm.bias f4 [8]
00000000: 7d06 31bc 5fd8 a2ba cafc 473c fe92 30bc
00000010: 3690 453c 9ff4 3bbc 647d 453c 2d25 113c
-0.01080477 -0.0012424103 0.012206266 -0.010777233 0.012058308 -0.011471896 0.012053821 0.008858961

static_variable_selection.single_variable_grns.views_scale.fc1.weight f4 [8, 8]
00000000: 969d 1abe f264 ed3d 8c54 68be 4c7b 82bd
00000010: 6713 143f 3e0a ec3e 6678 8fbe a6a5 d53e
00000020: 8cd8 26be 246c f5be 68a7 96bc 36d7 113f
00000030: 7ce7 b9be 7c07 5cbe c280 d23d f25a 0abd
00000040: e85b 48bf b210 cc3e 75a9 183f c68c a5be
00000050: 74c9 6e3f d659 cbbc 18e1 0c3f 8ae9 753f
00000060: bea8 60be b32d 643f ec98 cbbd 6ec8 103f
00000070: be81 67be 9d80 9ebf 8f0d b9bd 6b6a ff3e
00000080: 08cf 133f 6249 11be f658 f0be 368d 233e
00000090: 43ab e8be 0ff2 673f da5c d93e 1482 a1be
000000a0: 34f2 ea3c ee78 163e 501f a9bd 77fd 643f
000000b0: 90c2 5dbe 601b 50bf e01e 713f a868 b23e
000000c0: 1873 90be ccf2 9cbe 0949 d43c 1ee2 f7bd
000000d0: bae1 cfbe 4c16 2e3f 5149 663d 4070 453f
000000e0: ea75 653e 08d7 ab3e 9aed 36bf d40a 3dbf
000000f0: b04e 213e 1cd0 f6bd 92cf 883e f1d8 13be
-0.15099177 0.115915194 -0.22688502 -0.06371173 0.57842106 0.46101564 -0.28021544 0.41727942
-0.16293544 -0.47934067 -0.018390372 0.5696901 -0.3630942 -0.2148723 0.10278465 -0.03377814
-0.7826524 0.39856488 0.5963357 -0.32333964 0.93276143 -0.02482311 0.55030966 0.9605948
-0.2193937 0.8913223 -0.09941277 0.5655583 -0.22608086 -1.2383 -0.09035789 0.49885878
0.5773778 -0.1418815 -0.46942872 0.15971836 -0.45443162 0.9060373 0.42453653 -0.31544554
0.028679945 0.14694569 -0.082579255 0.89449257 -0.21656251 -0.8129177 0.94187737 0.3484547
-0.2821281 -0.3065399 0.025913732 -0.12103675 -0.40601903 0.6800277 0.056222264 0.77124405
0.22408262 0.33562493 -0.714563 -0.7384465 0.15752673 -0.120514125 0.26720864 -0.14438225

static_variable_selection.single_variable_grns.views_scale.fc1.bias f4 [8]
00000000: 5c64 7f3b fd6b 243b 0416 19bc a8c6 d1bb
00000010: 40da 013b 4ba3 ac3a c52f 8839 b093 b2b8
0.003896973 0.002508878 -0.009343628 -0.0064018555 0.0019813925 0.0013171224 0.00025975532 -8.51521e-05

static_variable_selection.single_variable_grns.views_scale.fc2.weight f4 [8, 8]
00000000: fa4a 503d 98ba 62be c7dd 773f a13b 1e3d
00000010: 4c52 193e 99fd 42be df9f dcbe 542e 89bf
00000020: a623 013e f4bc 58bd 404f 2dbe d821 06bf
00000030: 5689 46bf b33b 1b3f c87c 163f cf65 c8bd
00000040: 0257 53bf 8a04 603f 6462 39be f199 253f
00000050: 759b f53e 1639 75bf f822 523e 7e83 c5be
00000060: 86ea 743f 1f28 c5be c6ed 433f 4478 1f3f
00000070: bd84 223f 9686 48bf 3fe2 d0bd 564c 47bf
00000080: cd1d 45bf 48b2 66be 8250 8f3f dbb5 d2bd
00000090: 5b0b 5e3e 5e5e 673f eecc a5be 32bd 98bd
000000a0: 3bb0 ccbe 97a1 5f3f 2c78 03bf 6a34 8ebe
000000b0: 763a bc3e 1c52 de3e a330 e03d 63ac 95bf
000000c0: a42a 833f bcd5 633f f8da 33bf b99d 43bf
000000d0: 5b42 dabe 2973 0b3d 5c4b 583e 2965 cdbe
000000e0: fcff 7cbf 8ffb f93e 0efb 0b3e 0aae c43e
000000f0: 9377 233f b6cd 893e 0f9b 863f fbb7 1cbf
0.050852753 -0.22141492 0.9682278 0.038631085 0.149728 -0.19042052 -0.43090722 -1.0717263
0.12611255 -0.052914575 -0.16924763 -0.5239539 -0.7755331 0.6063797 0.5878415 -0.097850434
-0.8255464 0.87506926 -0.1810394 0.6468802 0.47970167 -0.9579023 0.20521152 -0.38576883
0.95670354 -0.38507172 0.7653469 0.62292886 0.6348379 -0.7833036 -0.10199403 -0.77850854
-0.769986 -0.22528946 1.1196444 -0.102885924 0.2168402 0.9037837 -0.3238291 -0.07457961
-0.39978203 0.8735594 -0.5135524 -0.27774364 0.36763352 0.4342202 0.10946777 -1.1693233
1.0247388 0.8899801 -0.70255995 -0.7641254 -0.4262875 0.034045372 0.21122497 -0.40116242
-0.988281 0.48824736 0.13669989 0.3841403 0.6385433 0.26914757 1.051607 -0.6121823

static_variable_selection.single_variable_grns.views_scale.fc2.bias f4 [8]
00000000: 6237 98bb 065a bcbb 422a 02bc 80eb acb7
00000010: 7d06 f7ba 50cf 8b3b 6cf3 b73b 5ca7 6b3b
-0.004645274 -0.0057480363 -0.007944645 -2.0613661e-05 -0.0018846538 0.004266657 0.005613735 0.0035957908

static_variable_selection.single_variable_grns.views_scale.gate_norm.glu.fc.weight f4 [16, 8]
00000000: d88e e8bd 9192 1ebd 9dcb d43e 6736 d5bd
00000010: 66dd 533e 0e9b a1be 5e7f 393b c0df bbbe
00000020: d4a9 0e3e 31d6 94ba 4215 8ebd 2000 99bd
00000030: c920 063e 15a0 733e defb 403e 179a cf3e
00000040: 706d 59be 1a4b 51be 3ec0 ddbe b806 673e
00000050: b0e6 b0be 34bb ec3e 47ae e73e babf 8dbe
00000060: 128f 9b3e 80e2 cd3e cf12 c0bd 5d48 ca3e
00000070: d218 adbe b061 513e 7e33 aebe 6ce6 68be
00000080: 7226 f43e 6a76 97be a632 49be 084f bcbe
00000090: 0ec5 743e 05e1 06bd 2282 a9be 9873 91be
000000a0: 3c11 363e 16fe 783d 106f e13c 6a62 94be
000000b0: e6ca f73e 50b6 5abe 7033 91be 0e89 b83e
000000c0: f43d 63be e253 76be 687e 02bf ee4a d8bd
000000d0: e2f6 ec3e be62 793e 7bce 953e a11b 32be
000000e0: 6abc bd3d 6006 3e3c e618 523d 021e 933d
000000f0: ebd1 fbbc 8846 913e 6234 7f3d e660 7f3d
00000100: 9019 dbbe a00f e23e 8616 b8be 1e18 3bbe
00000110: 344f ee3c f67c 11be 891f a6bc aaa5 ac3e
00000120: 769b f9be 9748 263e c624 f8bd 5e38 9e3e
00000130: 3e64 0ebd c463 8c3e be4f 24bc f66f e33e
00000140: dedb 963e 02b2 693e dd28 6f3e a6b4 ac3e
00000150: a037 a93e 05be 393e fa9d d03e cacd bd3e
00000160: e4f9 d63e 8e9b bc3e 7423 a1be 9793 573e
00000170: 02d5 173e 0d72 8fbe 015f ea3d 4cc1 02be
00000180: c896 80bd c4f3 abbe 0661 01bf be86 7cbe
00000190: c888 debe 80f3 0c3e ff11 36be 58b2 a4be
000001a0: b8dd 823d f523 fabe bac4 3f3e d242 aabe
000001b0: 602e c93e e3fe 973e 1ab4 e33e e436 e2bd
000001c0: 5ed8 db3e 7692 f93e cfce b83e eb8f cebe
000001d0: 607e ba3d cacb c9be 2040 233e ae6b aa3e
000001e0: fe30 803d 2834 86ba 603a 81be 62f2 94be
000001f0: 0021 db3e 7fe6 d33e 509f 713e 9cb7 99be
-0.1135537 -0.038713995 0.41561595 -0.10410767 0.20689926 -0.3156361 0.0028304677 -0.36694145
0.13931972 -0.0011355338 -0.06937648 -0.07470727 0.13098444 0.23791535 0.1884608 0.4054725
-0.21233153 -0.20438805 -0.43310732 0.22561157 -0.34551 0.46236575 0.4525015 -0.27685338
0.3038259 0.40211868 -0.093785875 0.39508334 -0.33808 0.20447421 -0.3402366 -0.22744149
0.4768558 -0.2958253 -0.19648227 -0.36779046 0.23903295 -0.03292944 -0.33107096 -0.28408504
0.17780012 0.06078919 0.027518779 -0.28981334 0.48396987 -0.21358609 -0.28359556 0.36042064
-0.22191602 -0.24055436 -0.5097413 -0.10561167 0.46282107 0.24354073 0.29259095 -0.17393352
0.09264453 0.0115982 0.051293276 0.07183458 -0.030739745 0.28374124 0.062305816 0.06234827
-0.4279294 0.44152546 -0.35954684 -0.18270919 0.029090501 -0.14207825 -0.020278709 0.33720142
-0.4875142 0.16238628 -0.12116389 0.3090238 -0.034763567 0.27419865 -0.010028778 0.44421357
0.2946462 0.22821811 0.23355432 0.33731574 0.3305025 0.18138893 0.40745527 0.37071067
0.41987526 0.3683743 -0.3147236 0.21052395 0.1482735 -0.280167 0.11443902 -0.1276905
-0.06278759 -0.33584416 -0.5053867 -0.24660775 -0.4346373 0.13764763 -0.17780302 -0.32167315
0.06389946 -0.48855558 0.18727389 -0.33254105 0.39293194 0.2968665 0.44473344 -0.11045626
0.42938513 0.48744553 0.36095282 -0.40344176 0.09106135 -0.3941329 0.1594243 0.33285278
0.062593445 -0.0010238932 -0.2523985 -0.29091173 0.42798615 0.41386792 0.23595929 -0.30022895

static_variable_selection.single_variable_grns.views_scale.gate_norm.glu.fc.bias f4 [16]
00000000: 3c1d 0cbc dcf7 bbbb c824 943b 7c64 b1bb
00000010: 0e89 fd3a 0a08 debb 0b56 053c 4c20 123c
00000020: 9272 8cbb ce50 683b 0c97 80ba 9a9b 78ba
00000030: 8c81 9f3b aa17 a83b 83ac 3eb9 c6ee e0bb
-0.008551892 -0.0057363342 0.004520986 -0.00541359 0.0019343214 -0.0067758607 0.00813819 0.008918833
-0.004286119 0.0035448554 -0.000981064 -0.00094836357 0.004867738 0.005129774 -0.00018184078 -0.0068644015

static_variable_selection.single_variable_grns.views_scale.gate_norm.add_norm.norm.weight f4 [8]
00000000: 9b46 813f 9232 7f3f f679 7d3f 0675 803f
00000010: 2075 813f 46b6 7d3f 5813 7d3f 3257 803f
1.0099672 0.9968654 0.9901422 1.0035713 1.0113869 0.9910625 0.9885764 1.002661

static_variable_selection.single_variable_grns.views_scale.gate_norm.add_norm.norm.bias f4 [8]
00000000: 0e8e 0bbc 52a4 7bbb 8715 213c c8a0 f2bb
00000010: cb15 f43b 1e26 2cbc aa6b 3f3c 9830 423c
-0.008517755 -0.0038397503 0.009831793 -0.0074044205 0.007448887 -0.010507135 0.011683384 0.011852406

static_variable_selection.prescalers.encoder_length.weight f4 [8, 1]
00000000: b07c 26bf d665 323e d4d7 423f 0c44 b83e
00000010: 5aac d5be 320e 413f a8e8 be3e ff01 613f
-0.6503401 0.1742166 0.7611058 0.35989416 -0.41733056 0.75412285 0.37286878 0.8789367

static_variable_selection.prescalers.encoder_length.bias f4 [8]
00000000: f6e5 7c3f 10bb a8bd 9247 2abf fdda 063f
00000010: ecf6 a03e 890b 313f 80e9 e4be 6a9c 393f
0.9878839 -0.08238804 -0.6651546 0.526779 0.31438386 0.69158226 -0.44709396 0.72504294

static_variable_selection.prescalers.views_center.weight f4 [8, 1]
00000000: 5e2a 4abf 3e8f 4f3f f3de 29bf 2a49 38bf
00000010: d28e 423f 6c13 433f 16af 78bf 4ae5 33bf
-0.789709 0.81077945 -0.6635582 -0.7198664 0.75999177 0.7620151 -0.9714216 -0.7027174

static_variable_selection.prescalers.views_center.bias f4 [8]
00000000: 681a 5b3e c334 6cbf 8cd0 01be f059 11bf
00000010: 52fb 3d3f ee7d 50bf c612 4fbe 1a71 84be
0.21396792 -0.9226801 -0.1267721 -0.5677786 0.7421161 -0.81442153 -0.20222005 -0.2586754

static_variable_selection.prescalers.views_scale.weight f4 [8, 1]
00000000: 55ef 29bf d827 23bd b652 3f3f f090 1cbf
00000010: 31d0 593f 5c5c 2bbf 84e6 ecbe cfbe ebbe
-0.66380817 -0.03983292 0.7473558 -0.6115866 0.850833 -0.66937804 -0.4626962 -0.46044013

static_variable_selection.prescalers.views_scale.bias f4 [8]
00000000: 94e5 0fbf af75 6b3f e917 11bf ce03 58bf
00000010: 2d7f 253f cb6c 5d3f d828 d1be b61c a33e
-0.56209683 0.91976446 -0.5667711 -0.84380805 0.6464718 0.8649413 -0.40851474 0.31857842

encoder_variable_selection.flattened_grn.resample_norm.mask f4 [2]
00000000: 12d1 96ba 5cc0 963a
-0.00115064 0.0011501419

encoder_variable_selection.flattened_grn.resample_norm.norm.weight f4 [2]
00000000: 52fe 7f3f 52fe 7f3f
0.99997437 0.99997437

encoder_variable_selection.flattened_grn.resample_norm.norm.bias f4 [2]
00000000: 7c6a 2ab8 9068 2a38
-4.063033e-05 4.062854e-05

encoder_variable_selection.flattened_grn.fc1.weight f4 [2, 16]
00000000: 34c7 303d eb39 32bc c9a2 3e3f 12b0 63be
00000010: 261a 65be 8422 cebd 8213 41bd 52de 613e
00000020: bf70 8fbe 924c 02bf 56a1 393f 4c73 003e
00000030: 34f4 b9bd 2658 e8bd 91f3 6ebe 6b43 f83e
00000040: 3663 1ebd d865 18bc ace7 c8bd 0ac5 b6be
00000050: b2f2 393e 7b33 42be 7af2 323f a867 bc3c
00000060: 1922 24be be12 643f c0ef 4f3d 097c 83be
00000070: 1a81 8c3e a6fd 30bf 1283 053e 1ca0 c43c
0.043158725 -0.0108780665 0.7446714 -0.22235134 -0.22373256 -0.10065177 -0.047137745 0.22057465
-0.28015706 -0.5089809 0.72511804 0.12543982 -0.09079781 -0.11344938 -0.233351 0.48488936
-0.038668834 -0.009301625 -0.09809813 -0.35697204 0.18158987 -0.1896495 0.6990124 0.022998646
-0.16028632 0.890911 0.050765753 -0.2568057 0.27442247 -0.69137037 0.1303828 0.024002127

encoder_variable_selection.flattened_grn.fc1.bias f4 [2]
00000000: 4c83 d437 aa08 49b4
2.533351e-05 -1.8722736e-07

encoder_variable_selection.flattened_grn.context.weight f4 [2, 8]
00000000: c4cc 96be ec61 ccbe f3eb 9fbe 2caa 2f3f
00000010: c314 0fbe ef0b 253e 35da 283f b42a 8cbe
00000020: abad 5cbe fd95 893e ec24 403e 68b2 02bf
00000030: 0296 8dbe 4e9a 1abf 1276 02bf e2ed 413f
-0.294531 -0.39918458 -0.31234702 0.68619037 -0.13972764 0.16117834 0.6595796 -0.2737633
-0.21550624 0.26872244 0.18764085 -0.51053476 -0.2765351 -0.603917 -0.5096141 0.75753605

encoder_variable_selection.flattened_grn.fc2.weight f4 [2, 2]
00000000: d8ec 37bf bd68 8cbe bdf8 01c0 9ce5 f1bd
-0.7184577 -0.2742366 -2.0308068 -0.11811373

encoder_variable_selection.flattened_grn.fc2.bias f4 [2]
00000000: 8071 4336 d287 86b7
2.912333e-06 -1.6037291e-05

encoder_variable_selection.flattened_grn.gate_norm.glu.fc.weight f4 [4, 2]
00000000: d97a 89bd 48ba 133f 446f 9a3e 50c5 1d3e
00000010: 0e6a 723c d3c7 92bd 8edb 533e dab9 48be
-0.067128845 0.5770612 0.30163014 0.154073 0.014795793 -0.0716702 0.20689222 -0.19602147

encoder_variable_selection.flattened_grn.gate_norm.glu.fc.bias f4 [4]
00000000: 83ae cab7 7e78 f337 4447 e737 978f 8eb6
-2.416154e-05 2.9023966e-05 2.7570532e-05 -4.248646e-06

encoder_variable_selection.flattened_grn.gate_norm.add_norm.norm.weight f4 [2]
00000000: b35a 7e3f b35a 7e3f
0.99357146 0.99357146

encoder_variable_selection.flattened_grn.gate_norm.add_norm.norm.bias f4 [2]
00000000: 2a61 b53b 2961 b5bb
0.0055352645 -0.005535264

encoder_variable_selection.single_variable_grns.log_views.fc1.weight f4 [8, 8]
00000000: 746a d33e 3abd 9cbe 465c d6be fc37 52be
00000010: 3b81 49bf f5a5 19bf be4b d83c 5eb5 f23e
00000020: f7dd d5be b209 d93e 7c44 99be ac73 3f3f
00000030: 9c3c 75be 1213 813e 1ac5 163f 591d 8c3d
00000040: 7ef3 0dbc f2eb 393e 0f60 47bd f1d0 893f
00000050: d265 4cbd d8b8 1ebe 516e 2ebf 7219 e63d
00000060: bf04 21bf 922e 123e aecf 3f3f 3cf6 e13e
00000070: 6cad c73b 58b2 453f e6b3 2dbf 00a4 62bd
00000080: b6f6 ddbe ba78 fbbc 7a16 4cbe 7b76 eebe
00000090: 2012 40bf fc5a 203f 4002 02bf ce57 c8be
000000a0: eaa6 2f3f 38ad 623e 5a0e 5b3f a98c 0a3f
000000b0: a407 eebd 14f4 5b3f a7c2 803e c656 f0be
000000c0: ae4f db3e 6013 96bd 8d3b d4be 4182 043e
000000d0: e202 013d 4fcc b93d c0cd 90be b49e 833e
000000e0: 0cfc 143e 455d a13d 58f8 053f 87e0 64be
000000f0: 716b 5f3f 2cf0 95bf 9f0b de3e 1383 9bbe
0.41292155 -0.30613118 -0.41867274 -0.20529169 -0.78712815 -0.60018855 0.026403304 0.47403997
-0.41770908 0.4239021 -0.29935062 0.74785876 -0.23948902 0.25209862 0.58894503 0.06841535
-0.00866401 0.18156412 -0.048675593 1.0766889 -0.04990179 -0.155002 -0.6813708 0.11235322
-0.62897867 0.14275578 0.7492627 0.44133174 0.0060936715 0.77225256 -0.6785263 -0.055332184
-0.43352288 -0.030697215 -0.19930449 -0.46574768 -0.75027657 0.6263883 -0.50784683 -0.3912949
0.68614066 0.2213639 0.85568774 0.5412088 -0.11622551 0.8591931 0.25148508 -0.46941203
0.42834228 -0.07327914 -0.41451684 0.12940313 0.03149689 0.09072172 -0.28281975 0.25707018
0.14549273 0.07879118 0.5233207 -0.22351275 0.8727332 -1.171392 0.4336824 -0.3037344

encoder_variable_selection.single_variable_grns.log_views.fc1.bias f4 [8]
00000000: 4d51 57bb 96ee 723b 984a f339 8979 363b
00000010: 1821 0b3c 49d0 0cba 72b2 dcbb 6046 ee3b
-0.0032854856 0.0037068478 0.00046404148 0.0027843437 0.008491777 -0.0005371613 -0.0067351395 0.007271573

encoder_variable_selection.single_variable_grns.log_views.fc2.weight f4 [8, 8]
00000000: 9225 193f aa24 4f3e 04c9 03be 347e efbd
00000010: 16c2 b23e 745b 243e 5b31 70bd 7409 e33e
00000020: e6e1 25bf 8d6f 23bd f8e8 30be 8e51 e0be
00000030: 2a02 ba3e 76e5 f1bc d638 003e b6d6 f23e
00000040: d4af b53d 3ae0 083f 641a 8fbe 1199 a8be
00000050: 53cf aa3e bc41 3abe b4bb 85bd 7be0 a2bd
00000060: 98a5 47bf 9afb 563d a4b0 98be 08cd 95be
00000070: 566c 90bd 508e 3fbf 97d9 6e3e c654 c53e
00000080: 97bf debe e659 87bd d279 61be 4282 873f
00000090: 0b8b 0fbc 5086 43be b22f c23e 58bd 9ebe
000000a0: ccab 0d3e 138e 55bf 4c18 72be 2d77 c4be
000000b0: 7a38 6e3b 5ea1 a5be e8a7 a93f 14fe 3fbf
000000c0: b9b6 943e bb00 153e c206 51be 54f1 86be
000000d0: f276 563f 6e25 8bbd 480d 4bbe 60e5 5f3f
000000e0: 7aed eb3e 80dc 493f 6ea4 79bf e220 1abe
000000f0: 75a9 993e 4c02 013c d69f 153f 9808 763f
0.5982295 0.2022883 -0.1286965 -0.11693993 0.349137 0.16050512 -0.05864082 0.4434315
-0.6479782 -0.039901305 -0.1727637 -0.4381222 0.36329776 -0.02952836 0.12521681 0.47429436
0.08871427 0.5346714 -0.27949822 -0.3292928 0.333613 -0.18189138 -0.06529942 -0.079529725
-0.7798705 0.05248604 -0.29822266 -0.2925799 -0.070519134 -0.74826527 0.23325191 0.3854124
-0.43505546 -0.06608944 -0.22019127 1.0586627 -0.008761178 -0.19094205 0.37927014 -0.31003833
0.13835067 -0.83419913 -0.23642081 -0.38372174 0.003634958 -0.32349676 1.3254366 -0.7499707
0.29045656 0.1455106 -0.20412734 -0.26355994 0.83775246 -0.067942485 -0.19829285 0.87459373
0.46079618 0.7885208 -0.97516525 -0.15051606 0.30012098 0.007874083 0.58447015 0.96106863

encoder_variable_selection.single_variable_grns.log_views.fc2.bias f4 [8]
00000000: 381d c33b f0ad d23b 1bbc a6bb 021a e83a
00000010: fc8e bd3b 43c1 a5bb ed23 0b3c da2c a4bb
0.005954411 0.0064294264 -0.005088342 0.0017707946 0.0057848673 -0.005058439 0.008492452 -0.0050102295

encoder_variable_selection.single_variable_grns.log_views.gate_norm.glu.fc.weight f4 [16, 8]
00000000: c4ba bbbe 14f8 f73e 51f9 cb3d 98a5 af3e
00000010: 1c0e 853e 389d ba3e fbb3 8cbd beda b73e
00000020: caec aa3e 7268 c3be b032 ad3e 83a8 f73d
00000030: e3cb bbbe 4459 c0be 3675 be3e 1609 c23e
00000040: 349d d3be 5fa1 b0be 9880 c73e 1325 07bb
00000050: 7a21 dbbe 565a f2bd 0ede d8be 8894 ed3e
00000060: 2295 523e bc69 b23c f455 9c3c ac19 ce3c
00000070: fa72 f0be 672b 723e 59ea 53bd 2282 d43e
00000080: 1ad0 f9be 34a8 ae3e 9835 bcbe a0f9 f13d
00000090: c189 cfbd f450 083e 5690 b53d bbc7 4d3e
000000a0: 2070 3a3c 7a39 31be 74dd cfbe 8a3f f6be
000000b0: 1663 f23e 8d98 b2be 5c5b 703e 7327 c13d
000000c0: 9a17 1bbe 3f37 2fbe a261 d6be 4a3f f0bc
000000d0: 59e0 c63e 134d efbd dc7e b0bc a0a0 0b3e
000000e0: 965c f9be 9ac8 cabe 539d eb3d ece4 7cbe
000000f0: 608f efbd 269d c63e 5f86 e53d 68f4 ac3e
00000100: 12a9 babe 0ecd e03d 025b 903d 2654 4a3c
00000110: 23dd 0a3e c573 f53e 80af edbe 282b a93c
00000120: e64c 74be 4cc0 333e f645 f6be 90a6 db3e
00000130: 66b0 6c3d 5811 2bbe 6728 443e b997 32be
00000140: 2520 723e ca9c 9dbe 7eb0 f8be 544e f7be
00000150: c7cb b43e f4f5 55bd 5f5b 243d 4eb6 ddbe
00000160: d85d 51be 130e fd3e b62e 953e 1692 fc3d
00000170: f4a4 25be 9364 43be a8a6 c2bd 3a5b 843e
00000180: 1d8b 8d3e e23e 973d 21c5 c73e 1281 b6be
00000190: a02c f6be 7b27 843e 4d2c 993e 30ff 8f3b
000001a0: 0578 e13d 54c6 bcbd 3a60 0a3e 00c6 1f3e
000001b0: a8e2 933e e210 aabe a6ff 0a3e 63dd 433e
000001c0: 1db1 eb3d 16c6 c93d 1622 ff3e e6e0 a7be
000001d0: e5b7 383e 265d fdbe 5ee5 3c3e c595 a43e
000001e0: de28 0d3e 86a2 a43e c9b4 f7be 2746 3fbe
000001f0: 4d64 e93e 5098 f5be 8ffc 53bd 1c0c b93e
-0.36665928 0.48431456 0.09959663 0.34306026 0.25987327 0.36448073 -0.06870266 0.35909075
0.3338378 -0.38165623 0.33827734 0.12092688 -0.3667899 -0.37568104 0.371988 0.37897557
-0.41330874 -0.34498116 0.38965297 -0.0020621463 -0.42798978 -0.118336365 -0.42356914 0.46402383
0.20564702 0.021778934 0.019083954 0.025158726 -0.4696272 0.23649369 -0.051737163 0.41505533
-0.4879158 0.34112704 -0.3675964 0.1181519 -0.10133696 0.13312131 0.088654205 0.20095722
0.011379272 -0.17307082 -0.40598643 -0.4809535 0.47341222 -0.34882012 0.23472351 0.094313525
-0.15145722 -0.17110918 -0.41871363 -0.029327054 0.3884304 -0.116846226 -0.021544866 0.13635492
-0.4870345 -0.39606172 0.115046166 -0.24696702 -0.116972685 0.3879177 0.1120727 0.33780217
-0.36457115 0.10976611 0.07048608 0.012349164 0.1356092 0.47939888 -0.46422958 0.020650461
-0.2385746 0.17553824 -0.4810025 0.42900515 0.057785414 -0.16705835 0.19156037 -0.1744069
0.23645075 -0.30783683 -0.48572153 -0.48301947 0.3531172 -0.052236512 0.0401262 -0.4330315
-0.20445955 0.494248 0.291372 0.12332551 -0.16176206 -0.19081335 -0.095044434 0.2585085
0.27645198 0.07385041 0.39017585 -0.35645348 -0.4808092 0.2581137 0.2991661 0.0043944344
0.1100922 -0.092175156 0.1351327 0.15602875 0.28883862 -0.33216006 0.13574085 0.19127421
0.11508391 0.09852235 0.49830693 -0.3278877 0.180389 -0.4948513 0.18446872 0.32145515
0.13785121 0.32155246 -0.48380116 -0.18679105 0.45584336 -0.47967768 -0.05175453 0.3614205

encoder_variable_selection.single_variable_grns.log_views.gate_norm.glu.fc.bias f4 [16]
00000000: 0c30 a73a 66f5 083c 3393 15bc 14c3 f5bb
00000010: 5d64 0f3c de23 883b ba52 c8bb 87e2 95bb
00000020: 1689 67ba a441 b5bb 0151 603b 4dc3 f63a
00000030: a21d 52ba 8075 083b ba1c c0ba d0e5 b3b9
0.0012755408 0.008359289 -0.009129333 -0.0075000618 0.008751956 0.0041546663 -0.0061133774 -0.0045741233
-0.0008832378 -0.0055315066 0.003422797 0.0018826515 -0.000801528 0.0020821989 -0.0014656999 -0.00034312764

encoder_variable_selection.single_variable_grns.log_views.gate_norm.add_norm.norm.weight f4 [8]
00000000: 5a2b 803f 242a 803f 7070 803f 02f8 7d3f
00000010: 97b0 7f3f e88b 803f f0a3 803f 0535 803f
1.001323 1.001286 1.0034313 0.99206555 0.9987883 1.0042696 1.005003 1.001618

encoder_variable_selection.single_variable_grns.log_views.gate_norm.add_norm.norm.bias f4 [8]
00000000: 1cb9 243b 5e52 223c 37f5 20bc 26f7 16bc
00000010: 74e3 1e3c d10e d23b 5a31 f6bb 2d55 a8bb
0.0025134748 0.009907333 -0.009824089 -0.009214198 0.009697784 0.0064104577 -0.0075132074 -0.005137107

encoder_variable_selection.single_variable_grns.relative_time_idx.fc1.weight f4 [8, 8]
00000000: 9ac8 45bf beb0 8abe a6f8 893f ba3c 80bc
00000010: 22c7 cbbe b07b a4bd b54e 083d ea2f ca3c
00000020: c136 153f 9e33 c93d 6644 123e e166 e7be
00000030: 8477 ba3d e2ca 203f 34c7 47bf b2bc 9f3e
00000040: 2076 803f bae4 17bf c669 4d3d 353a 39bf
00000050: 837e 0bbf 9e71 1a3c 9ce8 513d 5c40 e53c
00000060: 0ba3 ba3d 38ee 53be 5107 f5bd 0376 94bf
00000070: f638 e0bc 5cda 98be 9f50 18bd a2b0 f53e
00000080: c666 1f3f 0ae6 f43e 3541 57be 0e6c 6fbe
00000090: 0cf4 183b c280 e93d 68ee 493f fece 9cbf
000000a0: 6ad5 49be 70de a03f 9c1d 133e 123e 98be
000000b0: 878d 93be 38e4 823e 4e6e f63e 6b57 883e
000000c0: fefd debe 4c8f b33d d869 25bf a6b4 8fbf
000000d0: 1366 f23e ff04 103f 2b86 933e 9a4b be3e
000000e0: d86d 70bf d987 763d 0dc2 4cbf 8a4e 9b3d
000000f0: 2d4d aebf a619 1d3f a838 9abc 684f 3b3f
-0.7725922 -0.2708797 1.0779006 -0.015653957 -0.39800364 -0.08031404 0.033278186 0.02468105
0.5828667 0.09824298 0.14283904 -0.45195678 0.09104827 0.62809575 -0.78038335 0.3119865
1.0036049 -0.59333384 0.0501497 -0.7235444 -0.54489917 0.0094265025 0.051247224 0.02798479
0.09113129 -0.20696342 -0.11964286 -1.1598514 -0.027370911 -0.29854095 -0.03718626 0.47986323
0.62266195 0.47831756 -0.21020968 -0.23381063 0.0023338823 0.11401512 0.78879404 -1.2250669
-0.19710317 1.2567883 0.14366764 -0.29734856 -0.28818914 0.25564742 0.4813103 0.26629195
-0.43553156 0.08767566 -0.6461463 -1.1227005 0.473435 0.56257623 0.288133 0.37167054
-0.9391761 0.06018815 -0.799836 0.075833395 -1.3617302 0.6136726 -0.018825844 0.7316804

encoder_variable_selection.single_variable_grns.relative_time_idx.fc1.bias f4 [8]
00000000: 552f f43b 4799 b13a 480e 423c e217 82bb
00000010: 503d a839 1202 2e3c 87b6 453c e10e 273c
0.0074519315 0.0013549709 0.011844225 -0.003970132 0.00032089138 0.010620611 0.012067444 0.0101964185

encoder_variable_selection.single_variable_grns.relative_time_idx.fc2.weight f4 [8, 8]
00000000: a860 36bf 5404 c2be 56e3 6ebe d861 fcbe
00000010: 88e4 993e de0d 96bc d2c5 c0bf b85a 783f
00000020: 98e2 c13e bc10 4a3e 812b 6a3f 8662 563f
00000030: 1455 57bb d69d babe fa70 053f bae8 6f3e
00000040: ccb2 4c3e 2997 11bf 38ef 3b3f 2c7f 7f3d
00000050: 968a 343e ec7d b13e e41a 01bf 723a b53e
00000060: ace6 573d b2d0 203e 22fd a13e 0038 31bf
00000070: 7813 0f3f c04a b63d 68d5 c23e c309 ff3e
00000080: 6459 3fbe 48be 123f fc79 a23e 8ac2 3c3f
00000090: a8a3 bc3e 2915 51be e2a2 9d3e c6d5 d2be
000000a0: d20a 563f 8634 4c3f a812 01bf 6e19 31be
000000b0: 42c3 68bf d345 d63e 24d9 c43d 1b2e 323e
000000c0: a24c 8a3f bea0 46be 1843 aebe fcae ff3c
000000d0: 902d a83e 740b 4e3f b065 813f a859 3bba
000000e0: 644e 45bf 88ef e8bd ea75 ae3e b415 51be
000000f0: 0586 2dbe be29 cc3e 3c35 8e3f 3b6b 963c
-0.71241236 -0.37893927 -0.2332891 -0.492934 0.30057168 -0.01831716 -1.506037 0.97013426
0.3786819 0.19732946 0.9147263 0.83744085 -0.0032857107 -0.36448544 0.52125514 0.23428622
0.1999008 -0.5687128 0.73411894 0.06237714 0.17630991 0.34666383 -0.50431657 0.35396153
0.05271022 0.15704611 0.31638438 -0.69226074 0.5588908 0.08900976 0.3805344 0.49812135
-0.18686444 0.57321596 0.31733692 0.73734343 0.3684361 -0.20418228 0.30788332 -0.4117872
0.8361026 0.79767644 -0.5041909 -0.17294857 -0.9092294 0.41850147 0.09611729 0.174004
1.0804636 -0.19397256 -0.34035563 0.031211369 0.3284726 0.80486226 1.0109158 -0.0007146844
-0.7707274 -0.11373812 0.34074336 -0.20418435 -0.16945656 0.39875597 1.1109996 0.018361678

encoder_variable_selection.single_variable_grns.relative_time_idx.fc2.bias f4 [8]
00000000: 7aee e0bb 9972 203c 244d 303c b2ee 2e3c
00000010: 149e 453b 5f52 103c 961f 763b 68c1 343c
-0.006864366 0.009792947 0.010760579 0.010677027 0.0030154036 0.008808701 0.0037555448 0.01103244
