Transformer/tft_model_hidden6_oneYear.pth (torch, 117413 bytes, 258 tensors)

input_embeddings.embeddings.article.weight f4 [65, 6]
000000 9c 4a cd bf ea 12 ec bf 89 cd 6d bf 71 29 50 bf
       -1.6038394 -1.8443272 -0.92891747 -0.81313235
000010 ac cd 11 40 2d 85 a4 3f d0 bc fa 3f 48 5f a2 be
       2.2781782 1.2853142 1.9588871 -0.3171332
000020 50 b6 c8 be 86 9c e0 3e 44 86 8b bf 80 9f c1 3e
       -0.39201593 0.43869418 -1.090035 0.37817
000030 54 58 c9 bf 57 7c 31 bf 2a 0f 9e bf 14 7e 20 3f
       -1.5730081 -0.6933035 -1.2348378 0.6269238
000040 8b 91 0d be 38 e2 11 bf e6 a5 9c 3f 9a 9d 15 bd
       -0.13825051 -0.5698581 1.2238128 -0.036527254
000050 16 59 99 bf 6d 62 81 3f a4 d1 7d bd de d0 27 bf
       -1.1980312 1.0108162 -0.061967507 -0.6555308
000060 c7 0e b0 3c a6 ef a2 3b 6a 84 5b be 0c 31 bb bf
       0.021491421 0.004972416 -0.2143723 -1.4624343
000070 9e 21 c1 be 9e fb a3 3e 0f f6 14 3e 57 5c 23 3e
       -0.3772096 0.32027906 0.14546989 0.15953194
000080 cb 72 88 3f 6e fd 04 40 1c 3d bb 3f e0 51 6b 3f
       1.0660032 2.0779681 1.4628024 0.91921806
000090 6c 45 70 3f df 50 93 3e 90 0d bf be f0 d6 29 bf
       0.9385593 0.28772637 -0.37315035 -0.66343594
0000a0 03 5e 88 bd 72 90 b2 bf 82 b4 49 3f 63 2e cf 3c
       -0.06658556 -1.3950331 0.7879106 0.025290674
0000b0 24 02 82 3f 40 b5 8a 3f f8 1e f3 be 42 9f 53 bf
       1.0156903 1.0836563 -0.47484565 -0.82664883
0000c0 18 cf d1 bf 16 1c 76 be 1e 0c 85 bf 83 bb ad bf
       -1.6391325 -0.24034151 -1.0394323 -1.3572849
0000d0 f2 fc 0a bf 22 43 53 bf 95 1f 9a bf 1e ae 1a 3e
       -0.54292214 -0.8252431 -1.2040888 0.15105483
0000e0 6f 75 eb 3f 77 fb 04 3f 1c ba d4 3e de 2d d3 be
       1.8395213 0.51946205 0.4154824 -0.4124593
0000f0 4e 6b 80 be 5e 85 0c bf 5a 9b 82 bf 95 e6 f9 3f
       -0.25081867 -0.54891 -1.020366 1.9523493
000100 4e 81 20 bf 6a c9 3c be 32 f5 0a bf fd 47 02 3f
       -0.62697303 -0.18436208 -0.5428039 0.50891095
000110 ce 3e 81 be 0e 0a af bf a8 3b e2 3e 18 9c f8 3d
       -0.2524323 -1.3674943 0.4418614 0.121391475
000120 46 2b d2 3e 2c 7c dd 3f 68 0a c9 3e 6e 22 c6 be
       0.4104864 1.7303519 0.39265752 -0.38698143
000130 f3 4e b1 3d f6 07 db bf 67 02 22 bf 52 81 b4 be
       0.086576365 -1.7111804 -0.63284916 -0.35254914
000140 16 60 fe 3e c7 24 4e 3e 6c 4c 04 3d 30 61 6f bf
       0.49682683 0.20131217 0.032299444 -0.9350767
000150 31 6d f2 bc 83 ac 23 3e 7d 4f af bf e6 8b 32 bf
       -0.029593082 0.15983777 -1.3696133 -0.6974472
000160 ef 05 e0 bf 68 fc 42 be ce 10 a0 bf 2b 78 75 bf
       -1.7501811 -0.19041598 -1.2505128 -0.95886487
000170 34 2b 19 3e 7f 14 8f 3f 92 16 5a bf fc e6 b2 3c
       0.14957887 1.117813 -0.8519069 0.021838658
000180 a0 4b 03 bf 34 a4 98 bf 4d b5 27 bc 85 3c bf bf
       -0.5128727 -1.1925111 -0.010236097 -1.4940344
000190 d6 31 ba bf d6 67 69 3f ae a4 06 40 60 c2 e5 3e
       -1.4546459 0.91174066 2.1038013 0.4487486
0001a0 04 24 e5 3e 0e f6 3c bf 31 4e 88 bf 81 56 cd 3e
       0.4475404 -0.7381295 -1.0648862 0.4010506
0001b0 a1 14 c9 be 35 c8 b0 be a9 99 5e be fd 89 78 3e
       -0.3927355 -0.34527746 -0.21738304 0.24271388
0001c0 4e d4 d9 bd 87 1c 5a 3f fe 4e 1e bf 77 50 80 be
       -0.10636197 0.8519978 -0.6183928 -0.2506139
0001d0 6c e5 20 3f 62 68 0a bf bd 2b 56 be 94 51 cc be
       0.6285007 -0.54065526 -0.20915122 -0.3990599
0001e0 84 1d f7 3e 18 a1 c4 bd 08 cc 7e 3f 08 f9 77 be
       0.48264706 -0.09601039 0.99530077 -0.24216092
0001f0 f5 a2 61 3b 36 29 1d bf e4 83 76 3f e0 10 a8 bf
       0.0034429405 -0.6139101 0.96295 -1.313015
000200 3a dd a6 bf fa ba a4 3f 35 b0 20 c0 96 e3 6c bf
       -1.3036263 1.2869561 -2.5107548 -0.9253477
000210 4e 37 3f bf 7e bc a7 3f aa cc f5 bc 3e 05 50 be
       -0.74693763 1.3104398 -0.030004818 -0.203145
000220 3a ab 87 be 62 f4 b1 be 76 9b ad 3d d6 71 9a 3c
       -0.26497823 -0.34756762 0.084769174 0.01885311
000230 ef dd af 3f fb 10 8f 3f c8 7f 1b bf ac 08 ba bf
       1.3739604 1.1177057 -0.60741854 -1.4533896
000240 c8 b7 31 3e 4e 18 e5 bd 2b 6f 05 c0 be ad b2 3e
       0.17355263 -0.111862764 -2.0849102 0.3489818
000250 62 90 08 bf 96 59 f2 3e 45 f2 56 bf 1c f1 1a bf
       -0.5334531 0.47333974 -0.83963424 -0.60524154
000260 bc c2 e6 bf 54 24 4c 3e 81 47 31 bf 2a 92 85 be
       -1.8028178 0.19935733 -0.6924973 -0.26088077
000270 68 42 48 bf 38 83 a7 bf 55 a5 79 bd 88 d2 2c 3f
       -0.7822633 -1.308692 -0.06094869 0.67508745
000280 32 5e 80 bf c7 92 29 bf 40 9f 94 be e6 66 1d 3f
       -1.0028746 -0.6623959 -0.29027748 0.61485136
000290 34 ca 89 bf fe 67 9b bf 28 b2 07 c0 62 f7 4b bf
       -1.0764832 -1.2141111 -2.1202488 -0.7967435
0002a0 a4 87 2c bd ce ea a9 3f 26 00 94 3e 93 a5 26 be
       -0.042121544 1.3274782 0.28906363 -0.16274099
0002b0 14 8e f9 3d f0 de c7 bf f4 f5 ac 3f 5a 47 19 3f
       0.121853024 -1.561491 1.3512559 0.598745
0002c0 e9 e2 9b 3f 69 95 5b 3f 31 a4 95 bf 74 90 df bf
       1.2178622 0.85774857 -1.1690732 -1.7465959
0002d0 ed 8d d6 3f f0 87 cc 3e 67 1a 34 bf 42 20 3d 3f
       1.6762062 0.39947462 -0.70352787 0.73877347
0002e0 27 c7 31 c0 e8 b4 8d 3e d3 ec e3 3d 68 b5 45 3e
       -2.7777803 0.27677083 0.11129155 0.19307482
0002f0 84 32 26 bf ea 2c 2a 3e cf 78 b6 be 89 28 f0 3e
       -0.6492083 0.16618696 -0.35639045 0.46905926
000300 3e 0a cb bf c2 74 69 3f 14 83 01 3f 16 7a 0c be
       -1.5862501 0.91193783 0.50590634 -0.13718447
000310 5c b1 e6 be 3e 2b 1b 40 a2 5a c0 3e 92 2f 88 3f
       -0.4505719 2.4245143 0.37569147 1.0639517
000320 16 a5 90 be 16 9b 5e 3f 93 ae 02 40 76 a4 2f 3d
       -0.2825095 0.8695539 2.0419052 0.04288145
000330 9d 37 82 3f 9e 81 9b 3e f7 ac 1d 3e df ba 87 be
       1.0173222 0.30372328 0.15398012 -0.2650976
000340 f0 7a d4 bf 24 b4 29 3f a0 d6 ad 3e 0e 6a 89 bf
       -1.6600018 0.662905 0.33952808 -1.073549
000350 b2 ad 7c bf 20 7b e1 3f c2 10 17 bf 3e 3a 79 bf
       -0.9870254 1.76157 -0.59009945 -0.97354496
000360 d2 63 0b bf 68 f4 cc 3f 94 b2 84 3e b6 eb 2f 3e
       -0.5444919 1.6012087 0.25917494 0.1717976
000370 70 d2 9b 3d a0 2a f5 bd 9e 72 2d bf c0 37 0c 3d
       0.07608497 -0.11971021 -0.67753017 0.034232855
000380 98 24 e7 3f f9 7e 23 3f 42 23 2f bf e8 51 34 3f
       1.8058043 0.6386562 -0.68413174 0.7043748
000390 6a 99 ca 3f ca 16 e8 bd 4c bd be be fe d6 24 3f
       1.5828068 -0.11332472 -0.37253797 0.6439055
0003a0 7a b8 d2 be f8 92 d4 be 87 58 61 bf 5a 76 64 bf
       -0.4115637 -0.41518378 -0.88025707 -0.8924309
0003b0 10 ea 88 3e f4 fe 32 bf 6b cb 46 bf da 46 d4 be
       0.26741076 -0.6992028 -0.7765414 -0.41460305
0003c0 c8 34 54 3d 5f 11 9e 3f 7c 11 d1 3d 48 3c 9e bc
       0.05180815 1.2349051 0.10208413 -0.019315854
0003d0 f3 a7 3e 3f a1 c2 74 bf 7b 3c c1 3e 22 cb b9 3e
       0.7447502 -0.9560948 0.37741455 0.3628779
0003e0 3c 70 55 bf 17 06 4f be c8 7f a8 3e ae 6a d1 bf
       -0.8337438 -0.20217167 0.3290999 -1.6360681
0003f0 1c 13 23 3f be 8e 9f 3e b4 fd 10 be 02 bc 4f bf
       0.63701034 0.3116359 -0.1415928 -0.8114625

input_embeddings.embeddings.dayofweek.weight f4 [7, 5]
000000 ae 7e fa be ee cb af bf 64 61 9c 3f 7c ee 24 bf
       -0.48924774 -1.3734109 1.2217221 -0.644264
000010 98 48 ff 3f 7a 2e 07 bf 76 13 a7 bf 0c 20 fd be
       1.9944029 -0.5280529 -1.3052814 -0.49438512
000020 76 f2 98 3f 24 fb b8 bf 9a 9d 55 bf 35 93 89 bf
       1.1948993 -1.4451642 -0.83443606 -1.0748049
000030 34 02 17 bf c0 4d a7 3f 50 21 54 bf 0c c9 8e 3e
       -0.58987737 1.3070602 -0.8286333 0.27887762
000040 ed b2 8a 3f ea 56 72 3f 85 42 63 3f c6 4a 78 3e
       1.0835854 0.9466387 0.88773376 0.24247274
000050 6e 9a 46 bf 39 0e 9c be fe 27 15 3f d0 be d1 3f
       -0.7757939 -0.304796 0.5826415 1.6386356
000060 04 6c 56 3f 16 04 02 be 37 80 49 bf 86 d6 d8 bd
       0.8375857 -0.12696871 -0.78711265 -0.10587792
000070 56 d7 a4 be c6 8f f9 3e 4e 7c f6 3e 86 9d 3d bf
       -0.32195538 0.48742503 0.48141712 -0.74068487
000080 76 68 18 bf a0 41 ab 3e d7 30 a6 3f
       -0.59534395 0.33448505 1.2983655

input_embeddings.embeddings.month.weight f4 [12, 6]
000000 b0 c5 a1 bf fc ac a8 bd 2e 13 be 3e 44 72 19 c0
       -1.2638454 -0.08236119 0.37124008 -2.3975992
000010 0a b3 e0 3f c0 18 0c bf bf 94 32 bf 2a c1 a7 3f
       1.7554638 -0.54725266 -0.6975822 1.3105824
000020 21 84 c2 be 45 64 a8 3f 80 0a b6 3f 4b 8c c8 be
       -0.3799143 1.31556 1.4221954 -0.39169535
000030 8f d0 1c 3f 68 47 ec 3f fe 56 cc 3e fd 01 8d 3f
       0.61255735 1.8459291 0.3991012 1.1016232
000040 4e dd 6d 3e aa a2 a3 be ba f5 22 3f ae 6e 12 bf
       0.23228952 -0.3196004 0.636562 -0.57200134
000050 63 ca 0e c0 80 71 4b 3f fe a7 3b 3f 70 38 be bf
       -2.2311027 0.7947006 0.7330321 -1.4860973
000060 fe 8c 99 3e 58 23 d3 3f 58 3f c6 be d3 d8 27 bf
       0.2999038 1.6495161 -0.38720202 -0.6556522
000070 14 76 a6 be 85 37 97 be 3a 49 b7 bf b4 af f0 3f
       -0.3251196 -0.29534546 -1.4319222 1.880362
000080 a4 ad d2 bf cb 29 9b bf cc cc 3e bf d0 60 87 3f
       -1.6459241 -1.2122129 -0.74531245 1.057642
000090 14 80 51 3f a8 13 98 3f e6 8e 80 bf 1c 5e f3 bd
       0.81836057 1.1880999 -1.0043609 -0.11883184
0000a0 a9 5c e3 be 9d 68 83 be ed f1 a9 be 6c c1 97 3d
       -0.44406632 -0.2566575 -0.33192387 0.07409939
0000b0 a9 ce bc bf 9e b5 43 bf 42 68 eb 3d da 92 74 bd
       -1.4750568 -0.76449 0.11494495 -0.05971036
0000c0 9e ca e1 3e 6c e5 88 3d 06 b0 db bf 39 14 75 3e
       0.44099897 0.06684384 -1.7163093 0.23933496
0000d0 86 97 b8 3f a6 7e bc 3e 3e 6d ba 3e 82 42 9c 3d
       1.4421241 0.36815375 0.3641147 0.07629873
0000e0 e7 fe bc 3f c5 db 17 3e ca dc 4c 3f 91 0c d0 3e
       1.476529 0.14829929 0.800244 0.40634587
0000f0 fe f1 6d bf b2 cd 81 3f 14 99 14 bf 70 ae 14 3e
       -0.92947376 1.0140898 -0.5804608 0.14519668
000100 e9 bf a7 be a4 e1 98 3f 8e 26 b9 3f 1e 92 00 bf
       -0.32763603 1.194386 1.4464891 -0.5022296
000110 85 58 2a 40 e6 23 90 3e 40 1e e3 3f ec 6b 0d bf
       2.6616528 0.28152388 1.7743607 -0.552428

input_embeddings.embeddings.year.weight f4 [8, 5]
000000 62 fd eb 3e 63 55 e0 3d 64 e1 18 be b4 31 93 be
       0.46091753 0.10953786 -0.1492973 -0.28748858
000010 12 91 80 3f 66 cd a4 bf 38 17 0f 40 98 8c 36 bf
       1.0044272 -1.2875183 2.2357922 -0.7130828
000020 34 89 15 3f b4 84 9f bf 72 c9 ff 3e 41 63 52 bf
       0.5841248 -1.2462373 0.49958378 -0.821827
000030 82 a0 eb be 98 b9 5c bf e0 56 12 3e d8 24 21 3f
       -0.46020895 -0.86220694 0.14290953 0.62946844
000040 6c 02 2a be eb e1 e9 3f 28 c4 0d bf 2f ff 17 3f
       -0.16602486 1.827207 -0.55377436 0.59373754
000050 ce 1d 97 bf 8c df b9 be 68 a9 63 3f 67 18 25 be
       -1.1805971 -0.36303365 0.8893037 -0.1612259
000060 43 cf 24 39 56 9d cb bf 24 18 f7 3f dd 41 8e be
       0.0001571747 -1.590739 1.9304242 -0.27784625
000070 b7 a5 89 bf f0 8d 30 bf 1f 4e 78 3f b0 4a 7c be
       -1.0753697 -0.6896658 0.96994203 -0.24637866
000080 0f 41 3a bf b8 66 3c 3f a6 f7 28 3e 6c 42 49 bf
       -0.7275552 0.73594236 0.1650072 -0.78616977
000090 26 89 46 3f 1c 96 31 bd 4c d4 0b 3f bf a8 d8 bf
       0.7755302 -0.043356046 0.54620814 -1.6926497

prescalers.encoder_length.weight f4 [3, 1]
000000 7f 19 0f 3f 5c d4 64 be 88 04 b8 be
       0.5589828 -0.22346634 -0.35940957

prescalers.encoder_length.bias f4 [3]
000000 36 d2 bb 3e d6 64 14 bf fa e3 1e bf
       0.36683816 -0.57966363 -0.62066615

prescalers.views_center.weight f4 [3, 1]
000000 d6 0c 60 3e 7d 12 1c 3f ce 10 2c bf
       0.21879897 0.6096571 -0.6721314

prescalers.views_center.bias f4 [3]
000000 b6 85 33 bf 2d b7 36 3f e8 47 b2 be
       -0.701259 0.71373254 -0.34820485

prescalers.views_scale.weight f4 [3, 1]
000000 2b 7c 3f bf 84 7d 6d bf 0e fd 20 3f
       -0.7479884 -0.92769647 0.6288613

prescalers.views_scale.bias f4 [3]
000000 41 e2 33 3e 2e 3f fc be 6a 88 ca be
       0.17566778 -0.49266952 -0.395572

prescalers.log_views.weight f4 [3, 1]
000000 36 12 84 3f c8 10 85 bf 0c af 84 bf
       1.0318058 -1.0395746 -1.036592

prescalers.log_views.bias f4 [3]
000000 30 76 3a be 5f ac 78 bf fd 6b 82 3d
       -0.18209147 -0.9713802 0.063682534

prescalers.relative_time_idx.weight f4 [3, 1]
000000 90 38 1e bf ea 6c b3 be 94 9e 01 be
       -0.6180506 -0.35044032 -0.12658149

prescalers.relative_time_idx.bias f4 [3]
000000 aa 71 8e bd 30 b7 5d bf a1 77 f4 3e
       -0.069552734 -0.86607647 0.4774752

prescalers.avg_by_song.weight f4 [3, 1]
000000 40 be 47 3f b7 a9 32 3f 34 96 90 3e
       0.78024673 0.69790214 0.28239596

prescalers.avg_by_song.bias f4 [3]
000000 23 df 80 3e 30 bc 52 3e 3c 43 63 3f
       0.2517024 0.205796 0.88774467

static_variable_selection.flattened_grn.resample_norm.mask f4 [4]
000000 50 88 49 be 0a 08 be bd e2 0d 1c 3e 06 9b 15 3b
       -0.19680905 -0.09278877 0.15239671 0.0022827997

static_variable_selection.flattened_grn.resample_norm.norm.weight f4 [4]
000000 68 d0 53 3f 05 f4 6f 3f 72 53 80 3f 32 12 85 3f
       0.8273988 0.9373172 1.0025465 1.0396178

static_variable_selection.flattened_grn.resample_norm.norm.bias f4 [4]
000000 72 9e ea bd f8 e2 a0 bd 68 84 22 3d 42 06 83 3c
       -0.11456002 -0.07855791 0.039677054 0.015994195

static_variable_selection.flattened_grn.fc1.weight f4 [4, 15]
000000 4a 5a 4d 3c 06 98 74 3e 41 38 84 3e 5c 58 64 3e
       0.012533734 0.23886117 0.25824168 0.22299331
000010 64 aa 74 3d 7b 06 01 be ca 1a 7d be 1e 5f 37 3f
       0.05973281 -0.12600128 -0.2471725 0.7162951
000020 ac dc 6f bf 2a bb 26 3e 08 a3 11 3d 41 24 1b 3f
       -0.93696094 0.16282335 0.03555587 0.60602194
000030 b5 5f b8 3a 46 47 97 be 40 c7 06 3d 02 f2 0e 3d
       0.0014066609 -0.29546565 0.032904863 0.034898765
000040 cc 9f b6 3e 82 7d d8 be 5a d7 20 3e b0 05 e4 3e
       0.3566879 -0.42283255 0.1570715 0.4453559
000050 18 44 17 3e 2e 99 fd 3d d5 b7 3a 3e 8b e6 3b be
       0.1477207 0.12382732 0.18234189 -0.18349664
000060 28 36 b1 3a e7 8a 81 bc 42 20 9c 3e d7 10 9a be
       0.0013520168 -0.015813304 0.3049336 -0.30090973
000070 25 42 8e bc 4e 44 63 be 72 5d ab 3e 29 30 8a 3e
       -0.017365525 -0.22194025 0.3346973 0.26989868
000080 32 3d 3b be f8 e6 cf be 96 30 d7 be 49 a9 84 3a
       -0.18285063 -0.40605903 -0.42029256 0.0010121252
000090 c0 c4 c7 3e ab 50 cc bd 0a 95 39 bf b8 ee 06 3c
       0.39017296 -0.09976324 -0.7249304 0.008235626
0000a0 e8 9f 8a 3e fc 60 da 3e a1 f7 03 3d 21 15 d0 be
       0.27075124 0.42652118 0.03221858 -0.4064112
0000b0 5d 96 2f be 37 30 cf be b6 a1 d0 be 5e c9 d3 bd
       -0.17147203 -0.40466473 -0.40748376 -0.10341142
0000c0 62 f9 b3 3e 84 20 28 3c a0 ad a1 be 21 23 02 3e
       0.351512 0.010261659 -0.31577778 0.12708713
0000d0 8a ae 7c 3f 10 41 35 be 4e 7b f0 3d cc 14 80 bd
       0.98703825 -0.177006 0.117422685 -0.06253967
0000e0 5e 0f d7 3e 86 5f 0c bf 62 90 21 3f 60 a3 94 be
       0.42003912 -0.5483326 0.63110936 -0.29030895

static_variable_selection.flattened_grn.fc1.bias f4 [4]
000000 42 ad 0f bc 12 e0 b0 bd ee f9 19 3e 8e 0e 8d bc
       -0.008769335 -0.08636488 0.15036747 -0.017218854

static_variable_selection.flattened_grn.fc2.weight f4 [4, 4]
000000 82 c0 99 3f 9e 83 10 3e 98 82 da 3e c0 5c 82 3f
       1.2011874 0.14112708 0.4267776 1.0184555
000010 ec 43 80 bf 26 2e 3b 3f f8 65 64 bf 52 e4 e1 3e
       -1.0020728 0.7311729 -0.8921809 0.44119507
000020 b2 dd 9a 3f 60 04 f5 3d bc 65 e1 bd 8f a2 d0 bd
       1.2098906 0.11963725 -0.110057324 -0.101872556
000030 28 82 0e bf 4a 36 84 3d 8a 72 a9 bd d2 3a 31 3f
       -0.5566735 0.06455667 -0.082738 0.6923038

static_variable_selection.flattened_grn.fc2.bias f4 [4]
000000 a4 27 fa 3b 18 4e ea bd e0 8d f0 bd 9e 50 60 3b
       0.00763412 -0.114406765 -0.117458105 0.003422774

static_variable_selection.flattened_grn.gate_norm.glu.fc.weight f4 [8, 4]
000000 fa bc b7 be e4 5b d2 bc 62 38 04 3f ee 30 bc 3e
       -0.35886365 -0.025678582 0.51648533 0.3675608
000010 0f 5f 20 3f 4c fb c4 3e 59 67 25 3e ae 74 96 3e
       0.6264505 0.38472974 0.16152705 0.29385895
000020 9c 70 1b be 54 74 12 bf de 5a 0f bf 3b ec 42 be
       -0.15179676 -0.5720875 -0.5599803 -0.19035427
000030 a2 fa e3 3e 48 af 9a be e8 78 d2 be d3 72 12 3f
       0.44527155 -0.30211854 -0.4110787 0.5720646
000040 7c d3 16 3e 6a a2 62 3c da a1 35 bf 28 f0 f0 bb
       0.14729112 0.013832668 -0.7095009 -0.0073528476
000050 58 3f 0e bf b0 cb ec 3d b1 b9 fd be 54 24 49 be
       -0.55565405 0.11562288 -0.49555734 -0.19642764
000060 f8 9d 10 bf bb 79 31 3d 80 51 24 bf 20 e0 37 3f
       -0.5649104 0.04332898 -0.6418686 0.7182636
000070 37 83 37 bf b5 df cf be 4a a4 40 3e 82 bf 02 3f
       -0.7168459 -0.40600362 0.18812671 0.5107347

static_variable_selection.flattened_grn.gate_norm.glu.fc.bias f4 [8]
000000 2c fd 05 be 7c d7 97 bd 2c 5c db 3d 9b 5a 65 3c
       -0.13084859 -0.07414147 0.1071094 0.013998653
000010 5a af 8c 3d db 41 87 3d 76 a6 35 bb 9d ba cb 3b
       0.06869383 0.06604358 -0.0027717627 0.0062173144

static_variable_selection.flattened_grn.gate_norm.add_norm.norm.weight f4 [4]
000000 0c 1d 41 3f 40 67 77 3f ba 58 83 3f 7a 50 87 3f
       0.75434947 0.9664192 1.0261452 1.0571434

static_variable_selection.flattened_grn.gate_norm.add_norm.norm.bias f4 [4]
000000 fe 74 3d be 24 e9 ea bd 42 5b 77 3d 9a e7 05 3d
       -0.1850166 -0.11470249 0.060389765 0.032691576

static_variable_selection.single_variable_grns.article.mask f4 [6]
000000 77 ee 27 3c a4 31 23 3c 24 5d 99 bc 3a c6 28 3e
       0.010249726 0.009960566 -0.01872117 0.16481867
000010 2b 89 32 bd 3f 2b b7 bd
       -0.043587845 -0.089437954

static_variable_selection.single_variable_grns.article.norm.weight f4 [6]
000000 3a 17 63 3f ea 3d 81 3f d0 cb 56 3f 84 cf 79 3f
       0.88707316 1.009702 0.83904743 0.9758227
000010 d1 ff 72 3f e0 83 5c 3f
       0.94921595 0.86138725

static_variable_selection.single_variable_grns.article.norm.bias f4 [6]
000000 8e 62 67 be 2d ec eb 3d e6 a2 d3 bc cc 5b 33 3e
       -0.2259619 0.11519656 -0.025834512 0.17515486
000010 60 e3 45 bb 1e c0 56 bd
       -0.003019534 -0.05242931

static_variable_selection.single_variable_grns.encoder_length.resample_norm.mask f4 [6]
000000 a6 00 ff bd f2 3e 11 3d 2a ed c5 3d ea f7 a1 bd
       -0.124512956 0.03546042 0.09664376 -0.07908614
000010 fe f7 eb b9 98 dc e1 3c
       -0.0004500746 0.027571008

static_variable_selection.single_variable_grns.encoder_length.resample_norm.norm.weight f4 [6]
000000 84 0c 6b 3f f2 34 92 3f d0 eb 8b 3f 82 fe 6c 3f
       0.9181597 1.1422408 1.0931339 0.9257585
000010 28 ec 80 3f a4 45 83 3f
       1.0072069 1.0255628

static_variable_selection.single_variable_grns.encoder_length.resample_norm.norm.bias f4 [6]
000000 ab 80 a3 bd 52 36 13 3e 62 3a f0 bd 1d 58 9c 3d
       -0.07983526 0.1437619 -0.11729886 0.07633994
000010 8e 3b 00 bc 88 2d c7 bc
       -0.007826699 -0.024313703

static_variable_selection.single_variable_grns.encoder_length.fc1.weight f4 [3, 3]
000000 68 ad 7d be 68 75 38 bf 8e f6 5b bf b0 f3 5e bf
       -0.2477318 -0.7205415 -0.8592309 -0.8709059
000010 e8 d9 25 bf 14 4f 3f 3f f0 7a cc 3e 73 be f8 bd
       -0.64785624 0.7473004 0.39937544 -0.121457
000020 04 5b 10 3f
       0.5638888

static_variable_selection.single_variable_grns.encoder_length.fc1.bias f4 [3]
000000 3e 9c 09 bd fa 95 95 3d 4c ea f7 3c
       -0.03359627 0.073039964 0.030263089

static_variable_selection.single_variable_grns.encoder_length.fc2.weight f4 [3, 3]
000000 96 4a 82 3e 8e 5c 3b bf fc eb 0e bf f4 b6 96 bf
       0.2544753 -0.731881 -0.55828834 -1.1774583
000010 9e 0a 0e 3f fb 8b 18 40 5c c4 0f 3f ac 2c f8 3e
       0.5548495 2.3835437 0.56158996 0.48471582
000020 0c eb e9 be
       -0.4568714

static_variable_selection.single_variable_grns.encoder_length.fc2.bias f4 [3]
000000 be c4 70 bd 4e 94 30 3c 70 df 10 bd
       -0.058781378 0.010777546 -0.035369337

static_variable_selection.single_variable_grns.encoder_length.gate_norm.glu.fc.weight f4 [12, 3]
000000 62 0c 28 bf 99 63 fa be 6e 89 c9 be c6 59 e5 be
       -0.65643895 -0.48904112 -0.39362663 -0.44795054
000010 0a d3 03 bf 69 bb 0c 3f 42 1d 9d 3e 57 79 7c be
       -0.51493895 0.54973465 0.30686384 -0.24655662
000020 61 ec 05 3f 77 43 69 be a8 84 a8 be 30 3b e0 be
       0.5231381 -0.22779642 -0.3291371 -0.43795156
000030 08 42 63 bd 9c 28 80 3e 53 26 fb 39 06 48 e7 be
       -0.055482894 0.25030982 0.00047903004 -0.45172137
000040 14 be 0b bf be 42 ff 3e 54 47 f5 3e 26 ff 00 3f
       -0.5458691 0.49855608 0.47905982 0.50389326
000050 4a 60 ac be ea 40 0b 3f ea 07 c5 3c e1 43 db 3e
       -0.33667213 0.54395926 0.024051625 0.42825225
000060 72 c8 d0 be ed 3c f7 3e 76 18 0b 3f 60 b3 a1 3e
       -0.40777928 0.4828867 0.543342 0.31582165
000070 aa e4 77 be 44 05 61 3e a9 fb cf be df 54 41 3e
       -0.24208322 0.21974665 -0.4062169 0.18880032
000080 fe db c3 be 64 ff 15 bf 28 22 07 bf b3 31 05 3f
       -0.38253778 -0.5859282 -0.52786493 0.5202896

static_variable_selection.single_variable_grns.encoder_length.gate_norm.glu.fc.bias f4 [12]
000000 cd 6c ed bd 18 df 0e 3e a1 11 fd bd b8 06 9d 3d
       -0.11593018 0.13952291 -0.12356878 0.07667297
000010 90 f5 37 bc bf 45 26 bd b6 73 74 3d e4 97 2e 3d
       -0.01122798 -0.04059386 0.059680663 0.042625323
000020 09 a8 a3 bd b0 91 43 bc a6 aa 2d bd 2e 78 82 bd
       -0.079910345 -0.01193659 -0.04239907 -0.06370579

static_variable_selection.single_variable_grns.encoder_length.gate_norm.add_norm.norm.weight f4 [6]
000000 e8 23 5f 3f 87 f3 8c 3f b8 10 81 3f b2 73 63 3f
       0.87164164 1.1011819 1.0083227 0.8884841
000010 34 28 6f 3f 6b 38 73 3f
       0.9342072 0.9500796

static_variable_selection.single_variable_grns.encoder_length.gate_norm.add_norm.norm.bias f4 [6]
000000 50 7c f4 bd 61 cf e0 3d dc 0b e1 bd 9e 27 d8 3d
       -0.11937773 0.109770544 -0.1098859 0.105544314
000010 79 dd 5d 3d e0 13 c7 bb
       0.05416629 -0.0060753673

static_variable_selection.single_variable_grns.views_center.resample_norm.mask f4 [6]
000000 ce 0f 2d 3d 22 e9 a0 bd a8 58 01 3d 12 ac 24 bb
       0.0422514 -0.078569666 0.03157869 -0.0025126976
000010 c6 7b 39 bd 1e 02 3a bc
       -0.045284055 -0.011353044

static_variable_selection.single_variable_grns.views_center.resample_norm.norm.weight f4 [6]
000000 41 90 83 3f 64 2f 6b 3f a2 6e 82 3f 7a 87 80 3f
       1.0278398 0.9186919 1.0190012 1.0041344
000010 44 13 73 3f bd ef 7f 3f
       0.9495127 0.99975187

static_variable_selection.single_variable_grns.views_center.resample_norm.norm.bias f4 [6]
000000 f7 cd c7 3c 28 88 18 bd d4 3d 1e bc ba a6 aa bb
       0.024390204 -0.037239224 -0.009658296 -0.0052078636
000010 27 81 dc bc 35 38 5b 3d
       -0.026917053 0.0535204

static_variable_selection.single_variable_grns.views_center.fc1.weight f4 [3, 3]
000000 26 0e 4a 3e b4 fb 37 3e be b9 e3 bd 2e 2b 94 3f
       0.1973196 0.17967111 -0.11119412 1.1575677
000010 5b c6 46 bf 1a 28 63 3f b1 02 2d 3f 10 5d f5 bd
       -0.77646416 0.88733065 0.6758223 -0.11980641
000020 d8 6c 6d 3f
       0.9274421

static_variable_selection.single_variable_grns.views_center.fc1.bias f4 [3]
000000 2c 29 b2 3c 87 8b 28 bd a9 e7 67 3d
       0.021748148 -0.04114869 0.056617413

static_variable_selection.single_variable_grns.views_center.fc2.weight f4 [3, 3]
000000 ca 45 46 bf 88 d9 28 be 4a 9f 8f 3e b2 10 45 40
       -0.7745024 -0.16489232 0.28051215 3.079144
000010 9a 47 bc 3e 6c 6c 09 bf 33 0f 75 bf b0 8e 83 3f
       0.36773378 -0.53681064 -0.9572632 1.027792
000020 48 11 2d bf
       -0.67604494

static_variable_selection.single_variable_grns.views_center.fc2.bias f4 [3]
000000 fa d1 9b 3d 26 3e 22 3d 3a 3b 7a 3a
       0.07608409 0.03961005 0.00095455686

static_variable_selection.single_variable_grns.views_center.gate_norm.glu.fc.weight f4 [12, 3]
000000 8a ad db bc 65 30 7e be 50 64 37 bb 54 8e c7 bd
       -0.026816148 -0.24823149 -0.0027983375 -0.09743944
000010 50 c5 aa bd c5 07 fe 3e 10 3f 0d bf 38 12 5d 3e
       -0.083384156 0.49615303 -0.5517435 0.21588981
000020 7b fc b4 3e 50 ab c4 bd ab aa fd be c7 d3 9a be
       0.35348877 -0.09602988 -0.49544272 -0.30239698
000030 2c be db be aa 68 95 bd bd e1 b0 3c 10 0a e7 3e
       -0.42918527 -0.07295354 0.021592015 0.45124865
000040 54 e1 82 3e 00 bb f1 be a2 e8 e6 bd 86 9a 0b bf
       0.25562537 -0.47212982 -0.1127484 -0.5453266
000050 91 8d 08 bf 85 3d a6 3d 72 4a 43 3e 2a 3d 93 be
       -0.53341013 0.08117203 0.19071367 -0.28757602
000060 18 4b 26 3d d4 aa 82 3e 3f 25 18 bf 84 32 07 bf
       0.04059896 0.25520957 -0.59431833 -0.52811456
000070 e5 6d 99 bd 65 a1 ad 3c aa 58 af be c0 f0 05 be
       -0.07491664 0.021195123 -0.34247333 -0.1308012
000080 4a fd 22 3e 42 71 88 3e 70 c2 9d be 9c cf 92 3a
       0.15916935 0.2664891 -0.30812407 0.0011200788

static_variable_selection.single_variable_grns.views_center.gate_norm.glu.fc.bias f4 [12]
000000 e2 a0 40 3c 6a 51 14 bd 9f 61 b0 39 fe a4 1a bc
       0.011757107 -0.036210455 0.0003364207 -0.009438751
000010 90 d1 de bc 22 02 84 3d a2 64 7f bd f0 00 b2 3c
       -0.027199537 0.06445719 -0.06235183 0.021728963
000020 9c a9 1b 3d d3 a6 fd bc b8 ee 69 bc 3a 66 60 39
       0.03800355 -0.030963337 -0.014278106 0.00021400387

static_variable_selection.single_variable_grns.views_center.gate_norm.add_norm.norm.weight f4 [6]
000000 c0 8b 83 3f 54 33 6d 3f 7a 38 8c 3f 65 b0 75 3f
       1.0277023 0.92656446 1.0954735 0.9597228
000010 1f b5 7c 3f dc 3e 84 3f
       0.9871387 1.0331683

static_variable_selection.single_variable_grns.views_center.gate_norm.add_norm.norm.bias f4 [6]
000000 42 6f 58 3c 15 62 2a bd e0 43 1a 3d 80 35 31 bd
       0.01321012 -0.041597445 0.037662387 -0.043263912
000010 3a 0b c0 bc 9a a9 a6 3c
       -0.023442853 0.020344544

static_variable_selection.single_variable_grns.views_scale.resample_norm.mask f4 [6]
000000 f6 cb 7e bd ea bb dc 3d 6e 69 24 bd 37 42 40 bd
       -0.06220623 0.10778029 -0.040139608 -0.046938147
000010 3a af 63 3b b2 a4 4e bd
       0.0034741894 -0.050450034

static_variable_selection.single_variable_grns.views_scale.resample_norm.norm.weight f4 [6]
000000 04 41 78 3f e0 e6 8b 3f 80 31 80 3f a2 d3 7c 3f
       0.96974206 1.0929832 1.0015106 0.98760426
000010 24 6a 79 3f ab 68 81 3f
       0.9742758 1.0110067

static_variable_selection.single_variable_grns.views_scale.resample_norm.norm.bias f4 [6]
000000 ca 2e b8 3b 18 0a 5c bd 8c 66 2a bd ba 61 59 3d
       0.005620812 -0.053720564 -0.041601703 0.053071715
000010 ae ca cf bc 66 17 18 3d
       -0.0253652 0.03713169

static_variable_selection.single_variable_grns.views_scale.fc1.weight f4 [3, 3]
000000 ec 5a 83 bf d2 01 c2 be ca 7a f0 3d 82 64 d1 3f
       -1.0262122 -0.37892014 0.1174217 1.6358798
000010 f6 88 a8 bf b6 ae a7 be a8 63 69 bd ac 4f 75 be
       -1.3166797 -0.3275048 -0.056979805 -0.23956174
000020 20 0d 11 3f
       0.5666065

static_variable_selection.single_variable_grns.views_scale.fc1.bias f4 [3]
000000 22 88 7a bb d2 79 d8 bd a6 be a6 bc
       -0.0038228114 -0.105701104 -0.02035458

static_variable_selection.single_variable_grns.views_scale.fc2.weight f4 [3, 3]
000000 ac 7f b8 bd 4e 67 20 3f 44 94 b8 3f 8f 71 8e 3e
       -0.090087265 0.6265763 1.4420247 0.27821013
000010 a4 5b 3d be 8a 66 f1 bf 02 df 53 3f 28 56 4a be
       -0.1849199 -1.8859417 0.8276216 -0.19759429
000020 ac 1f 0f c0
       -2.236308

static_variable_selection.single_variable_grns.views_scale.fc2.bias f4 [3]
000000 ac a9 11 be 2a 3c 84 3c 62 7f 0d 3c
       -0.14224881 0.01614197 0.008636327

static_variable_selection.single_variable_grns.views_scale.gate_norm.glu.fc.weight f4 [12, 3]
000000 53 ac 1b 3f 03 a2 06 bf a2 c3 b3 bc 92 8f 09 bf
       0.6080982 -0.5259096 -0.021943871 -0.53734696
000010 f7 05 04 3f e6 0f 28 3f 1a b7 be 3e ea 27 03 3f
       0.515716 0.6564926 0.3724907 0.5123278
000020 1c 1d a0 be 34 96 07 bf 0c e7 7d be 64 14 1b bf
       -0.3127221 -0.52963567 -0.24795169 -0.6057799
000030 c6 2c d6 be e4 fd 86 be 70 26 2e 3e d6 e4 9d bb
       -0.41831034 -0.26365578 0.1700685 -0.004818539
000040 94 dc 0f be 28 46 03 bf 24 da 9f 3e a0 63 f7 3e
       -0.14048988 -0.51278925 0.31221116 0.48318195
000050 e8 5f 0a bf d0 7e c8 be 41 ac 16 bf da 79 dc be
       -0.5405259 -0.3915925 -0.5885659 -0.43061715
000060 90 a1 fa 3d e0 89 ba 3e 7d c2 f7 bd 54 46 c3 3e
       0.12237847 0.36433315 -0.120976426 0.38139594
000070 16 1f 1e 3b c0 ed f5 be 2c d8 0d bf d8 04 00 bf
       0.0024127415 -0.4803295 -0.5540798 -0.5000739
000080 74 9e c8 be e0 91 76 3d c2 a0 8a 3e 12 83 78 be
       -0.3918339 0.06019771 0.27075773 -0.2426875

static_variable_selection.single_variable_grns.views_scale.gate_norm.glu.fc.bias f4 [12]
000000 33 8d 43 3b 9c f1 4e bd 72 6c 23 bd a8 54 82 3d
       0.00298388 -0.050523385 -0.039898343 0.06363803
000010 98 2e d1 bc 54 a6 ec 3c 43 1d 10 bd 1c 30 0d 3d
       -0.025534913 0.028887905 -0.035184156 0.03446971
000020 6a 28 59 bd 6e 97 3a bd b8 0d 72 3c 78 b5 ba 3c
       -0.053017057 -0.04555457 0.014773779 0.02279161

static_variable_selection.single_variable_grns.views_scale.gate_norm.add_norm.norm.weight f4 [6]
000000 ec 51 80 3f e4 e1 84 3f eb e1 7b 3f 70 df 75 3f
       1.0025 1.0381436 0.983916 0.96044064
000010 20 aa 78 3f 5e 22 84 3f
       0.9713459 1.0322988

static_variable_selection.single_variable_grns.views_scale.gate_norm.add_norm.norm.bias f4 [6]
000000 5d 25 98 3c 10 b7 5c bd 1b 95 bf bd 58 bf e9 3c
       0.018572504 -0.05388552 -0.093546115 0.028533623
000010 3e 41 af bb a8 09 67 3d
       -0.0053483536 0.056405693

static_variable_selection.prescalers.encoder_length.weight f4 [3, 1]
000000 7f 19 0f 3f 5c d4 64 be 88 04 b8 be
       0.5589828 -0.22346634 -0.35940957

static_variable_selection.prescalers.encoder_length.bias f4 [3]
000000 36 d2 bb 3e d6 64 14 bf fa e3 1e bf
       0.36683816 -0.57966363 -0.62066615

static_variable_selection.prescalers.views_center.weight f4 [3, 1]
000000 d6 0c 60 3e 7d 12 1c 3f ce 10 2c bf
       0.21879897 0.6096571 -0.6721314

static_variable_selection.prescalers.views_center.bias f4 [3]
000000 b6 85 33 bf 2d b7 36 3f e8 47 b2 be
       -0.701259 0.71373254 -0.34820485

static_variable_selection.prescalers.views_scale.weight f4 [3, 1]
000000 2b 7c 3f bf 84 7d 6d bf 0e fd 20 3f
       -0.7479884 -0.92769647 0.6288613

static_variable_selection.prescalers.views_scale.bias f4 [3]
000000 41 e2 33 3e 2e 3f fc be 6a 88 ca be
       0.17566778 -0.49266952 -0.395572

encoder_variable_selection.flattened_grn.resample_norm.mask f4 [6]
000000 e8 db 2d bd 28 e6 ac bb 5c d7 f0 bc 54 44 2e be
       -0.042446047 -0.00527646 -0.029399566 -0.17018253
000010 32 ba ae 3d 79 51 ae 3d
       0.08531608 0.085116334

encoder_variable_selection.flattened_grn.resample_norm.norm.weight f4 [6]
000000 c0 10 56 3f 71 86 70 3f 5e 46 72 3f 6c 6d 52 3f
       0.8361931 0.9395514 0.9463862 0.82198215
000010 f5 98 77 3f 26 75 7b 3f
       0.9671777 0.9822563

encoder_variable_selection.flattened_grn.resample_norm.norm.bias f4 [6]
000000 ae b2 da 3d 1a 11 13 be 42 9a 8a 3d f9 97 c6 bd
       0.10678612 -0.14361992 0.067677036 -0.09696955
000010 38 04 c3 3d 0e 01 9e 3c
       0.09522289 0.019287612

encoder_variable_selection.flattened_grn.fc1.weight f4 [6, 25]
000000 08 0f 55 3e 5e 38 08 3e d8 82 91 bd 00 d2 a6 3e
       0.20806515 0.13302752 -0.071050346 0.32582092
000010 18 58 d4 bd 6a 1f 8f 3e 58 89 ff 3e 95 26 1a bd
       -0.10368365 0.27953655 0.49909472 -0.03763445
000020 08 6d e4 3d f9 98 1f bf 08 24 cf bd c6 36 db 3e
       0.111536086 -0.6234279 -0.10114294 0.42815226
000030 78 84 bb bb 5c 16 28 bf 97 b8 d9 3e a8 c7 48 3e
       -0.0057225786 -0.6565912 0.42523643 0.19607413
000040 fa bb 02 3d 0a fb 01 3e 06 b8 a8 be 1a 46 58 be
       0.03191755 0.1269342 -0.329529 -0.21120492
000050 7c 07 7d be ba 9f ad 3d 7c 3c 0b bf 62 4d 11 3f
       -0.24709886 0.08477731 -0.54389167 0.567587
000060 a8 3f b0 bc 08 cc 6c be df 2f fe bd 96 50 ac be
       -0.021514729 -0.23124707 -0.124114744 -0.33655232
000070 60 0e 97 3e 3f b3 87 3b b9 24 fc be 42 14 94 3e
       0.29503155 0.004141241 -0.49246767 0.28921705
000080 70 df 8f be fe 90 19 3e 4e a2 67 be b1 4e c9 be
       -0.28100157 0.14996716 -0.22620508 -0.3931785
000090 d8 0d 00 bf a8 b9 83 3d ac c0 1b 3e 13 ff 31 be
       -0.50021124 0.064318955 0.15210217 -0.1738246
0000a0 ea f5 4b 3e a8 8a cd bd 0e de 1b bf ca 78 82 3e
       0.19918028 -0.10036212 -0.60885704 0.2548278
0000b0 96 6e 00 be e4 57 05 bf be 3b 8e be dc 1a 59 3e
       -0.12542185 -0.52087235 -0.27779955 0.21201652
0000c0 a2 8d a0 bd 00 1e 5b be 7f a0 ec 3e 19 d7 a9 3e
       -0.07839514 -0.21398163 0.462162 0.3317192
0000d0 26 6c 18 be b2 be 21 be 10 54 a6 bc d5 28 08 3e
       -0.14885005 -0.157954 -0.020303756 0.13296826
0000e0 28 c3 42 3e ec b3 b9 3e d8 4b b4 3e 8d ff 7a be
       0.19019759 0.36270082 0.35214114 -0.24511547
0000f0 95 73 8a be 01 f7 42 bd 1a 34 c7 3d 28 a2 01 bf
       -0.27041307 -0.047598843 0.097267345 -0.50638056
000100 9c 8d fc be e4 2f 31 3e be 36 0b bd 33 f8 cc be
       -0.4932679 0.17303425 -0.033987753 -0.4003311
000110 ec b7 bb 3e 64 d1 4b be 7f 0a 8d 3e d9 e1 5a 3d
       0.3666376 -0.19904095 0.2754707 0.05343804
000120 d7 10 0e 3f 80 64 b1 3e e0 6e 6d bd 58 39 9f 3e
       0.55494446 0.34646988 -0.057967067 0.31098437
000130 22 e8 a4 bd ca df 0f be 1a e8 b7 3e bc 2c 54 3e
       -0.08052088 -0.14050213 0.35919267 0.2072019
000140 52 05 51 bd 04 9f 51 3e e8 5b bc be 92 4b 16 be
       -0.051030464 0.20470816 -0.3678887 -0.14677265
000150 2c d3 dc be 9e 7e c4 3e e3 ec ad 3e b1 a5 cc bd
       -0.4312986 0.3837785 0.33969793 -0.09992541
000160 32 79 23 be 8e 4a 4a be a3 58 a2 3e c2 ec 59 3e
       -0.15964201 -0.19755003 0.3170825 0.21281722
000170 63 6b 46 bd b0 92 4f be 0f 13 11 bf a6 b8 a4 bd
       -0.048442256 -0.202708 -0.56669706 -0.080430314
000180 d4 27 a3 3e ac de 4f 3e 64 92 15 3e 38 e4 87 3e
       0.31866324 0.20299786 0.14606625 0.26541305
000190 4e 8b 42 be 58 7c df 3c 7a 3c 0c 3e 16 95 c3 3d
       -0.18998453 0.027280971 0.13694945 0.0954992
0001a0 d2 f5 a6 3e 1c 8d 0c bf e0 55 4f 3d 35 5e 89 be
       0.3260942 -0.54902816 0.050619006 -0.26829687
0001b0 2c 89 b3 3e f4 45 84 be bc 2e 65 be 98 b3 eb bd
       0.3506559 -0.2583462 -0.22381109 -0.11508864
0001c0 e4 9f 14 3e b2 93 47 3e b0 cc 54 be 46 c7 b8 3c
       0.14514118 0.19489935 -0.20781207 0.022555958
0001d0 62 6a 86 3e 9d 4a e0 bd 22 b7 65 be 26 bb 50 be
       0.2625304 -0.10951731 -0.22433141 -0.20383891
0001e0 6d c0 6b bc 02 c7 4e bd 40 9f 88 bd 3c e7 a9 3d
       -0.01438914 -0.050482757 -0.066709995 0.082960576
0001f0 74 03 c8 3e 55 5b 0b be ae 98 aa be 52 30 1b 3b
       0.39065135 -0.13609059 -0.3331961 0.0023679924
000200 d6 ce 45 3e 96 3d b8 be c8 11 12 3f 4c d5 37 3e
       0.19317183 -0.35984486 0.5705838 0.1795246
000210 4a 92 b1 bd 52 31 c1 bd 8e 36 af be 26 bd a6 be
       -0.086704805 -0.09433235 -0.3422131 -0.32566184
000220 e4 79 8a be a6 c2 9f 3d c0 20 a8 3d 4e a7 b6 be
       -0.2704612 0.07800798 0.082093716 -0.35674518
000230 c8 1b 7d be 71 00 43 be 30 eb 6e be 3b 5f b7 bc
       -0.24717629 -0.19043137 -0.23331904 -0.022384277
000240 c4 7f aa be 68 0a b8 be 56 79 0a 3e 72 69 41 be
       -0.33300602 -0.3594544 0.13522848 -0.1888788
000250 58 43 f5 3d 46 82 76 3e
       0.119757354 0.24073133

encoder_variable_selection.flattened_grn.fc1.bias f4 [6]
000000 5e 71 81 bd 86 05 af 3d 51 fb 5f ba 90 79 d0 bc
       -0.06320451 0.085459754 -0.0008544224 -0.02544859
000010 24 12 e1 bc 04 85 01 bb
       -0.02747447 -0.0019763121

encoder_variable_selection.flattened_grn.context.weight f4 [6, 6]
000000 06 80 7e be a6 cd b6 be 00 d2 20 3e 80 9d bd 3e
       -0.24853525 -0.35703772 0.15705109 0.37034225
000010 6c d3 82 be 3e 68 5a be d5 15 a1 3d 8a 73 b1 be
       -0.25551927 -0.21328828 0.07865492 -0.34658462
000020 5b c0 16 bf 15 bb 91 3e f1 67 b1 bd 08 d8 c4 3e
       -0.5888726 0.28463045 -0.086624034 0.3844607
000030 5e 2c ef be 52 ca 33 3f 97 56 1c be 5c cc 5d bd
       -0.46713537 0.7023059 -0.15267406 -0.05414997
000040 f4 3e 0a bf 5a 57 c7 be d0 0e 39 bf 24 fa e9 be
       -0.5400231 -0.3893383 -0.7228823 -0.45698655
000050 07 df 3d 3e 96 f2 e2 be d7 02 51 be 9b a0 0e bf
       0.1854211 -0.44325703 -0.2041124 -0.55713814
000060 fc 04 24 bf 62 21 3a 3f bc 65 09 3f 64 50 51 be
       -0.64070106 0.7270719 0.5367086 -0.20440823
000070 76 25 e8 3e d8 5f 4a 3e 7a 4b 25 3f 5c 26 f4 be
       0.4534108 0.19763124 0.64568293 -0.47685516
000080 5e 3a 3e 3f 8c 20 d7 bd e4 30 22 bf ec 47 09 3f
       0.7430781 -0.10504255 -0.6335585 0.5362537

encoder_variable_selection.flattened_grn.fc2.weight f4 [6, 6]
000000 ce df 55 3f bb dc 05 3f 11 4c 26 3f 28 67 36 3e
       0.83544624 0.5228993 0.6495982 0.17812788
000010 68 6e 2b 3f 50 e5 d6 3e 46 08 46 bf 38 d9 80 3f
       0.6696534 0.41971827 -0.77356374 1.006629
000020 5e 23 f0 3e c8 3d 61 3f 28 85 5c be f1 e5 dd 3e
       0.46901983 0.87984896 -0.2153517 0.43339494
000030 4b 28 80 bf 2f 29 31 3e f6 49 8f bf c6 fe 6c bf
       -1.0012296 0.17300867 -1.1194446 -0.92576253
000040 38 31 a6 be 26 0f 12 bf 12 88 1b 3e bf ff 0c bf
       -0.32459426 -0.57054365 0.15188625 -0.5507774
000050 8c 32 2e bd ee 96 b2 3e 8a 87 31 3f a5 5e bb 3e
       -0.042528674 0.34880775 0.6934744 0.36595646
000060 42 aa 7b 3e c0 89 21 3e aa 89 bb bd ae 0f 47 be
       0.24576667 0.15775204 -0.09157117 -0.19439575
000070 2e 55 58 bf 10 0b a2 3f 44 57 7e bd 31 2b fa be
       -0.84504974 1.2659626 -0.06209494 -0.48861077
000080 24 02 61 3d 0c ba 17 3f 8f 3b 81 3f be 9e 38 3f
       0.054933682 0.5926826 1.0096301 0.7211722

encoder_variable_selection.flattened_grn.fc2.bias f4 [6]
000000 6c 1f ba 3c 2b 56 7c 3c a6 c2 79 3d 9c cc aa 3d
       0.022720061 0.015401403 0.060976647 0.083398074
000010 10 a6 5e 3d 6e 20 09 be
       0.05435759 -0.13391277

encoder_variable_selection.flattened_grn.gate_norm.glu.fc.weight f4 [12, 6]
000000 30 c1 a6 be 23 8e aa 3e 38 d7 6c be 3e 25 11 bf
       -0.32569265 0.33311567 -0.23128974 -0.5669745
000010 cf f7 4b be 83 de fa be ed 09 12 bf ac 99 93 3e
       -0.1991875 -0.48997888 -0.57046396 0.2882818
000020 35 51 a3 be d4 fb 91 be 82 e4 b9 3d 33 19 60 3e
       -0.31897894 -0.28512442 0.090767875 0.21884613
000030 34 83 f0 be 40 e6 bf 3e 2a 3f 18 be 80 b1 df 3e
       -0.469751 0.37480354 -0.14867845 0.4369011
000040 c4 00 02 3f 43 a8 8d 3d f7 e6 cb 3e b1 85 a8 3e
       0.5078242 0.06916859 0.3982465 0.32914498
000050 36 1e 0c bf 3e 3e e0 3e 86 25 8c bd 5e 56 b1 3e
       -0.547336 0.43797487 -0.068430945 0.34636205
000060 74 2e 6b 3e 6a a5 d7 be ac bb 63 be e5 b1 b0 3e
       0.22966939 -0.42118388 -0.2223956 0.34510723
000070 20 3a 3e be f6 36 53 3e c2 37 13 be 22 5b 19 3c
       -0.1857686 0.20626435 -0.14376739 0.009360107
000080 4c 02 f2 bd b0 3d 8c 3e 75 bc 41 3d f8 58 a9 be
       -0.11816844 0.27390814 0.047298867 -0.3307569
000090 40 df fe be 2e fc b8 3e 1a 13 1a be 5a 73 e3 be
       -0.497797 0.36129898 -0.15046349 -0.44423944
0000a0 3e af e8 be d8 9c 12 bf 08 23 3c be 7d 5c e0 3e
       -0.454462 -0.57270575 -0.18372738 0.43820563
0000b0 be 4f ce be fc 66 fa 3e 9a 18 08 bf 44 d2 5b 3e
       -0.40295213 0.48906696 -0.5316254 0.21466929
0000c0 00 16 ef 3e 1f 1f 00 3f 16 95 eb 3d eb c1 ae bd
       0.46696472 0.5004749 0.11503045 -0.08533081
0000d0 08 a7 a2 3e ed 7c da bd c1 33 e7 be e6 e7 0c 3f
       0.3176806 -0.10668359 -0.45156673 0.5504135
0000e0 ff e0 b1 be f4 c9 e6 be 08 2b 15 bf 6c 9b b9 3d
       -0.3474197 -0.45075953 -0.58268785 0.090628475
0000f0 e1 19 98 3e 74 d8 fa 3e f6 f8 c7 be 40 63 82 be
       0.29707244 0.48993266 -0.3905713 -0.25466347
000100 40 f6 08 bf ca c0 cb be 4b f8 19 bf 9f 5b c5 be
       -0.5350075 -0.39795524 -0.6014449 -0.38546464
000110 c8 5f ae be 10 27 02 bf 0e 73 09 3e 0e 9b f4 be
       -0.3405745 -0.50840855 0.13422796 -0.47774547

encoder_variable_selection.flattened_grn.gate_norm.glu.fc.bias f4 [12]
000000 ee 4e 73 3d 5e 77 e8 bd 96 54 90 3d e8 d9 08 bd
       0.059401445 -0.113508925 0.070473835 -0.033410937
000010 cd 53 6f 3d 1a d3 76 3d 8e 76 63 3c f0 f4 d6 bd
       0.058429528 0.060259916 0.013883246 -0.10495937
000020 ef 37 36 3e 3e 10 1f 3c 85 f0 cc bd 0a 7e 29 bd
       0.17794774 0.009708462 -0.10006813 -0.041379966

encoder_variable_selection.flattened_grn.gate_norm.add_norm.norm.weight f4 [6]
000000 68 19 87 3f d6 f5 64 3f 72 2d 8d 3f f8 0e 86 3f
       1.0554628 0.89437616 1.1029494 1.0473318
000010 66 1f 72 3f da bc 82 3f
       0.9457916 1.0213883

encoder_variable_selection.flattened_grn.gate_norm.add_norm.norm.bias f4 [6]
000000 40 d6 73 3d 39 6a 2b be 5c 34 83 3d 22 d2 29 bd
       0.059530497 -0.1673974 0.06406471 -0.041460164
000010 02 0c 14 3d 4b 68 ad 3c
       0.036144264 0.021167895

encoder_variable_selection.single_variable_grns.dayofweek.mask f4 [6]
000000 ab e9 6a 3d 78 6e 8c bd ba 6a 04 3e fc 7b 29 3d
       0.05735175 -0.06857008 0.12931338 0.041378006
000010 d6 14 6a bd 92 62 64 3d
       -0.057148777 0.055758066

encoder_variable_selection.single_variable_grns.dayofweek.norm.weight f4 [6]
000000 73 9e 89 3f 25 12 72 3f 98 4a 8d 3f bf 25 84 3f
       1.075148 0.94558936 1.1038389 1.0324019
000010 b8 f8 7c 3f ca 2d 82 3f
       0.98817015 1.0170224

encoder_variable_selection.single_variable_grns.dayofweek.norm.bias f4 [6]
000000 1c cb e4 bd ac d6 06 3d d8 ab 8c 3d dd 6a 51 3d
       -0.111715525 0.03291957 0.06868714 0.051127303
000010 f8 79 18 bd 14 5b ae 3d
       -0.037225693 0.085134655

encoder_variable_selection.single_variable_grns.month.mask f4 [6]
000000 a0 08 b6 bc e4 7b d2 3d 1b dc 10 3d e7 bf 8d 3c
       -0.02222091 0.102775365 0.03536616 0.01730342
000010 3a f2 67 3d 11 4b 43 be
       0.05662749 -0.19071604

encoder_variable_selection.single_variable_grns.month.norm.weight f4 [6]
000000 62 ea 80 3f 86 4f 7d 3f fe e6 5c 3f 04 0b 75 3f
       1.0071528 0.9894947 0.86289966 0.95719934
000010 66 bb 86 3f cb 63 54 3f
       1.052594 0.8296477

encoder_variable_selection.single_variable_grns.month.norm.bias f4 [6]
000000 e6 e9 f5 bd 94 96 84 bc 7f 7c 90 39 f2 ce 1d ba
       -0.12007503 -0.016185082 0.00027558577 -0.0006019912
000010 fa d2 e1 3c 64 b8 8a 3d
       0.027566422 0.06773451

encoder_variable_selection.single_variable_grns.year.mask f4 [6]
000000 6a 76 a2 bd b4 e1 2d 3d 1c 5b 48 3d 6b 3e 27 3d
       -0.07932742 0.042451575 0.048915014 0.04083101
000010 37 19 e0 bd 82 d0 9e 3d
       -0.10942309 0.077546135

encoder_variable_selection.single_variable_grns.year.norm.weight f4 [6]
000000 36 28 78 3f 89 2e 8b 3f 0a cb 84 3f af fb 81 3f
       0.9693636 1.0873576 1.0374463 1.0154933
000010 f1 13 72 3f 6e 0f 86 3f
       0.9456168 1.0473459

encoder_variable_selection.single_variable_grns.year.norm.bias f4 [6]
000000 f5 fe f7 bd 43 ae cf 3d f4 e4 9f 3c 07 8e c3 3d
       -0.12109176 0.1014066 0.019518353 0.09548574
000010 64 0f cc bc 8a 79 98 3d
       -0.024909683 0.07445057

encoder_variable_selection.single_variable_grns.log_views.resample_norm.mask f4 [6]
000000 69 f7 15 3d de 34 b1 bd 0a 23 a6 bd bc f0 fa bc
       0.0366129 -0.08652662 -0.08112152 -0.03063237
000010 82 e2 ff 3d e3 62 0b be
       0.12494375 -0.13611941

encoder_variable_selection.single_variable_grns.log_views.resample_norm.norm.weight f4 [6]
000000 02 a8 8c 3f 16 17 6a 3f 80 98 73 3f ea 83 77 3f
       1.0988772 0.91441476 0.9515457 0.9668566
000010 62 e1 8f 3f f0 da 5c 3f
       1.1240656 0.8627157

encoder_variable_selection.single_variable_grns.log_views.resample_norm.norm.bias f4 [6]
000000 fa 62 b4 bd 7e 5d b3 3d da 0f cd bd e8 fe 32 bd
       -0.08807941 0.087580666 -0.10012789 -0.04370013
000010 7e 30 ff 3d 30 3a 0b be
       0.12460421 -0.13596416

encoder_variable_selection.single_variable_grns.log_views.fc1.weight f4 [3, 3]
000000 7e cd 93 bf 2b df 3a 3e f2 2f 21 3f d7 8f f9 3e
       -1.1547086 0.18249194 0.62963784 0.48742554
000010 fc 66 be be 38 c2 2c bf 3a 22 af 3f 2c 55 40 3e
       -0.37187946 -0.67483854 1.368232 0.1878249
000020 ec 25 80 3f
       1.0011573

encoder_variable_selection.single_variable_grns.log_views.fc1.bias f4 [3]
000000 79 e1 4d bd 6a 70 90 3c e6 a3 0c 3d
       -0.050263856 0.017631728 0.034335993

encoder_variable_selection.single_variable_grns.log_views.fc2.weight f4 [3, 3]
000000 90 30 8b 3f 0d bd 51 3f 38 aa 39 3f 05 ca ba 3f
       1.0874195 0.81929094 0.7252536 1.4592901
000010 11 11 8f bf 07 2a 1f bf 76 79 88 bf 1e 64 91 be
       -1.1177083 -0.62173504 -1.0662067 -0.28396696
000020 e2 b9 49 3c
       0.012312384

encoder_variable_selection.single_variable_grns.log_views.fc2.bias f4 [3]
000000 5c 82 bf 3c 20 1e 3e bd 49 9e 29 bc
       0.02337759 -0.04641545 -0.0103526795

encoder_variable_selection.single_variable_grns.log_views.gate_norm.glu.fc.weight f4 [12, 3]
000000 8e cc 23 bf a0 c9 ab 3e 80 b1 d3 be 86 d4 c5 be
       -0.63984 0.33552265 -0.4134636 -0.38638705
000010 4c 7c c1 3d d6 c3 1c bf ee b9 a7 3e 26 e0 d3 be
       0.09447536 -0.6123632 0.3275904 -0.4138195
000020 fa ad 15 be 68 c5 0c 3f 22 76 a4 be c6 72 d4 be
       -0.14617148 0.5498872 -0.32121378 -0.41493815
000030 6c 66 e6 be 70 28 f9 be 59 ae d8 be 24 b0 bd be
       -0.45000017 -0.48663664 -0.42320517 -0.37048447
000040 f2 17 24 bf 08 e0 48 be 84 cf 7f 3e b9 c8 09 3e
       -0.6409904 -0.19616711 0.24981505 0.13455476
000050 1c c0 b0 be 3e 2c c7 3e 24 05 50 3e e2 b8 36 3d
       -0.34521568 0.38900942 0.20314461 0.04460991
000060 ba 55 f3 bc 5c c0 b8 3e 6b 2c a3 3e 46 5e ab 3e
       -0.029703964 0.3608426 0.31869826 0.33470362
000070 80 9f e9 be f4 c3 2a 3f 03 26 a2 be da 25 40 bd
       -0.456295 0.6670525 -0.31669626 -0.046911098
000080 57 1c ad 3e 96 0d a1 3e b8 01 e9 3e e6 3a 19 bf
       0.33810684 0.31455678 0.45509124 -0.59855497

encoder_variable_selection.single_variable_grns.log_views.gate_norm.glu.fc.bias f4 [12]
000000 0a e6 b6 bd e2 50 ca 3d e1 77 59 bd 0c 8d c2 bc
       -0.08930595 0.098787084 -0.05309284 -0.023748897
000010 6b 1b 8c 3d 14 43 0a be fe 61 42 bd f0 85 ab 3b
       0.06841167 -0.13502151 -0.047456734 0.0052344725
000020 84 71 6a bd 94 10 67 bd d8 98 31 bd b3 9a 42 3c
       -0.057237163 -0.056412295 -0.043358654 0.0118777035

encoder_variable_selection.single_variable_grns.log_views.gate_norm.add_norm.norm.weight f4 [6]
000000 aa 09 5a 3f fe ee 90 3f 02 3e 6a 3f 34 dd 72 3f
       0.85170996 1.1322935 0.91500866 0.9486878
000010 fc f3 8b 3f 58 5f 7d 3f
       1.0933833 0.9897361

encoder_variable_selection.single_variable_grns.log_views.gate_norm.add_norm.norm.bias f4 [6]
000000 7a 20 ed bd 71 68 c7 3d 2c 38 e6 bd 24 27 46 bd
       -0.1157846 0.097367175 -0.11241183 -0.04837717
000010 17 68 9b 3d d6 d5 05 bd
       0.07588213 -0.032674633

encoder_variable_selection.single_variable_grns.relative_time_idx.resample_norm.mask f4 [6]
000000 a3 56 b2 bc ae 72 24 3d 0e 8a 2b 3d 6b ba 49 bd
       -0.021769827 0.04014843 0.041879706 -0.049250048
000010 28 c6 e2 bd 3a 6b cb 3c
       -0.110729516 0.024831403

encoder_variable_selection.single_variable_grns.relative_time_idx.resample_norm.norm.weight f4 [6]
000000 6c 8a 6c 3f 3e 83 84 3f 48 f2 7b 3f 3c 95 6d 3f
       0.92398715 1.0352552 0.98416567 0.9280584
000010 72 63 8a 3f 21 54 7f 3f
       1.0811598 0.99737746

encoder_variable_selection.single_variable_grns.relative_time_idx.resample_norm.norm.bias f4 [6]
000000 5e c5 c2 bd bc 8a 14 bd c8 60 3d 3c 80 d9 89 3d
       -0.09510301 -0.03626512 0.011558719 0.06730938
000010 ff 2c e4 3c 8c 81 cb 3b
       0.027853487 0.0062105116

encoder_variable_selection.single_variable_grns.relative_time_idx.fc1.weight f4 [3, 3]
000000 93 e7 0f 3f d0 7f 41 be 7a 0f d3 3e 2d 3d 46 3f
       0.5621273 -0.18896413 0.41222745 0.77437097
000010 b8 85 4f 3f f0 79 ab bf fa ef 29 bf 12 fd c3 bd
       0.81063414 -1.3396587 -0.663818 -0.09569754
000020 b4 0c bf 3e
       0.3731438

encoder_variable_selection.single_variable_grns.relative_time_idx.fc1.bias f4 [3]
000000 59 cd 92 bd 82 97 86 bd 62 65 f3 3d
       -0.07168073 -0.065718666 0.118845716

encoder_variable_selection.single_variable_grns.relative_time_idx.fc2.weight f4 [3, 3]
000000 31 3b c9 bd 39 e9 a3 3f 56 a2 a9 bd bc ed 5e 3f
       -0.09825743 1.2805549 -0.08282916 0.87081504
000010 b0 f7 f5 3e 0e bd b8 bf 28 1d 83 bf 42 f5 ac 3e
       0.48040533 -1.4432695 -1.0243273 0.33780867
000020 56 92 a4 3e
       0.32142895

encoder_variable_selection.single_variable_grns.relative_time_idx.fc2.bias f4 [3]
000000 aa 6e 51 bd 10 ea d4 bd 1a b1 27 3c
       -0.051130928 -0.103962064 0.010235095

encoder_variable_selection.single_variable_grns.relative_time_idx.gate_norm.glu.fc.weight f4 [12, 3]
000000 54 74 1d 3f b3 ca dd 3e bc 77 07 be 45 91 e3 3e
       0.6150563 0.4331871 -0.13229269 0.4444677
000010 d1 06 e9 3e b1 9b b8 3e 23 be 27 3d 86 81 07 bf
       0.45513013 0.36056283 0.040952813 -0.5293201
000020 ff 0b 31 3e 2a 88 49 be 8c e1 91 bd 20 c6 17 bf
       0.17289732 -0.19680849 -0.07123098 -0.5928669
000030 0e b8 fa 3e f9 e1 f7 bd 32 cb e8 3e 64 73 23 3f
       0.48968548 -0.12103648 0.45467526 0.6384795
000040 cd 69 b3 be 32 94 2f be b1 78 00 bf a4 09 12 be
       -0.35041657 -0.17146376 -0.5018416 -0.1426149
000050 c2 8b c8 3e 5c 3f 01 bf fa 43 15 bf 24 7d e2 3d
       0.39169127 -0.50487304 -0.5830685 0.11059025
000060 aa 09 fc 3e 92 a1 fc 3e 93 17 91 3e 03 c2 af be
       0.49226123 0.49342018 0.28338298 -0.34327707
000070 6e 50 d6 be 3c 43 0b bf 06 05 95 be e6 db 11 3e
       -0.41858238 -0.54399467 -0.29105395 0.14244041
000080 a3 e1 33 3e cc 3e b1 3d 89 de fe be 30 32 a3 be
       0.17566542 0.08654556 -0.49779156 -0.31874228

encoder_variable_selection.single_variable_grns.relative_time_idx.gate_norm.glu.fc.bias f4 [12]
000000 c4 60 ae bd 07 c9 15 bd 54 28 30 3c aa e6 81 3d
       -0.0851455 -0.036568668 0.0107518025 0.06342824
000010 70 27 df 3c 6a 40 31 ba 36 c6 45 3d a9 50 ef 3c
       0.027240485 -0.00067616126 0.04828473 0.029213266
000020 7f 3c 41 bd 40 2a 19 3d 4e f4 82 bc bb b8 c5 bb
       -0.047176834 0.03739381 -0.015985634 -0.0060339845

encoder_variable_selection.single_variable_grns.relative_time_idx.gate_norm.add_norm.norm.weight f4 [6]
000000 98 4c 80 3f f9 f9 80 3f df db 84 3f 72 54 77 3f
       1.0023375 1.0076286 1.0379599 0.9661323
000010 e9 2c 91 3f a2 07 82 3f
       1.134183 1.0158579

encoder_variable_selection.single_variable_grns.relative_time_idx.gate_norm.add_norm.norm.bias f4 [6]
000000 c8 3c 24 bd 44 67 7b bc b2 6c 34 bd 76 e7 36 3d
       -0.040097028 -0.015344445 -0.044048972 0.044654332
000010 4d 6f db 3c c8 7f ea 3c
       0.02678647 0.028625384

encoder_variable_selection.single_variable_grns.avg_by_song.resample_norm.mask f4 [6]
000000 30 e6 c7 bd 40 16 ac 3d 1c a8 32 bd 21 06 25 3d
       -0.09760702 0.08402681 -0.043617353 0.040289048
000010 7e 59 03 bd 4e 78 3d 3d
       -0.03206777 0.04625731

encoder_variable_selection.single_variable_grns.avg_by_song.resample_norm.norm.weight f4 [6]
000000 12 4a 75 3f 59 3b 85 3f a6 01 68 3f 6f 2e 69 3f
       0.9581615 1.0408736 0.90627515 0.9108648
000010 8e 2c 68 3f c0 62 8a 3f
       0.90692985 1.0811386

encoder_variable_selection.single_variable_grns.avg_by_song.resample_norm.norm.bias f4 [6]
000000 10 0e ca bd 32 20 ba 3c 80 c7 3e 3c 2c 81 1e 3d
       -0.098659635 0.02272043 0.011644244 0.038697407
000010 aa 13 54 39 68 79 d2 3c
       0.00020225221 0.025692657

encoder_variable_selection.single_variable_grns.avg_by_song.fc1.weight f4 [3, 3]
000000 f8 5e b3 3d 66 70 4a be 87 f7 05 bf d0 f8 8f bf
       0.08758348 -0.19769439 -0.5233082 -1.1247807
000010 9f 9e f1 3d ca aa 98 3f aa 74 e1 3e 08 9b 15 bf
       0.11797833 1.1927121 0.4403432 -0.58439684
000020 02 36 84 be
       -0.25822455

encoder_variable_selection.single_variable_grns.avg_by_song.fc1.bias f4 [3]
000000 98 eb 96 3b f7 ed bf bc 98 cb 2f 3d
       0.0046057217 -0.0234289 0.04291877

encoder_variable_selection.single_variable_grns.avg_by_song.fc2.weight f4 [3, 3]
000000 c2 47 19 bf 6a 0d 86 bf 44 6f 9e 3e 00 fd 68 bf
       -0.5987512 -1.0472844 0.30944264 -0.9101105
000010 76 ed b4 be 34 b7 a8 be ca fd ba bd 4a 49 af 3e
       -0.35337418 -0.32952273 -0.09130438 0.34235603
000020 e4 8a e6 be
       -0.4502784

encoder_variable_selection.single_variable_grns.avg_by_song.fc2.bias f4 [3]
000000 33 f1 6c 3d 44 31 09 bc c9 94 a7 bb
       0.057847213 -0.008373562 -0.005114172

encoder_variable_selection.single_variable_grns.avg_by_song.gate_norm.glu.fc.weight f4 [12, 3]
000000 9f c5 00 be e7 75 e3 be a0 06 85 3e 8d 34 af bd
       -0.12575386 -0.4442589 0.25981617 -0.08554945
000010 6d 79 ac be c2 3a 9b 3e 45 45 25 be fc fa 10 3e
       -0.3368639 0.30318266 -0.16139705 0.14158243
000020 0c de 4d 3e 14 e6 ec be ba 6f 8b 3d ed ae 28 3e
       0.20104235 -0.46269286 0.068084195 0.16472979
000030 34 05 04 3f 2e 53 d9 3c 60 a8 dd 3e d6 61 b6 3e
       0.5157044 0.026528921 0.43292522 0.35621518
000040 42 7a a9 be aa ed 14 bf aa 3f 17 3f a6 9e 03 bf
       -0.33101088 -0.58175147 0.5908152 -0.51413953
000050 b6 39 ff bd 82 e1 a8 3e b6 f5 19 3f 1b 79 28 bf
       -0.12462179 0.3298455 0.6014055 -0.6580979
000060 ad 94 a2 bd d2 9a 0c 3f 74 76 b3 3e 8e da 5e 3d
       -0.07938514 0.5492374 0.3505131 0.05440765
000070 93 06 d4 3e 3a 98 d0 be ac 01 c8 3e f8 72 2d 3f
       0.41411266 -0.4074114 0.39063776 0.67753553
000080 bc 47 0f bf d8 88 9c be ee 1f 02 3f fe 66 96 bd
       -0.5596883 -0.30573153 0.5082997 -0.07343863

encoder_variable_selection.single_variable_grns.avg_by_song.gate_norm.glu.fc.bias f4 [12]
000000 49 ab c8 bd bc dd 1c 3d ac a9 c7 b9 f1 38 03 3d
       -0.09798295 0.0382974 -0.00038082653 0.032036725
000010 54 8f bf 3c fa ff d0 3c b2 c8 bc 3d 0e 51 94 bd
       0.023383774 0.025512684 0.09217967 -0.072420225
000020 0e d2 5c bb 77 b1 c6 3c b8 70 63 3d fa 88 2f bd
       -0.0033694538 0.024254544 0.05552742 -0.04285524

encoder_variable_selection.single_variable_grns.avg_by_song.gate_norm.add_norm.norm.weight f4 [6]
000000 9d 97 76 3f 8a a7 7c 3f 54 c4 64 3f 04 91 6e 3f
       0.96325094 0.98693144 0.8936207 0.93190026
000010 06 30 72 3f 80 42 8f 3f
       0.9460453 1.1192169

encoder_variable_selection.single_variable_grns.avg_by_song.gate_norm.add_norm.norm.bias f4 [6]
000000 ae 63 fa bd c4 d1 85 bc fa 34 a9 3a aa 95 98 3d
       -0.12226044 -0.016335376 0.0012909465 0.07450421
000010 eb e8 7b 3c 76 9e 59 3d
       0.015375356 0.053129636

encoder_variable_selection.prescalers.log_views.weight f4 [3, 1]
000000 36 12 84 3f c8 10 85 bf 0c af 84 bf
       1.0318058 -1.0395746 -1.036592

encoder_variable_selection.prescalers.log_views.bias f4 [3]
000000 30 76 3a be 5f ac 78 bf fd 6b 82 3d
       -0.18209147 -0.9713802 0.063682534

encoder_variable_selection.prescalers.relative_time_idx.weight f4 [3, 1]
000000 90 38 1e bf ea 6c b3 be 94 9e 01 be
       -0.6180506 -0.35044032 -0.12658149

encoder_variable_selection.prescalers.relative_time_idx.bias f4 [3]
000000 aa 71 8e bd 30 b7 5d bf a1 77 f4 3e
       -0.069552734 -0.86607647 0.4774752

encoder_variable_selection.prescalers.avg_by_song.weight f4 [3, 1]
000000 40 be 47 3f b7 a9 32 3f 34 96 90 3e
       0.78024673 0.69790214 0.28239596

encoder_variable_selection.prescalers.avg_by_song.bias f4 [3]
000000 23 df 80 3e 30 bc 52 3e 3c 43 63 3f
       0.2517024 0.205796 0.88774467

decoder_variable_selection.flattened_grn.resample_norm.mask f4 [5]
000000 46 94 21 bc 58 ba a1 bd 3d b0 63 be 88 80 48 3e
       -0.009862011 -0.078968704 -0.22235198 0.19580281
000010 46 1b 81 3c
       0.015760075

decoder_variable_selection.flattened_grn.resample_norm.norm.weight f4 [5]
000000 da e7 53 3f 02 b4 6e 3f 8d df 68 3f 4b 48 49 3f
       0.8277565 0.9324342 0.9096611 0.78625935
000010 98 41 87 3f
       1.0566893

decoder_variable_selection.flattened_grn.resample_norm.norm.bias f4 [5]
000000 0d 30 82 be 8e b5 af bd 71 fd 61 bd 34 92 2c 3e
       -0.25427285 -0.08579551 -0.05517334 0.16852647
000010 8c b1 c4 3d
       0.09604177

decoder_variable_selection.flattened_grn.fc1.weight f4 [5, 22]
000000 30 0c 75 3d f1 3e 96 be 25 da eb bc aa 7e 9f 3d
       0.059826076 -0.29344895 -0.028790543 0.07787831
000010 50 67 f2 3d f4 13 85 bd 49 bd d2 3d 9c 6e 30 3e
       0.118361115 -0.064979464 0.102900095 0.17229694
000020 7a ba b7 3b 3d 69 26 3e 40 26 0a 3d c0 8d e3 be
       0.0056069465 0.16251083 0.033727884 -0.44444084
000030 78 55 4e bd 72 49 b6 3e 40 86 c0 3e 81 6d 36 3e
       -0.050374478 0.3560291 0.37602425 0.1781521
000040 ba 1f f2 3e 0e 6c 10 3e ea 18 30 3e c6 94 1b 3e
       0.4728983 0.1410372 0.17197004 0.15193471
000050 de 44 82 be e4 16 8f 3e a7 d6 96 3e ce 25 f8 bd
       -0.25443166 0.27947152 0.29460642 -0.12116586
000060 91 36 d9 3e db 45 d4 3d fc 34 43 be 87 fa c7 be
       0.42424443 0.103648864 -0.1906318 -0.39058325
000070 00 88 7a 3d 7a 4b e9 bc 20 66 9f bd 87 4d 1e be
       0.061164856 -0.028478373 -0.07783151 -0.15459262
000080 08 16 bc be 0c 81 49 bf ae 5f 04 be e0 35 c9 3e
       -0.36735559 -0.78712535 -0.12927124 0.39298916
000090 92 cc 73 3d c7 03 a2 be e0 5c d8 3d c4 07 54 bf
       0.059521265 -0.31643507 0.105645895 -0.8282435
0000a0 a2 26 0e 3f 2a a8 24 3e f8 dc 08 be b3 bc ca be
       0.555277 0.16079774 -0.13365543 -0.3959709
0000b0 be 95 e4 3d 8f e6 05 3f dc ec af be 18 20 f4 bc
       0.111613736 0.5230493 -0.34360397 -0.02980046
0000c0 70 c4 22 be b2 ae ab 3e 36 66 97 be bb 27 45 3e
       -0.15895247 0.3353172 -0.29570168 0.19253437
0000d0 6a b7 a6 3d a0 1c 00 bf f1 d2 6e 3e 30 c7 ed be
       0.08140452 -0.5004368 0.23322655 -0.4644103
0000e0 16 9a 1e 3f f6 9b 13 3f f1 1d 05 be a2 5d 8d 3e
       0.61953866 0.5765985 -0.12999703 0.276105
0000f0 0d 68 a2 3d b4 b8 9e bc 2e 0f 81 3e e8 89 fe 3d
       0.07930002 -0.019375183 0.25206894 0.12428647
000100 f4 35 4a be a0 67 a5 3e d0 dd e2 3e 3e c6 0f bf
       -0.19747144 0.32305622 0.44309855 -0.5616187
000110 0d 83 4e 3e 6c 92 fa 3e d6 d9 5a 3d 5d 7b 1c 3f
       0.2016718 0.48939836 0.0534304 0.6112574
000120 5c 52 f3 3e 04 a1 92 be 3b 0d 23 bd be 60 f9 3e
       0.47523773 -0.2863847 -0.03980754 0.4870662
000130 6c f1 99 be 62 65 04 3e 6c b1 88 3e 00 82 fd 3c
       -0.30067003 0.129293 0.26697862 0.030945778
000140 3c 43 fe 3d 73 1f 3e be d0 ed bc bd d4 93 f0 be
       0.12415168 -0.18566684 -0.09225047 -0.46987784
000150 cb 68 02 bf 33 68 8a 3e fc ac 51 bf f6 48 93 bd
       -0.5094115 0.27032623 -0.8190458 -0.071916506
000160 c2 4a b9 3d 53 b7 93 be 81 22 45 3e d4 64 73 bc
       0.09047462 -0.28850803 0.19251443 -0.014855582
000170 58 75 6b be 96 dc b0 3e 78 9d 1b bd 36 28 6e bd
       -0.22993982 0.34543294 -0.03799197 -0.058143817
000180 f8 6f 22 3e 51 29 99 bb 83 73 fb 3d 82 94 b5 be
       0.15863025 -0.0046741148 0.122778915 -0.35464865
000190 c2 79 30 bd 36 ad 66 be 54 60 fd 3e 55 0c cc 3d
       -0.043084867 -0.22527012 0.49487555 0.0996329
0001a0 31 14 a3 be 74 98 b9 3e c8 fa 77 3e 62 65 29 3e
       -0.31851342 0.36249125 0.24216759 0.1654258
0001b0 db dd 41 3e 72 46 94 be
       0.18932287 -0.28959996

decoder_variable_selection.flattened_grn.fc1.bias f4 [5]
000000 76 e5 17 3d d4 24 45 3d e4 f2 15 bd 84 1a 27 3e
       0.037084065 0.048130825 -0.03660859 0.16318709
000010 64 e9 ce bd
       -0.101031095

decoder_variable_selection.flattened_grn.context.weight f4 [5, 6]
000000 ca f5 22 be a6 4c ca be 00 c6 ab 3e 91 3d 0a bf
       -0.15914074 -0.39511603 0.335495 -0.5400019
000010 67 1b e5 3e 53 84 f8 bd 77 31 50 3e 0d 29 c8 3e
       0.4474747 -0.12134614 0.2033137 0.3909382
000020 44 3b 37 be 5e 82 19 be 92 49 29 3f cd 2f 1e be
       -0.17893702 -0.14991137 0.66127884 -0.15447922
000030 47 d1 49 3f d5 11 86 bd 56 93 2d 3e c5 d7 be be
       0.78834957 -0.0654637 0.16950735 -0.37273994
000040 dc 84 be 3e 42 79 99 3e 61 05 a9 3d 51 3f f7 3e
       0.3721074 0.29975325 0.08252979 0.48290494
000050 76 a2 42 be e6 ae 20 3f 9a 6a e6 3d 96 95 18 3e
       -0.19007286 0.62766874 0.112508014 0.14900813
000060 44 d2 02 3f fc 14 23 bf 55 e0 e6 3e af f8 14 bf
       0.5110209 -0.63703895 0.45093027 -0.5819196
000070 7e 68 a2 bd 8b 7d 45 3e
       -0.079300866 0.19286172

decoder_variable_selection.flattened_grn.fc2.weight f4 [5, 5]
000000 d5 2e c8 be 00 02 92 3e 29 c9 49 be e8 e3 88 3e
       -0.3909823 0.2851715 -0.19705643 0.2673638
000010 1c c7 9e be 16 4f 33 3f fd 04 12 be aa 64 5f 3f
       -0.31011283 0.7004255 -0.14259715 0.87262976
000020 c0 2c 81 bf 2a e0 65 3f e8 ce fe be d2 cd f7 be
       -1.0091782 0.8979517 -0.49767232 -0.48399216
000030 bc bd 39 be 6c 2e ae be f1 d6 08 be 75 6f 8d bf
       -0.18138784 -0.34019792 -0.13363244 -1.1049639
000040 d2 ba 00 be 06 7a 1a be 00 f9 d4 3d 10 db d1 3e
       -0.12571266 -0.15085611 0.103990555 0.40987444
000050 f4 9b 0c 3f 81 8d d0 3d b7 5f 71 3e 1a 37 49 3f
       0.54925466 0.1018324 0.23571669 0.78599703
000060 cd ff 12 bf
       -0.5742157
