Transformer/tft_model_hidden16_oneYear.pth (torch, 166057 bytes, 222 tensors)

input_embeddings.embeddings.article.weight f4 [65, 16]
0.5568349 -1.852664 0.14082958 -2.480145 0.74465644 -0.21682434 0.07765557 -0.9704979
-2.3647566 1.69981 -0.6073364 -0.54364866 -0.91324735 1.7136884 -1.1182196 -0.4304507
0.9882452 0.77821994 0.9479585 0.60868233 0.40392673 0.7833699 -0.54574275 -0.75170064
0.43476978 0.65442884 -0.74999297 -1.5552471 1.932246 -0.70551753 0.43437177 0.19397247
-0.17531744 0.22304705 0.1547925 0.6279775 -0.13148287 -0.93606645 -0.38132647 0.07093554
-2.3683472 -0.7636279 1.1021425 0.48864672 0.5433976 1.3987472 1.434844 0.20700811
0.18613622 -3.227143 0.41155154 0.00021287541 1.0127978 0.5934815 1.3476282 -0.51703334
0.16136453 0.25664288 -0.16158472 -0.5533123 -0.09218835 0.5105694 0.38992697 0.09081745
-0.91914594 -1.1202047 0.45209554 0.06475073 -0.7126236 1.4047849 -0.10129495 -1.7278545
-0.95866835 0.28632224 0.16866022 0.79229724 1.3876474 0.8045483 -0.6933385 -0.8680852
0.071386985 -0.6876468 -1.1022891 -0.257558 0.16433066 -0.21862787 -1.1438073 -1.5469846
-1.305392 1.9597038 0.36418453 -0.17009333 0.12927215 -0.48442784 0.8613099 -0.3631451
-0.6403226 -1.0404721 1.3460174 1.1996858 1.2306808 0.056321625 0.24968615 -1.1018693
-0.95738864 -1.9233465 1.7120795 0.692146 -1.2693034 -0.7331011 0.82122433 1.0286434
0.30545738 0.15134013 1.2819437 -1.3674659 0.00569689 1.1123726 0.9434769 -0.91373676
-1.5238178 1.1499839 -1.2518444 1.2346402 1.4929473 -0.867151 -1.1472162 1.898122
0.14871967 -0.45785725 0.468817 -0.8054559 0.48056284 0.7482955 1.0360428 0.016161745
0.3882215 0.40431932 -1.4176733 -0.21192002 0.9026585 1.1765976 -0.22746855 -0.3994832
-0.6314549 0.93011415 -0.96287596 -1.3246843 0.6721629 2.3761435 0.27885652 -0.7203117
1.1013374 1.5788894 -2.0926685 -0.30892372 -1.4610276 -0.76128894 0.52067304 1.0736799
0.50697935 -1.2906286 -0.3604655 1.4720253 0.4614231 -0.7407676 -0.29234567 -1.1003633
-0.7291901 -0.3414189 1.3959593 1.6646209 0.69264805 0.090567164 -0.19787206 1.3530947
0.11273557 -0.46527103 1.1578712 -0.43318546 0.9814689 -0.5941992 -0.9256171 0.67357796
-2.2584658 2.4361644 -1.4392354 -2.2889667 -0.011432032 0.894204 -0.48075485 1.6391337
-1.4337778 -0.8860313 -0.29795906 -0.061361782 1.1525626 -1.3989806 -0.1584266 0.89612836
-0.22117117 0.4331503 0.13406292 -0.83719325 -0.56308484 0.06047507 0.6184147 0.19616027
-0.31745183 -1.7189213 -0.55813223 0.18677098 -0.4848844 -0.12873311 -0.05110622 -1.764451
-0.059339885 -2.330431 -0.40474042 -0.46762514 -1.105304 -0.09217131 0.378859 -0.11087085
-1.8020073 -1.5687575 0.4790849 -1.2179426 -0.78787774 0.09449342 -1.5344194 -0.4014198
0.30187657 -1.0682514 -1.9035348 0.04948096 -0.6458311 0.29306874 0.97965837 0.27128172
0.892651 0.6882611 -0.51128894 -2.2394557 0.82222426 -0.98479235 -0.74606717 -1.8937148
-0.90152645 -0.39419138 0.7268882 -1.3210082 -0.1681276 -1.126165 0.6546806 2.921965
00000000: bb8c 0e3f 1824 edbf a135 103e b2ba 1ec0
00000010: cea1 3e3f 3307 5ebe e209 9f3d 8d72 78bf
00000020: 2c58 17c0 6093 d93f 667a 1bbf 8f2c 0bbf
00000030: 94ca 69bf 245a db3f d221 8fbf 0964 dcbe
00000040: a3fd 7c3f 6c39 473f 69ad 723f 9bd2 1b3f
00000050: 7ccf ce3e ee8a 483f ccb5 0bbf 746f 40bf
00000060: 259a de3e a688 273f 8aff 3fbf 5612 c7bf
00000070: d653 f73f cc9c 34bf fa65 de3e b8a0 463e
00000080: 6a86 33be 7266 643e ed81 1e3e 22c3 203f
00000090: 72a3 06be 0da2 6fbf 393d c3be a746 913d
000000a0: 0093 17c0 1e7d 43bf 0113 8d3f e72f fa3e
000000b0: 1b1c 0b3f 260a b33f f8a8 b73f eff9 533e
000000c0: 7e9a 3e3e 8389 4ec0 e2b6 d23e 4f37 5f39
000000d0: 5ca3 813f 67ee 173f 157f ac3f 4c5c 04bf
000000e0: be3c 253e b266 833e 7776 25be e0a5 0dbf
000000f0: 3fcd bcbd adb4 023f 82a4 c73e 80fe b93d
00000100: 264d 6bbf de62 8fbf 1179 e73e 089c 843d
00000110: 806e 36bf fecf b33f ba73 cfbd 562a ddbf
00000120: 4a6b 75bf d498 923e 44b5 2c3e fed3 4a3f
00000130: 6e9e b13f e1f6 4d3f a27e 31bf d53a 5ebf
00000140: 5733 923d 9f09 30bf cf17 8dbf a4de 83be
00000150: 4c46 283e fcdf 5fbe 4768 92bf 9703 c6bf
00000160: 1617 a7bf 93d7 fa3f 6576 ba3e f22c 2ebe
00000170: eb5f 043e ed06 f8be ce7e 5c3f 28ee b9be
00000180: 2fec 23bf 312e 85bf 4c4a ac3f 4e8f 993f
00000190: f386 9d3f 81b1 663d baad 7f3e 0e0a 8dbf
000001a0: 6c17 75bf 3830 f6bf 6c25 db3f 7b30 313f
000001b0: 8978 a2bf 84ac 3bbf c23b 523f 96aa 833f
000001c0: e964 9c3e e8f8 1a3e bb16 a43f 1f09 afbf
000001d0: faac ba3b 3a62 8e3f b487 713f a7ea 69bf
000001e0: 760c c3bf ac32 933f 703c a0bf b108 9e3f
000001f0: e618 bf3f 9cfd 5dbf fbd7 92bf a9f5 f23f
00000200: f849 183e 446c eabe c808 f03e 5c32 4ebf
00000210: 550c f63e 4b90 3f3f 0d9d 843f a365 843c
00000220: f8c4 c63e f102 cf3e 5276 b5bf 9001 59be
00000230: a114 673f c09a 963f 84ed 68be 1089 ccbe
00000240: 07a7 21bf f61b 6e3f 0a7f 76bf 418f a9bf
00000250: de12 2c3f bc12 1840 48c6 8e3e 5966 38bf
00000260: a0f8 8c3f 0c19 ca3f 48ee 05c0 402b 9ebe
00000270: f402 bbbf d5e3 42bf d44a 053f 586e 893f
00000280: 66c9 013f 5133 a5bf ef8e b8be 536b bc3f
00000290: a63f ec3e f2a2 3dbf 55ae 95be b4d8 8cbf
000002a0: 34ac 3abf 75ce aebe cbae b23f 4c12 d53f
000002b0: 6251 313f 477b b93d f99e 4abe 3532 ad3f
000002c0: e8e1 e63d 0138 eebe 2035 943f 7cca ddbe
000002d0: 8c41 7b3f 701d 18bf 3ef5 6cbf 9b6f 2c3f
000002e0: b48a 10c0 1eea 1b40 de38 b8bf 6e7e 12c0
000002f0: 6b4d 3bbc 8eea 643f 8025 f6be 22cf d13f
00000300: 0886 b7bf f3d2 62bf 178e 98be 7e56 7bbd
00000310: 2c87 933f cc11 b3bf 953a 22be ab68 653f
00000320: b27a 62be e0c5 dd3e ca47 093e 4c52 56bf
00000330: 5426 10bf b5b4 773d 6d50 1e3f 3dde 483e
00000340: 0c89 a2be 9d05 dcbf c1e1 0ebf e440 3f3e
00000350: c542 f8be 9dd2 03be c154 51bd 88d9 e1bf
00000360: 610e 73bd c825 15c0 233a cfbe 906c efbe
00000370: 9a7a 8dbf 50c4 bcbd cff9 c13e 4210 e3bd
00000380: 2da8 e6bf 0ccd c8bf 9e4a f53e 8be5 9bbf
00000390: 5bb2 49bf c485 c13d db67 c4bf e586 cdbe
000003a0: 918f 9a3e 76bc 88bf 07a7 f3bf 8cac 4a3d
000003b0: 3055 25bf 1b0d 963e e4ca 7a3f 70e5 8a3e
000003c0: c784 643f e131 303f d5e3 02bf 3e53 0fc0
000003d0: 4a7d 523f 5a1b 7cbf 42fe 3ebf 3f65 f2bf
000003e0: 70ca 66bf 74d3 c9be 5815 3a3f cc16 a9bf
000003f0: a429 2cbe 2d26 90bf 2699 273f 7901 3b40

prescalers.encoder_length.weight f4 [8, 1]
-0.6938891 -0.73478794 0.58235747 0.950134 -0.75858676 0.78195184 0.22679733 -0.51999736
00000000: b7a2 31bf 101b 3cbf 6115 153f fb3b 733f
00000010: be32 42bf ff2d 483f 8f3d 683e 8c1e 05bf

prescalers.encoder_length.bias f4 [8]
0.11976833 0.0431412 -0.22946091 -0.068589374 -0.26338342 0.058446422 0.90998393 -0.39785343
00000000: 1949 f53d d4b4 303d cdf7 6abe 9678 8cbd
00000010: 31da 86be 8465 6f3d b5f4 683f 72b3 cbbe

prescalers.views_center.weight f4 [8, 1]
-0.4750853 0.590224 0.07014796 -0.9985145 -0.6627218 -0.09786723 0.43397588 -0.27588314
00000000: 613e f3be ec18 173f bca9 8f3d a59e 7fbf
00000010: 23a8 29bf 9d6e c8bd 1632 de3e 8e40 8dbe

prescalers.views_center.bias f4 [8]
-0.48550367 -0.8538813 -0.096232496 0.09383625 -0.8298764 -0.3567369 -0.062379792 -0.64103425
00000000: f093 f8be f797 5abf 8b15 c5bd 382d c03d
00000010: c872 54bf 38a6 b6be f481 7fbd d21a 24bf

prescalers.views_scale.weight f4 [8, 1]
-0.69659746 -0.40021452 -0.26693946 -0.45803362 0.70173925 0.64358824 0.7872666 -0.15999012
00000000: 3654 32bf ebe8 ccbe 4aac 88be 6283 eabe
00000010: 2fa5 333f 33c2 243f 4e8a 493f 73d4 23be

prescalers.views_scale.bias f4 [8]
-0.21827517 0.6873479 0.4563717 0.637551 0.477439 -0.27218363 -0.48236933 -0.22374791
00000000: 8783 5fbe 08f6 2f3f 8da9 e93e 8b36 233f
00000010: e272 f43e a75b 8bbe 1df9 f6be 2c1e 65be

prescalers.log_views.weight f4 [8, 1]
0.6963864 0.8026451 -0.46500435 0.5039633 -0.5137681 0.3656761 0.87128615 -0.69860667
00000000: 6146 323f 267a 4d3f 0d15 eebe bd03 013f
00000010: 4e86 03bf e639 bb3e 9c0c 5f3f e3d7 32bf

prescalers.log_views.bias f4 [8]
-0.38493246 0.6082372 0.48375502 0.39664793 -0.1567483 -0.92072546 -0.577157 -0.8148284
00000000: de15 c5be 6fb5 1b3f bdae f73e 7015 cb3e
00000010: a082 20be aab4 6bbf 90c0 13bf 9898 50bf

prescalers.relative_time_idx.weight f4 [8, 1]
0.89681834 0.3547329 -0.53608316 0.33532333 0.17700419 -0.30005217 -0.16917898 -0.33520374
00000000: e395 653f 8d9f b53e bf3c 09bf 80af ab3e
00000010: 9640 353e 70a0 99be 413d 2dbe d39f abbe

prescalers.relative_time_idx.bias f4 [8]
0.12675583 -0.94447005 -0.27506015 0.5871825 -0.5563442 -0.10541524 0.427688 0.27400532
00000000: 48cc 013e cac8 71bf afd4 8cbe 9851 163f
00000010: 936c 0ebf f2e3 d7bd ecf9 da3e 6d4a 8c3e

static_variable_selection.flattened_grn.resample_norm.mask f4 [4]
-0.009160971 0.083617575 -0.028539343 -0.104868956
00000000: e617 16bc b13f ab3d 57cb e9bc 89c5 d6bd

static_variable_selection.flattened_grn.resample_norm.norm.weight f4 [4]
0.99944335 1.0012119 0.9454284 0.96888185
00000000: 85db 7f3f b627 803f 9807 723f a408 783f

static_variable_selection.flattened_grn.resample_norm.norm.bias f4 [4]
-0.07950985 -0.079497725 0.056576803 0.09480341
00000000: 0fd6 a2bd b4cf a2bd 14bd 673d 4a28 c23d

static_variable_selection.flattened_grn.fc1.weight f4 [4, 40]
-0.043621305 0.17633604 0.30557016 -0.10238721 0.2940488 -0.48540533 0.1439157 -0.11654887
-0.01200057 0.25283584 -0.24721883 0.1847824 0.5548059 -0.30433276 -0.08865258 0.23873691
-0.021905608 0.73503613 0.022044573 0.028351318 -0.093900375 -0.030057436 0.5595703 -0.17372039
0.3378258 -0.20429008 0.23712523 0.08646895 0.17610292 0.25918362 0.17394145 0.026398025
-0.074031025 0.30471724 -0.026798468 -0.14782223 0.4864403 -0.17503816 0.20681182 0.3051532
-0.3123044 -0.039967272 -0.12697081 0.057275984 -0.025915697 0.40582073 0.34720635 -0.2642715
-0.20320973 -0.13428396 -0.39322168 0.21018638 -0.047568202 0.039750542 -0.02523317 0.076615065
-0.34069613 -0.19504604 -0.17349578 0.08384921 0.01848842 -0.16148883 -0.23039338 -0.29366598
-0.18500765 0.5024019 0.2632765 0.25745812 -0.053235527 0.36030534 0.19576496 -0.21144249
0.24703234 -0.33137333 -0.070572875 -0.07812974 0.00881701 0.27116036 0.61727214 0.37219012
-0.13897558 -0.0023023956 0.26123887 -0.4592379 -0.16555692 0.0066400883 -0.25733548 -0.25006104
0.13421097 0.1364432 -0.017905507 -0.43729806 -0.37066588 -0.09290486 -0.5137876 -0.35110086
0.36180368 -0.13016291 -0.07164345 0.41034314 -0.2588799 0.06974226 -0.034832392 0.19832587
0.15010986 -0.2570171 -0.047624256 0.004076109 -0.29012284 -0.38034728 -0.020772474 0.16841464
-0.03021104 0.27275497 -0.24711838 0.10093014 -0.10912479 0.14996763 -0.28235143 0.1605424
0.36234897 -0.053400565 0.01821795 0.15305321 0.35394573 0.22282769 0.045404714 -0.05774898
-0.15817456 -0.013219302 0.14745985 -0.34626016 0.20499639 0.009859627 -0.0072198818 -0.013190642
0.3907285 -0.18915209 -0.5027087 -0.14792307 0.13297473 0.009487049 -0.08494301 0.20141582
0.09973217 -0.0942296 -0.35316387 0.11824355 -0.09030147 -0.10186679 0.09830629 -0.15986377
-0.10619908 -0.06229734 -0.037846703 -0.3767187 -0.37894297 0.0912897 0.19928241 -0.30915964
00000000: 41ac 32bd 6f91 343e b173 9c3e 63b0 d1bd
00000010: 908d 963e 0c87 f8be a35e 133e 2db1 eebd
00000020: 0a9e 44bc b373 813e ef26 7dbe 9937 3d3e
00000030: c207 0e3f 81d1 9bbe 7c8f b5bd 7377 743e
00000040: 6473 b3bc 542b 3c3f d296 b43c 0641 e83c
00000050: d74e c0bd 033b f6bc 0040 0f3f c2e3 31be
00000060: 81f7 ac3e 6b31 51be f5d0 723e a216 b13d
00000070: 5354 343e b7b3 843e b51d 323e ac40 d83c
00000080: 949d 97bd e603 9c3e 7688 dbbc b65e 17be
00000090: b40e f93e 343d 33be 7ac6 533e 0a3d 9c3e
000000a0: 5de6 9fbe b9b4 23bd a304 02be 399a 6a3d
000000b0: 284d d4bc bcc7 cf3e 08c5 b13e 984e 87be
000000c0: 3616 50be bc81 09be 5a54 c9be 193b 573e
000000d0: e0d6 42bd 77d1 223d cbb5 cebc 5ce8 9c3d
000000e0: b96f aebe 26ba 47be e1a8 31be 22b9 ab3d
000000f0: 0775 973c 545d 25be 3eec 6bbe 635b 96be
00000100: a572 3dbe 699d 003f 2dcc 863e 8dd1 833e
00000110: 7f0d 5abd f179 b83e 9c76 483e 6184 58be
00000120: 0cf6 7c3e c4a9 a9be 8388 90bd 7c02 a0bd
00000130: 3875 103c 88d5 8a3e 8c05 1e3f b48f be3e
00000140: 9d4f 0ebe cae3 16bb 1ac1 853e 3b21 ebbe
00000150: c187 29be 1995 d93b 7ac1 83be 0008 80be
00000160: 9a6e 093e c4b7 0b3e 92ae 92bc 88e5 dfbe
00000170: ebc7 bdbe e744 bebd 9687 03bf 7ec3 b3be
00000180: 553e b93e 6d49 05be cdb9 92bd 7f18 d23e
00000190: e88b 84be 08d5 8e3d 69ac 0ebd f015 4b3e
000001a0: 66b6 193e bf97 83be a711 43bd e190 853b
000001b0: fb8a 94be e1bc c2be 092b aabc e374 2c3e
000001c0: 257d f7bc 8aa6 8b3e 9a0c 7dbe 76b4 ce3d
000001d0: d17c dfbd 1d91 193e 5e90 90be 3a65 243e
000001e0: ce85 b93e 8dba 5abd cf3d 953c fbb9 1c3e
000001f0: 6038 b53e f12c 643e 4bfa 393d 328a 6cbd
00000200: 83f8 21be c595 58bc b7ff 163e 0349 b1be
00000210: 93ea 513e 468a 213c c294 ecbb 901d 58bc
00000220: 910d c83e 16b1 41be 84b1 00bf 2579 17be
00000230: 872a 083e 916f 1b3c 9af6 adbd f33f 4e3e
00000240: 6140 cc3d 73fb c0bd e5d1 b4be ad29 f23d
00000250: faef b8bd 899f d0bd cf54 c93d 54b3 23be
00000260: e77e d9bd 7f2b 7fbd 2505 1bbd 46e1 c0be
00000270: d004 c2be 18f6 ba3d b010 4c3e 2c4a 9ebe

static_variable_selection.flattened_grn.fc1.bias f4 [4]
-0.09919249 0.011077004 0.018718282 -0.0069020167
00000000: 6f25 cbbd 527c 353c 1557 993c 502a e2bb

static_variable_selection.flattened_grn.fc2.weight f4 [4, 4]
1.8552446 -0.8419926 1.4532793 -0.48266914 0.6285758 0.6408278 -1.5867213 0.844565
-0.8528729 -1.1200358 -0.09955055 0.3421349 -0.41072577 -0.5467157 1.6982925 0.383251
00000000: a878 ed3f d48c 57bf 0e05 ba3f 6920 f7be
00000010: 58ea 203f 4a0d 243f af19 cbbf 6935 583f
00000020: e155 5abf 555d 8fbf 29e1 cbbd 4e2c af3e
00000030: a64a d2be 8ff5 0bbf a661 d93f 7a39 c43e

static_variable_selection.flattened_grn.fc2.bias f4 [4]
-0.05418413 -0.046416845 0.040684633 0.018069537
00000000: 2ef0 5dbd 971f 3ebd eea4 263d 9106 943c

static_variable_selection.flattened_grn.gate_norm.glu.fc.weight f4 [8, 4]
-0.2863444 0.43046907 -0.28824297 -0.6780728 0.5566674 0.38154215 0.5776649 0.06754087
-0.027595632 -0.21247412 0.705692 -0.47793406 0.11291698 -0.6919842 -0.35623783 0.63062555
0.2762247 -0.37273183 0.3684259 -0.31391013 0.31281906 0.6654824 0.40438813 0.1008473
0.3778669 0.55836046 0.09363154 -0.016911263 0.2328237 -0.22773945 0.15817136 0.25349808
00000000: bc9b 92be 7166 dc3e 9594 93be 2e96 2dbf
00000010: c181 0e3f 7e59 c33e d9e1 133f de52 8a3d
00000020: 3c10 e2bc d192 59be 3ba8 343f c6b3 f4be
00000030: 0541 e73d e025 31bf ce64 b6be ad70 213f
00000040: 536d 8d3e b5d6 bebe 52a2 bc3e d4b8 a0be
00000050: d229 a03e 0e5d 2a3f f60b cf3e 0789 ce3d
00000060: c577 c13e b6f0 0e3f e5c1 bf3d 7d89 8abc
00000070: 5669 6e3e 8834 69be acf7 213e 80ca 813e

static_variable_selection.flattened_grn.gate_norm.glu.fc.bias f4 [8]
-0.07031153 -0.086232916 0.021031506 0.08697422 0.15446195 -0.049733385 -0.12789094 0.032235548
00000000: 7eff 8fbd e29a b0bd 444a ac3c 8a1f b23d
00000010: 462b 1e3e 3cb5 4bbd d8f5 02be 6c09 043d

static_variable_selection.flattened_grn.gate_norm.add_norm.norm.weight f4 [4]
0.9638801 0.8190821 0.66653144 0.8005018
00000000: d9c0 763f 5daf 513f cea1 2a3f b0ed 4c3f

static_variable_selection.flattened_grn.gate_norm.add_norm.norm.bias f4 [4]
-0.078626215 -0.15910819 0.25612926 0.007212349
00000000: c806 a1bd 42ed 22be 6023 833e 9255 ec3b

static_variable_selection.single_variable_grns.article.mask f4 [16]
-0.00097073475 0.029065955 0.028619705 -0.03263908 -0.010000959 0.0352845 -0.05173029 0.008441823
-0.02002915 -0.014857151 0.036300663 -0.021256244 -0.004530067 -0.009961827 -0.0064771157 0.028568389
00000000: e878 7eba ba1b ee3c df73 ea3c 8eb0 05bd
00000010: 10db 23bc 7b86 103d 24e3 53bd 924f 0a3c
00000020: 2c14 a4bc 686b 73bc 01b0 143d 9321 aebc
00000030: f570 94bb ee36 23bc fc3d d4bb 4108 ea3c

static_variable_selection.single_variable_grns.article.norm.weight f4 [16]
1.0101287 1.0101503 0.97743404 0.9881368 0.9420496 1.0143957 0.89896125 1.0295241
0.97653496 0.9702584 1.021435 1.014837 1.0320628 0.9694612 0.98186976 1.0299809
00000000: e64b 813f 9b4c 813f 1e39 7a3f 89f6 7c3f
00000010: 2a2a 713f b8d7 813f 5322 663f 72c7 833f
00000020: 32fe 793f db62 783f 62be 823f 2ee6 813f
00000030: a21a 843f 9c2e 783f d15b 7b3f 6ad6 833f

static_variable_selection.single_variable_grns.article.norm.bias f4 [16]
0.007504631 0.012742352 -0.013982576 0.030338677 -0.08355708 -0.07044434 0.03539505 0.027056713
0.0025162294 0.03947918 -0.002923223 -0.049776975 0.025175955 0.023470625 0.048474416 0.025078487
00000000: 68e9 f53b 4cc5 503c 2d17 65bc d188 f83c
00000010: f91f abbd 1f45 90bd 66fa 103d 0aa6 dd3c
00000020: 53e7 243b ecb4 213d 8b93 3fbb f1e2 4bbd
00000030: ce3d ce3c 7845 c03c 1c8d 463d 6671 cd3c

static_variable_selection.single_variable_grns.encoder_length.resample_norm.mask f4 [16]
-0.056147497 -0.030528476 0.036321808 -0.05564567 -0.00057291595 0.020578157 -0.03774576 0.040939838
0.033771437 0.008950841 -0.005275171 -0.008205624 0.034766465 -0.040334232 0.052519623 0.046636276
00000000: ebfa 65bd db16 fabc 2dc6 143d b7ec 63bd
00000010: bd2f 16ba 8693 a83c 4c9b 1abd 88b0 273d
00000020: eb53 0a3d 8ca6 123c 57db acbb e270 06bc
00000030: 4867 0e3d 8235 25bd d11e 573d ae05 3f3d

static_variable_selection.single_variable_grns.encoder_length.resample_norm.norm.weight f4 [16]
0.9538055 0.9700677 1.0342883 0.9371971 0.9981755 1.0216541 0.9567167 1.0537226
1.0350019 1.0092489 0.9881031 0.9908648 1.0304664 0.9563902 1.0653613 1.0510747
00000000: 992c 743f 5b56 783f 8f63 843f 26ec 6f3f
00000010: 6e88 7f3f 90c5 823f 63eb 743f 62e0 863f
00000020: f17a 843f 112f 813f 53f4 7c3f 51a9 7d3f
00000030: 53e6 833f fdd5 743f c25d 883f 9e89 863f

static_variable_selection.single_variable_grns.encoder_length.resample_norm.norm.bias f4 [16]
-0.006506883 0.031449635 -0.02389418 0.06630019 0.0072992053 0.010957639 0.010549877 -0.0032535435
-0.034698535 -0.012647563 0.0058337245 -0.0076868758 0.038494416 -0.03088662 0.01607025 -0.049466133
00000000: b137 d5bb 55d1 003d babd c3bc 65c8 873d
00000010: 2c2e ef3b ab87 333c 64d9 2c3c 6739 55bb
00000020: 0d20 0ebd b937 4fbc d428 bf3b 30e2 fbbb
00000030: 52ac 1d3d f005 fdbc c2a5 833c 009d 4abd

static_variable_selection.single_variable_grns.encoder_length.fc1.weight f4 [8, 8]
0.42299598 0.624609 -0.009063428 -0.35342172 0.04396461 -0.35000142 -0.005078731 -0.36674094
-0.015326433 0.21516144 0.2314182 -0.18815203 -0.15388413 -1.0821459 0.108612634 -0.079209715
-0.1892166 -1.0606866 -0.28184584 0.30899063 0.39889118 -0.7660633 0.5011959 -0.13524938
-0.1372008 0.28959018 -0.5287258 -0.76911217 -0.18066825 -0.5586611 0.13731952 -0.19766167
0.26109397 0.30663145 0.455934 0.38106638 -0.33497146 0.4487402 -0.2270426 0.6709887
-0.7962215 -0.36419895 -1.1671414 -0.074129894 -0.5427329 -0.18706702 -0.22371083 -0.058730487
-0.4950832 0.7011226 0.8615445 0.5936002 0.30927363 0.6348938 -0.028111922 -0.008960111
-0.021677403 0.10445505 -0.7687095 -0.42125082 0.42171097 -0.13565268 0.018355185 -0.20062838
00000000: ee92 d83e 60e6 1f3f c67e 14bc b1f3 b4be
00000010: 3c14 343d 6333 b3be 7c6b a6bb 78c5 bbbe
00000020: b81b 7bbc 4853 5c3e e5f8 6c3e edaa 40be
00000030: cd93 1dbe c283 8abf 4d70 de3d b438 a2bd
00000040: ffc1 41be 94c4 87bf 194e 90be 0534 9e3e
00000050: 773b cc3e b91c 44bf 604e 003f d07e 0abe
00000060: 5e7e 0cbe 2a45 943e 935a 07bf 89e4 44bf
00000070: 1901 39be 6a04 0fbf 7d9d 0c3e d267 4abe
00000080: 1cae 853e ccfe 9c3e 2e70 e93e 221b c33e
00000090: 6181 abbe 47c1 e53e db7d 68be eac5 2b3f
000000a0: 2cd5 4bbf 4978 babe e464 95bf 6ad1 97bd
000000b0: 8bf0 0abf 7f8e 3fbe 7414 65be 618f 70bd
000000c0: 8c7b fdbe c57c 333f 2e8e 5c3f 2ff6 173f
000000d0: 1d59 9e3e 6688 223f f94a e6bc 6ecd 12bc
000000e0: cf94 b1bc 87ec d53d 25ca 44bf 30ae d7be
000000f0: 80ea d73e 89e8 0abe 9d5d 963c 8771 4dbe

static_variable_selection.single_variable_grns.encoder_length.fc1.bias f4 [8]
0.0118435575 0.016054133 0.005113303 -0.01602695 -0.0036405155 0.0017029362 0.018671365 -0.016371386
00000000: 7b0b 423c f583 833c 7f8d a73b f34a 83bc
00000010: b795 6ebb 0f35 df3a b1f4 983c 491d 86bc

static_variable_selection.single_variable_grns.encoder_length.fc2.weight f4 [8, 8]
-0.4694262 0.16472979 0.40330106 0.53330326 -0.82644165 -0.16323863 0.11462802 -0.7501833
0.40548146 -0.34311602 0.58982205 -0.99462354 0.24964733 0.04712177 0.4248786 -0.026980765
0.53263813 -0.21816836 -0.37205124 -0.08186165 -0.7683116 -0.57998925 -0.38715038 -0.08353569
0.86373085 -0.024305077 0.05197469 -0.49542242 -0.42866609 -0.2272121 -0.37436855 0.53503704
-0.20108718 -0.055938113 -0.6906139 0.029781537 -0.13203414 -0.036418315 -0.41605598 0.37894243
-0.19523847 0.4846766 -0.2698691 -0.3964456 0.47099403 0.68718314 0.2330323 -0.3354162
0.27936488 -0.37393367 -0.99508977 0.5311609 -0.8212476 -0.69117063 0.44110876 0.0726156
0.09334627 0.039735977 0.3266765 -0.23347841 0.14862606 0.66504323 0.29126188 -0.99967426
00000000: a258 f0be edae 283e 7a7d ce3e 9086 083f
00000010: ae91 53bf 0728 27be 18c2 ea3d 030c 40bf
00000020: 449b cf3e e7ac afbe 94fe 163f a69f 7ebf
00000030: 8da3 7f3e c202 413d b089 d93e c406 ddbc
00000040: f95a 083f 8767 5fbe 807d bebe 15a7 a7bd
00000050: 12b0 44bf 2d7a 14bf 9338 c6be c314 abbd
00000060: 771d 5d3f 711b c7bc 6ae3 543d 02a8 fdbe
00000070: 1f7a dbbe 4aaa 68be 3cad bfbe 30f8 083f
00000080: cce9 4dbe 5d1f 65bd 13cc 30bf 69f8 f33c
00000090: f533 07be 5f2b 15bd 4a05 d5be be04 c23e
000000a0: 98ec 47be 8827 f83e 482c 8abe ebfa cabe
000000b0: 2126 f13e 3ceb 2f3f 05a0 6e3e acbb abbe
000000c0: ea08 8f3e 3c74 bfbe 34be 7ebf 29fa 073f
000000d0: 483d 52bf 8ff0 30bf 02d9 e13e 7db7 943d
000000e0: 542c bf3d 31c2 223d 2442 a73e f714 6fbe
000000f0: 6e31 183e 4640 2a3f 4720 953e a7ea 7fbf

static_variable_selection.single_variable_grns.encoder_length.fc2.bias f4 [8]
0.018402508 0.016570255 -0.0049259877 0.010447328 -0.026770918 0.019583039 0.02427519 -0.0025365716
00000000: dbc0 963c 58be 873c 2e6a a1bb 452b 2b3c
00000010: af4e dbbc 9c6c a03c c3dc c63c 9c3c 26bb

static_variable_selection.single_variable_grns.encoder_length.gate_norm.glu.fc.weight f4 [32, 8]
-0.2379598 0.31515658 -0.07261845 -0.08065553 -0.4199455 -0.15381695 -0.40039632 0.42990363
0.15257369 0.2840439 -0.10768508 -0.09022729 -0.33083484 0.15951581 0.2692643 0.29910967
-0.21451841 0.014673686 0.29329574 0.08808835 0.16426563 -0.25877187 -0.101529576 0.21921057
0.41109988 0.412995 0.20208114 -0.19945803 0.31786034 0.09689435 -0.104350656 0.1501134
0.35404792 0.06624186 -0.363101 -0.031805094 -0.2954035 -0.08516674 0.30006024 0.025471764
0.29394135 -0.098022774 -0.07514006 -0.08171387 0.04416945 -0.11300293 -0.19489884 0.077900715
-0.03158641 0.06768593 0.15370646 0.06200111 0.04127132 -0.16905399 0.07001005 0.18128903
0.31730366 -0.11097401 -0.084301345 -0.09259873 -0.014249142 -0.2795704 0.17566271 0.3704432
-0.3516817 -0.081577405 0.14446203 0.022880435 0.1597039 0.27936685 -0.15280889 0.30026975
-0.26575986 0.00919887 0.28661656 -0.046777457 0.15428805 -0.07435869 0.34941843 0.39305148
0.28200096 0.29440877 0.16125876 -0.32503796 -0.2514999 0.081237406 -0.077528186 0.056246936
-0.13877128 0.026559025 0.26051956 0.035295073 -0.1819133 0.016810827 0.26958913 0.3305361
0.30857885 0.3559038 0.12833004 0.05091498 -0.11129486 0.06685813 -0.02964496 -0.19762786
-0.09790084 0.086685255 -0.12807445 0.051221304 0.18156822 -0.2753104 -0.12618321 0.13388787
0.3737925 -0.08433185 0.30704203 0.27948916 -0.24378884 0.2634728 0.36254334 0.1923067
0.04026247 0.13066779 0.32821324 0.2222446 0.2564 0.02832492 0.2956363 -0.240012
-0.27008462 -0.3165025 -0.32364163 -0.34612668 0.17894451 0.12171213 0.20952077 0.4255738
-0.26492628 0.33190542 0.1089117 -0.24706438 -0.13835375 0.079835966 0.06931694 0.27016866
0.27689365 0.28430122 0.24323207 0.10956107 -0.3173029 0.401925 -0.11969547 -0.007894803
0.05345378 0.3502619 0.22456644 0.054608583 -0.0022544977 -0.31726497 0.13013586 -0.22681597
-0.29370803 0.108635955 0.093846664 0.12579669 -0.015640832 -0.02498865 0.0768482 0.13203701
-0.03297663 0.19270338 0.25690955 -0.3492041 -0.2001174 -0.34695682 0.20131999 0.0812706
-0.30538324 0.16112699 0.29715586 -0.23864692 -0.15746404 0.16496454 0.0031869258 0.28566787
0.122380055 0.10338857 -0.17408486 0.347893 0.004391575 0.1583262 -0.18355688 0.29299426
-0.09235416 -0.28038603 0.4036694 0.22303058 0.16573846 0.3107911 0.28721458 -0.25104675
-0.23685692 0.34682643 0.015586603 0.1255988 0.15610527 0.015963377 -0.17812733 -0.29975376
0.30792868 -0.0772167 -0.1294381 -0.21780664 0.3951662 0.0046132724 0.0787678 -0.24421617
0.3125217 0.26375195 -0.1351134 -0.24694242 0.21690361 -0.36358115 0.27648118 0.1330457
0.09970064 -0.23889482 0.09642238 -0.07830926 -0.10458209 -0.22686984 0.079976596 -0.3202864
-0.13288525 -0.07649925 0.13924792 0.0133927185 0.19406255 0.049141143 -0.029988963 0.05887974
0.0935716 0.08857066 0.4009682 -0.19043191 -0.08812355 -0.05566182 -0.18442522 0.17977959
-0.15081519 0.041829396 0.10728699 0.07024823 -0.26480216 0.23615275 0.084291816 -0.10749883
00000000: bcab 73be 345c a13e fbb8 94bd ba2e a5bd
00000010: 1903 d7be 3182 1dbe bf00 cdbe 541c dc3e
00000020: 473c 1c3e 346e 913e ff89 dcbd 16c9 b8bd
00000030: 2f63 a9be 1d58 233e 03dd 893e e724 993e
00000040: b7aa 5bbe e669 703c dc2a 963e aa67 b43d
00000050: 4035 283e bf7d 84be bdee cfbd bc78 603e
00000060: af7b d23e 1574 d33e 5cee 4e3e ba3e 4cbe
00000070: 97be a23e 8c70 c63d ccb5 d5bd 54b7 193e
00000080: c545 b53e d0a9 873d 60e8 b9be 0f46 02bd
00000090: 213f 97be e66b aebd 7fa1 993e 29aa d03c
000000a0: 7b7f 963e 2ac0 c8bd 08e3 99bd 9a59 a7bd
000000b0: 06eb 343d 156e e7bd 9093 47be 698a 9f3d
000000c0: c060 01bd ec9e 8a3d 3a65 1d3e e0f4 7d3d
000000d0: 1e0c 293d 7d1c 2dbe 6e61 8f3d d5a3 393e
000000e0: a075 a23e 5746 e3bd 2fa6 acbd 67a4 bdbd
000000f0: 3c75 69bc da23 8fbe ede0 333e bbaa bd3e
00000100: a00f b4be 0e12 a7bd dbed 133e c06f bb3c
00000110: 6b89 233e 2c09 8f3e ef79 1cbe f5bc 993e
00000120: ad11 88be dbb6 163c 68bf 923e b899 3fbd
00000130: b0fd 1d3e 5e49 98bd f9e6 b23e 0b3e c93e
00000140: 6e62 903e bfbc 963e 0421 253e 606b a6be
00000150: 98c4 80be cc5f a63d 19c7 9ebd 3063 663d
00000160: 0f1a 0ebe 5092 d93c d262 853e 9191 103d
00000170: 7b47 3abe dcb6 893c 9607 8a3e 073c a93e
00000180: 0cfe 9d3e 0639 b63e f368 033e 3a8c 503d
00000190: 8fee e3bd eaec 883d fdd9 f2bc f55e 4abe
000001a0: 3c80 c8bd 0a88 b13d f325 03be 6ecd 513d
000001b0: 05ed 393e 7cf5 8cbe 2c36 01be e719 093e
000001c0: bb61 bf3e 2db6 acbd 9d34 9d3e 3419 8f3e
000001d0: c8a3 79be e8e5 863e 489f b93e 0cec 443e
000001e0: 42ea 243d c7cd 053e 910b a83e 1794 633e
000001f0: dc46 833e aa09 e83c a45d 973e b5c5 75be
00000200: 8848 8abe 9e0c a2be 5bb4 a5be 8437 b1be
00000210: 3b3d 373e 3644 f93d 9d8c 563e cfe4 d93e
00000220: 6ba4 87be 82ef a93e 190d df3d 72fe 7cbe
00000230: 9bac 0dbe 0a81 a33d 0af6 8d3d 8c53 8a3e
00000240: 01c5 8d3e ee8f 913e d411 793e 8e61 e03d
00000250: 8775 a2be 1dc9 cd3e e622 f5bd 3459 01bc
00000260: 5af2 5a3d 8755 b33e bff4 653e 40ad 5f3d
00000270: 32c0 13bb 8e70 a2be 5642 053e 7242 68be
00000280: e660 96be 877c de3d ae32 c03d d9d0 003e
00000290: 3421 80bc ffb4 ccbc 9762 9d3d b634 073e
000002a0: 8112 07bd 0954 453e a689 833e e1ca b2be
000002b0: 93eb 4cbe 53a4 b1be d426 4e3e 3371 a63d
000002c0: 315b 9cbe 79fe 243e d024 983e dc5f 74be
000002d0: 413e 21be 77ec 283e bedb 503b 0f43 923e
000002e0: 65a2 fa3d 63bd d33d 4d43 32be 081f b23e
000002f0: 34e7 8f3b 4320 223e 56f6 3bbe 5803 963e
00000300: 2e24 bdbd c28e 8fbe c1ad ce3e 2162 643e
00000310: 58b7 293e 0320 9f3e ca0d 933e 3389 80be
00000320: 9f8a 72be 3c93 b13e f45e 7f3c f99c 003e
00000330: 0fda 1f3e a1c5 823c 0367 36be 5379 99be
00000340: d4a8 9d3e ca23 9ebd 6c8b 04be b408 5fbe
00000350: 3953 ca3e ef2a 973b 0351 a13d ce13 7abe
00000360: d802 a03e 7f0a 873e 2b5b 0abe 79de 7cbe
00000370: fb1b 5e3e 4f27 babe f18e 8d3e 223d 083e
00000380: d92f cc3d d8a0 74be 1979 c53d 9b60 a0bd
00000390: 232f d6bd 9150 68be c5ca a33d 94fc a3be
000003a0: 1213 08be a4ab 9cbd 0297 0e3e 226d 5b3c
000003b0: 55b8 463e 3948 493d 6aab f5bc e22b 713d
000003c0: 78a2 bf3d 8964 b53d b44b cd3e 9500 43be
000003d0: 1f7a b4bd a6fd 63bd f7d9 3cbe 2418 383e
000003e0: 4c6f 1abe 4d55 2b3d 48b9 db3d 4ede 8f3d
000003f0: 2694 87be 07d2 713e 30a1 ac3d 5928 dcbd

static_variable_selection.single_variable_grns.encoder_length.gate_norm.glu.fc.bias f4 [32]
0.004568943 0.027830202 -0.028427873 0.057098575 0.011751538 0.009986015 -0.0070360885 0.0015980973
-0.018013278 -0.01212408 0.0025462713 -0.008258753 0.008357672 -0.029632542 0.0049099457 -0.046794645
0.046827674 0.019885663 0.010828257 0.048898976 -0.009729295 0.00095481053 -0.0384028 -0.027686214
-0.02135376 0.031709526 -0.01940736 0.015063606 0.0045343703 -0.01805067 -0.06554337 0.008739302
00000000: 12b7 953b 2afc e33c 92e1 e8bc 32e0 693d
00000010: 8689 403c 629c 233c fd8e e6bb 3f77 d13a
00000020: 9590 93bc 14a4 46bc 58df 263b b94f 07bc
00000030: 9eee 083c f2bf f2bc 9ce3 a03b beab 3fbd
00000040: 60ce 3f3d 42e7 a23c 0069 313c 4b4a 483d
00000050: 9f67 1fbc 404c 7a3a 414c 1dbd 33ce e2bc
00000060: 15ee aebc d9e1 013d 2ffc 9ebc 58cd 763c
00000070: 0e95 943b 00df 93bc 9a3b 86bd 4a2f 0f3c

static_variable_selection.single_variable_grns.encoder_length.gate_norm.add_norm.norm.weight f4 [16]
0.9676998 0.9454283 0.9995033 0.9111525 0.94733745 0.9868443 0.94505537 1.0281099
1.002447 0.9786225 0.95412576 0.9639989 0.9712976 0.9220092 1.0214529 0.97726613
00000000: 2dbb 773f 9707 723f 73df 7f3f 4a41 693f
00000010: b584 723f d4a1 7c3f 26ef 713f 1b99 833f
00000020: 2f50 803f 0187 7a3f 9641 743f a2c8 763f
00000030: f6a6 783f cc08 6c3f f8be 823f 1d2e 7a3f

static_variable_selection.single_variable_grns.encoder_length.gate_norm.add_norm.norm.bias f4 [16]
0.007572855 0.042334035 0.011765159 0.0956256 -0.002331695 -0.0049389303 0.001131581 -0.007512265
-0.005562318 0.019025251 -0.0062390435 -0.032842096 -0.017362803 -0.07432117 0.018239569 0.01572624
00000000: b625 f83b 7466 2d3d a7c2 403c 5bd7 c33d
00000010: 5acf 18bb c0d6 a1bb 8f51 943a 7229 f6bb
00000020: 1b44 b6bb d8da 9b3c e470 ccbb 6f85 06bd
00000030: 703c 8ebc b335 98bd 266b 953c 51d4 803c

static_variable_selection.single_variable_grns.views_center.resample_norm.mask f4 [16]
0.12484728 -0.045494918 -0.010390935 -0.105055474 0.05150058 -0.20118853 0.12647028 -0.042745627
-0.07647809 -0.13389048 0.035656516 0.0056356685 -0.010737472 0.0032469125 -0.019356268 0.028914342
00000000: eeaf ff3d e158 3abd bd3e 2abc 5327 d7bd
00000010: 46f2 523d 5e04 4ebe 6d81 013e 0a16 2fbd
00000020: 8ba0 9cbd 961a 09be 910c 123d 6aab b83b
00000030: 39ec 2fbc 27ca 543b 0991 9ebc c5dd ec3c

static_variable_selection.single_variable_grns.views_center.resample_norm.norm.weight f4 [16]
1.0615783 0.95227647 0.9082912 0.84359765 1.0817217 0.9399947 1.1729454 0.9099145
0.9120417 0.8401661 1.0060941 1.0167315 0.91989243 1.0550439 0.80341184 1.0249494
00000000: cce1 873f 64c8 733f c685 683f 04f6 573f
00000010: db75 8a3f 7ea3 703f 1323 963f 28f0 683f
00000020: 917b 693f 2015 573f b1c7 803f 4224 823f
00000030: 127e 6b3f ae0b 873f 66ac 4d3f 8b31 833f

static_variable_selection.single_variable_grns.views_center.resample_norm.norm.bias f4 [16]
-0.05976629 0.050021075 0.01142459 0.02137956 -0.05767456 0.0044576675 0.013428175 -0.00498836
0.012895394 0.01947933 -0.03665867 -0.011892508 -0.039389715 0.0035128114 0.0223089 0.01623602
00000000: 7fcd 74bd e6e2 4c3d 342e 3b3c 3024 af3c
00000010: 293c 6cbd a011 923b d901 5c3c 6675 a3bb
00000020: 3447 533c 1e93 9f3c 6727 16bd cbd8 42bc
00000030: 1c57 21bd 3237 663b 27c1 b63c 6701 853c

static_variable_selection.single_variable_grns.views_center.fc1.weight f4 [8, 8]
0.01031721 0.4147778 -0.018625896 0.0997163 -0.24924545 0.23265693 -0.14625445 -0.35360566
-1.2689964 -0.56827724 0.15808836 -0.5321809 -0.20438622 -0.11922984 1.2145674 0.7586153
0.50834745 -0.5849241 0.70389754 0.62538975 -0.21953663 -0.64620733 -0.33407843 0.13086833
-0.78547186 0.08871585 -0.025406642 0.8554407 0.20374225 0.08431475 0.104736075 0.07478851
1.1265132 0.72318363 0.1178833 0.39377743 0.5918923 0.1359122 0.36245358 -0.49329874
0.22862281 -0.12081585 0.35947043 0.2036369 0.42374882 0.08582454 -0.22361727 -0.5981261
-0.52741784 0.33985946 0.45370468 -0.7342607 -0.066589214 -0.18633313 0.26258993 1.3290136
-0.04100813 0.13129976 0.5508391 -0.29890966 0.542648 -0.121012114 -0.42592064 1.1048586
00000000: 8409 293c c15d d43e 5695 98bc 0f38 cc3d
00000010: 333a 7fbe 9e3d 6e3e bac3 15be cd0b b5be
00000020: 796e a2bf 9e7a 11bf eae1 213e 023d 08bf
00000030: 9f4a 51be c62e f4bd f276 9b3f 9d34 423f
00000040: 0f23 023f 96bd 15bf a132 343f 8b19 203f
00000050: 36ce 60be d86d 25bf 540c abbe 5902 063e
00000060: af14 49bf a8b0 b53d 9721 d0bc 29fe 5a3f
00000070: cfa1 503e 36ad ac3d de7f d63d b82a 993d
00000080: 9631 903f 9022 393f cd6c f13d 329d c93e
00000090: 4186 173f 912c 0b3e 8493 b93e a791 fcbe
000000a0: 191c 6a3e 4d6e f7bd 820c b83e 3186 503e
000000b0: 9bf5 d83e c7c4 af3d edfb 64be cb1e 19bf
000000c0: db04 07bf 0f02 ae3e fb4b e83e 82f8 3bbf
000000d0: ed5f 88bd 1dce 3ebe 3072 863e 1e1d aa3f
000000e0: 24f8 27bd 7273 063e cb03 0d3f b00a 99be
000000f0: fbea 0a3f 33d5 f7bd 4512 dabe 026c 8d3f

static_variable_selection.single_variable_grns.views_center.fc1.bias f4 [8]
0.0134649025 -0.005250263 0.07547823 0.0077488986 0.021872133 0.06492514 0.008420307 0.018395538
00000000: e59b 5c3c 660a acbb 5594 9a3d 79ea fd3b
00000010: 302d b33c 79f7 843d 54f5 093c 3db2 963c

static_variable_selection.single_variable_grns.views_center.fc2.weight f4 [8, 8]
0.23974076 0.053674806 -0.38343468 -0.74248075 -0.5098132 -0.53991556 -0.07861142 -0.16620538
-0.28195298 -0.30819392 -0.047327284 0.92413795 -1.0564563 0.67498106 0.370819 0.2770529
-0.8077933 0.2641999 -0.63629025 0.36438978 -0.41438386 -0.78908426 0.333344 0.09348464
-0.040920798 -0.7178994 -0.07405417 1.119677 1.0250719 -0.3374914 0.5148876 0.03658035
0.8188211 -0.32079956 -0.24378677 -0.06695469 -0.121149525 0.6632085 0.7106767 -1.1244735
0.23891303 -0.4066862 -0.27122357 0.24788436 0.17907828 -0.115180776 0.024446608 0.12081933
-0.3716007 -0.7046586 0.01351066 0.26436687 -0.7261974 -0.6401905 0.08136267 0.45281076
0.2911263 -1.0951225 0.21155274 0.39224884 0.23560795 -0.5120875 -0.3437851 -0.47736633
00000000: 9a7e 753e 1dda 5b3d 8d51 c4be 3813 3ebf
00000010: 1e83 02bf e837 0abf 06ff a0bd be31 2abe
00000020: 245c 90be 98cb 9dbe 41da 41bd 4e94 6c3f
00000030: f639 87bf 8fcb 2c3f fddb bd3e e1d9 8d3e
00000040: 8bcb 4ebf 3645 873e ebe3 22bf 4c91 ba3e
00000050: 1f2a d4be 6d01 4abf 11ac aa3e e074 bf3d
00000060: 919c 27bd 41c8 37bf b6a9 97bd 9351 8f3f
00000070: 8e35 833f accb acbe accf 033f 47d5 153d
00000080: 429e 513f d73f a4be 3da3 79be 8a1f 89bd
00000090: 3e1d f8bd 08c8 293f e9ee 353f bfee 8fbf
000000a0: 9ea5 743e 2c39 d0be d1dd 8abe 66d5 7d3e
000000b0: 4c60 373e e6e3 ebbd 4144 c83c 2070 f73d
000000c0: 7242 bebe 8264 34bf d15b 5d3c 185b 873e
000000d0: 13e8 39bf 86e3 23bf 79a1 a63d d0d6 e73e
000000e0: 820e 953e f92c 8cbf 48a1 583e d7d4 c83e
000000f0: 3643 713e 2b18 03bf 9a04 b0be 5c69 f4be

static_variable_selection.single_variable_grns.views_center.fc2.bias f4 [8]
0.0326971 0.03528835 -0.066844314 0.017663471 0.0004435946 -0.047227707 0.029117351 -0.012603616
00000000: 65ed 053d 848a 103d ace5 88bd fcb2 903c
00000010: 4292 e839 d771 41bd 8387 ee3c 667f 4ebc

static_variable_selection.single_variable_grns.views_center.gate_norm.glu.fc.weight f4 [32, 8]
-0.17350739 -0.24837281 -0.12782358 0.20215926 -0.11010082 0.08696301 0.023372823 -0.2585712
-0.16912912 0.18416478 -0.12619177 -0.32740194 0.046281245 0.067606784 -0.027476035 0.036050305
-0.023722278 0.06361932 -0.17765656 -9.25569e-05 -0.08860752 -0.3809836 0.24992326 -0.10896852
-0.0018393262 0.378974 -0.2825034 0.24795057 0.20236039 -0.31361473 0.08148984 -0.29545674
-0.09876451 0.0840633 0.048613764 0.15054059 -0.23932563 -0.31157747 -0.30836567 -0.23465697
0.07009787 -0.58271664 0.3331719 0.096925 -0.22560969 -0.04933957 0.053822 0.104009606
0.036179725 0.038835853 -0.38703734 0.36501727 -0.24528483 0.18060985 -0.099287465 0.23767127
0.27869272 0.016438471 0.12727278 0.32215068 -0.3195816 0.21620391 -0.38484037 -0.06882787
0.20075268 0.31534767 -0.20533805 -0.35943827 0.11164802 -0.16039327 0.23771656 -0.38076025
0.07749074 -0.35098988 -0.1218744 -0.35307848 -0.10418296 -0.34556586 0.06235579 -0.26825497
-0.24382684 0.048258882 0.37486342 -0.11306281 0.37885308 0.4000161 0.2410732 0.04762927
0.23872824 0.01467032 0.25124693 0.3811508 0.24639772 0.379741 0.24514656 0.378843
-0.3858742 -0.08585302 0.15664281 0.16037865 -0.32195106 0.35121503 0.39439565 0.011260723
-0.3097727 0.33970523 -0.2870376 -0.3056507 -0.0036677024 0.3781893 0.21289565 0.10214228
-0.44648626 -0.21201912 -0.076932386 0.19821878 -0.3861791 -0.013560486 -0.2085362 0.39084223
-0.16776602 -0.0753184 -0.15636815 -0.21300825 0.121449 -0.024713863 0.30679578 0.27193022
0.3035542 -0.039794207 0.028801264 0.18116274 -0.22704516 -0.12376653 0.021821277 -0.37939772
-0.3143756 0.29199836 -0.27271962 -0.17467491 0.38726807 0.20342915 0.16815919 0.28101656
-0.020347338 0.3901308 -0.12567338 -0.023393085 0.15780655 -0.06816564 0.0063799666 -0.06809062
-0.08964368 -0.16670862 -0.3050628 0.15050037 0.22830915 0.12286973 0.3203924 -0.04334367
0.039768342 0.051100574 -0.07287809 -0.14266989 -0.13092557 -0.3673446 0.16473213 -0.23563443
-0.47022036 -0.13485259 -0.1802392 -0.019597018 -0.10348305 0.23396043 -0.21556929 0.47493428
-0.1776144 -0.25939566 -0.062438436 0.06006093 -0.020647842 0.104984656 -0.36767578 -0.030407201
-0.12994397 -0.016027031 0.2361445 0.12745795 0.009686526 -0.032005098 0.27896717 -0.0012288712
0.07504948 0.15848652 0.21488462 0.12128986 0.20787603 0.08139992 0.28999972 -0.24964349
0.42149743 0.10961586 -0.13166907 -0.38156322 0.46228263 -0.062243685 -0.058127183 -0.3814357
-0.24231866 -0.0727359 0.07681151 0.19659942 -0.1044953 0.2223726 0.20732543 -0.022087868
0.2929339 -0.20568635 -0.3292064 -0.24528037 -0.077920966 0.3429935 0.094195485 0.32534242
0.11577107 -0.06080171 0.40885687 0.16208911 0.29450384 0.06259254 0.28256682 -0.12625524
0.26500162 0.18563259 0.2580644 0.26862434 0.2441746 -0.06667836 -0.353769 -0.16622014
-0.24760032 0.16689947 -0.09894144 -0.20259455 -0.17567165 -0.37382928 -0.40191942 -0.153949
0.19236502 -0.05876093 0.10246058 -0.116045214 -0.100277126 0.07888869 0.16520257 0.38447356
00000000: ecab 31be 7155 7ebe 2fe4 02be d602 4f3e
00000010: 8a7c e1bd aa19 b23d 5d78 bf3c 7263 84be
00000020: 2f30 2dbe b195 3c3e 6a38 01be 3aa1 a7be
00000030: 6791 3d3d 6d75 8a3d 6c15 e1bc 7ca9 133d
00000040: 3955 c2bc d94a 823d 9aeb 35be 1b1b c2b8
00000050: dc77 b5bd 4810 c3be e2eb 7f3e e32a dfbd
00000060: 8c15 f1ba e108 c23e 49a4 90be c1e6 7d3e
00000070: 9037 4f3e 1c92 a0be 25e4 a63d 1b46 97be
00000080: 0c45 cabd 6129 ac3d 3a1f 473d 5027 1a3e
00000090: c711 75be 1587 9fbe 1be2 9dbe eb49 70be
000000a0: 798f 8f3d eb2c 15bf 8295 aa3e 9d80 c63d
000000b0: 3a06 67be 4a18 4abd 7574 5c3d fd02 d53d
000000c0: 3131 143d 5812 1f3d c229 c6be 8be3 ba3e
000000d0: f22b 7bbe caf1 383e 3a57 cbbd 1960 733e
000000e0: d0b0 8e3e f9a9 863c cc53 023e eff0 a43e
000000f0: 33a0 a3be 8f64 5d3e cc09 c5be a0f5 8cbd
00000100: 1c92 4d3e 4075 a13e 2344 52be 4b08 b8be
00000110: b8a7 e43d 223e 24be f86b 733e 02f3 c2be
00000120: 77b3 9e3d f2b4 b3be 4999 f9bd b4c6 b4be
00000130: e05d d5bd 02ee b0be c968 7f3d b758 89be
00000140: bead 79be 1bab 453d 19ee bf3e 798d e7bd
00000150: 08f9 c13e e9ce cc3e e5db 763e e916 433d
00000160: 2d75 743e c85b 703c 70a3 803e 3326 c33e
00000170: af4f 7c3e 6a6d c23e b307 7b3e b6f7 c13e
00000180: 4e91 c5be b5d3 afbd f966 203e 4d3a 243e
00000190: c5d6 a4be 75d2 b33e 3aee c93e e57e 383c
000001a0: 879a 9ebe d8ed ad3e 98f6 92be 407e 9cbe
000001b0: d65d 70bb 07a2 c13e 5101 5a3e f92f d13d
000001c0: d999 e4be 8a1b 59be ba8e 9dbd ddf9 4a3e
000001d0: 44b9 c5be cd2c 5ebc 838a 55be 791c c83e
000001e0: dbca 2bbe 8940 9abd f91e 20be d61e 5abe
000001f0: 41ba f83d ba74 cabc 5614 9d3e 703a 8b3e
00000200: 756b 9b3e 40ff 22bd a1f0 eb3c ba82 393e
00000210: 877e 68be 4e79 fdbd 89c2 b23c 6b40 c2be
00000220: d7f5 a0be cf80 953e e8a1 8bbe fbdd 32be
00000230: 0048 c63e bb4f 503e ec31 2c3e 67e1 8f3e
00000240: 76af a6bc 39bf c73e 86b0 00be dba2 bfbc
00000250: 0a98 213e 6d9a 8bbd 0a0f d13b 1873 8bbd
00000260: 1b97 b7bd aab5 2abe 3131 9cbe c51c 1a3e
00000270: e0c9 693e 20a3 fb3d 790a a43e 2289 31bd
00000280: 21e4 223d d64e 513d 1c41 95bd 0e18 12be
00000290: 5a11 06be 9714 bcbe 8aaf 283e 274a 71be
000002a0: b9c0 f0be cc16 0abe a090 38be ed89 a0bc
000002b0: ecee d3bd 5393 6f3e 32be 5cbe 962a f33e
000002c0: 8de0 35be 82cf 84be 72bf 7fbd 7302 763d
000002d0: aa25 a9bc 3202 d73d 0040 bcbe 8618 f9bc
000002e0: 0810 05be 1f4b 83bc ddcf 713e 5684 023e
000002f0: 3cb4 1e3c c717 03bd c9d4 8e3e 1312 a1ba
00000300: 8bb3 993d 4a4a 223e b70a 5c3e d166 f83d
00000310: 74dd 543e 00b5 a63d d87a 943e 8ba2 7fbe
00000320: 83ce d73e 487e e03d 42d4 06be 415c c3be
00000330: 4fb0 ec3e 3cf3 7ebd c516 6ebd 8a4b c3be
00000340: 6222 78be 8ff6 94bd 5a4f 9d3d 5c51 493e
00000350: a201 d6bd a5b5 633e 1e4d 543e 9ef1 b4bc
00000360: 6ffb 953e 719f 52be be8d a8be c72a 7bbe
00000370: 0795 9fbd d89c af3e 90e9 c03d 4893 a63e
00000380: 6219 ed3d 370b 79bd b055 d13e b0fa 253e
00000390: 35c9 963e 8530 803d 99ac 903e 0e49 01be
000003a0: 4bae 873e 7816 3e3e 0421 843e 2189 893e
000003b0: e808 7a3e aa8e 88bd 3621 b5be 9d35 2abe
000003c0: f08a 7dbe b2e7 2a3e cfa1 cabd f274 4fbe
000003d0: 45e3 33be 8d66 bfbe 62c8 cdbe cfa4 1dbe
000003e0: 56fb 443e 4daf 70bd dad6 d13d 1da9 edbd
000003f0: 185e cdbd 6590 a13d dd2a 293e b8d9 c43e

static_variable_selection.single_variable_grns.views_center.gate_norm.glu.fc.bias f4 [32]
-0.049118202 0.050550602 0.021033153 0.05308609 -0.03750718 -0.04333304 -0.003928873 -0.007900631
0.0064900294 0.05868402 -0.06358309 -0.019454146 -0.036734633 -0.006770037 0.009742884 0.023208413
0.009350435 0.041743208 -0.0076622334 -0.010335504 0.034904487 -0.04302481 0.019353956 -0.032333955
0.011932437 0.10045483 -0.0757219 0.013792318 0.06196609 0.016241612 0.07540807 0.025784776
00000000: 2b30 49bd 260e 4f3d b84d ac3c cd70 593d
00000010: 21a1 19bd fc7d 31bd c7bd 80bb a671 01bc
00000020: 50aa d43b a85e 703d da37 82bd 4d5e 9fbc
00000030: 0e77 16bd 30d7 ddbb 9ea0 1f3c 921f be3c
00000040: 9132 193c edfa 2a3d 7913 fbbb 3f56 29bc
00000050: 02f8 0e3d c83a 30bd 308c 9e3c 9c70 04bd
00000060: 4580 433c 43bb cd3d 1514 9bbd 2df9 613c
00000070: 28d0 7d3d 210d 853c 8c6f 9a3d 983a d33c

static_variable_selection.single_variable_grns.views_center.gate_norm.add_norm.norm.weight f4 [16]
1.113866 0.95726985 1.0009255 0.921951 1.1453655 1.012382 1.1934365 1.0083756
0.9569068 0.922434 1.0088687 1.0777133 0.9808458 1.1370947 1.019075 1.0395617
00000000: 2993 8e3f a30f 753f 541e 803f fb04 6c3f
00000010: 569b 923f bc95 813f 87c2 983f 7412 813f
00000020: d8f7 743f a224 6c3f 9c22 813f 82f2 893f
00000030: b618 7b3f 528c 913f 0d71 823f 5c10 853f

static_variable_selection.single_variable_grns.views_center.gate_norm.add_norm.norm.bias f4 [16]
-0.035529464 0.05500193 0.01773702 0.02272669 0.013073892 0.047041778 0.0074436367 0.0029030165
0.03685314 0.063109554 -0.009280394 -0.010205626 -0.025872266 0.04091738 -0.010506364 0.011330118
00000000: 5887 11bd b449 613d 3a4d 913c 532d ba3c
00000010: e133 563c e1ae 403d c0e9 f33b 8940 3e3b
00000020: 51f3 163d 953f 813d cb0c 18bc 7f35 27bc
00000030: 13f2 d3bc fc98 273d e222 2cbc f6a1 393c

static_variable_selection.single_variable_grns.views_scale.resample_norm.mask f4 [16]
0.008352185 -0.019486673 0.014740836 -0.039424617 -0.0057386216 0.020836582 -0.00030715892 -0.024313457
0.014980001 0.09792026 -0.07437847 -0.039979808 0.07659501 0.007372504 -0.0484425 -0.03832438
00000000: 9ad7 083c 84a2 9fbc 8c83 713c b57b 21bd
00000010: 0c0b bcbb 7bb1 aa3c 2c0a a1b9 042d c7bc
00000020: ae6e 753c 6b8a c83d bd53 98bd dec1 23bd
00000030: d8dd 9c3d 0c95 f13b a56b 46bd 06fa 1cbd

static_variable_selection.single_variable_grns.views_scale.resample_norm.norm.weight f4 [16]
1.0118333 0.97678614 1.0234725 0.94707537 0.9886403 1.0039978 1.002764 0.97838795
1.0191045 1.1091316 0.92122066 0.97199965 1.0536171 0.99194825 0.9684468 0.9682281
00000000: c183 813f a80e 7a3f 2601 833f 8873 723f
00000010: 8817 7d3f 0083 803f 925a 803f a277 7a3f
00000020: 0472 823f 06f8 8d3f 1ed5 6b3f f8d4 783f
00000030: eddc 863f 52f0 7d3f 21ec 773f ccdd 773f

static_variable_selection.single_variable_grns.views_scale.resample_norm.norm.bias f4 [16]
-0.011008241 -0.016121019 0.0062760306 -0.009683777 -0.011134575 0.0339874 -0.00719789 -0.017776817
0.014401729 -0.0078398 -0.022242542 0.0055000107 0.021183424 0.020082599 0.006225367 0.04089834
00000000: e95b 34bc 3a10 84bc 29a7 cd3b b4a8 1ebc
00000010: cb6d 36bc 5f36 0b3d 47dc ebbb b0a0 91bc
00000020: 3bf5 6b3c 8172 00bc fe35 b6bc 6f39 b43b
00000030: dc88 ad3c 4384 a43c 2afe cb3b 0585 273d

static_variable_selection.single_variable_grns.views_scale.fc1.weight f4 [8, 8]
-0.18565878 -0.20473278 0.97019255 1.1289907 -0.18315051 0.12870893 0.5181266 0.033818077
0.10301038 -0.68339974 -0.47744492 -0.011168332 0.15845585 -0.95419616 0.0048626927 0.39881134
0.59597015 -0.03131495 0.8654537 -0.7371613 -0.2481061 0.55072206 0.6994175 0.20759577
-0.45447057 0.04376848 0.3160129 0.34491685 -0.65344846 -0.4752021 -0.17010558 -0.9838196
0.6036255 -0.88134485 -0.14703551 0.13281588 0.18025272 -0.50830626 -0.67713344 -0.79479694
1.2816347 0.58983016 0.048049588 1.0676501 0.52478844 -0.66090536 -0.03520299 0.11348046
0.4528751 -1.1053779 0.16668372 0.63282514 0.66331685 -0.41372678 0.21970311 0.63263965
-0.52823085 -0.87805 -0.5390627 -1.0071684 0.03624529 0.2934999 0.11500378 -0.40258896
00000000: 561d 3ebe 78a5 51be 8a5e 783f c482 903f
00000010: cf8b 3bbe 46cc 033e f2a3 043f d384 0a3d
00000020: 1bf7 d23d 49f3 2ebf a973 f4be 61fb 36bc
00000030: 4042 223e 3346 74bf 3957 9f3b 0031 cc3e
00000040: 8091 183f 1b44 00bd 608e 5d3f 9ab6 3cbf
00000050: 870f 7ebe 1ffc 0c3f 060d 333f fc93 543e
00000060: 5eb0 e8be 9446 333d 71cc a13e f198 b03e
00000070: 6648 27bf b14d f3be 2830 2ebe 9adb 7bbf
00000080: 3387 1a3f d19f 61bf 7a90 16be e300 083e
00000090: 2b94 383e 5c20 02bf 9e58 2dbf d077 4bbf
000000a0: 9b0c a43f 1cff 163f a5cf 443d c2a8 883f
000000b0: 8958 063f 1831 29bf 0331 10bd 7268 e83d
000000c0: 3fdf e73e 067d 8dbf 23af 2a3e d400 223f
000000d0: 22cf 293f ffd3 d3be daf9 603e acf4 213f
000000e0: 233a 07bf e3c7 60bf 0300 0abf e5ea 80bf
000000f0: f175 143d 9e45 963e 1a87 eb3d 2420 cebe

static_variable_selection.single_variable_grns.views_scale.fc1.bias f4 [8]
-0.019792879 0.013253749 0.06196684 0.009127424 -0.019769397 -0.09962087 0.047005557 0.02611802
00000000: ad24 a2bc 4126 593c f1d0 7d3d 318b 153c
00000010: 6ef3 a1bc 0706 ccbd e688 403d 75f5 d53c

static_variable_selection.single_variable_grns.views_scale.fc2.weight f4 [8, 8]
0.14505239 0.6628145 0.077849776 -0.25775898 0.81580824 -0.8803021 0.32383934 0.8127183
0.8938849 0.13929424 -0.5011447 0.7187564 0.29094687 0.19113435 -0.7042224 -0.2857753
-1.1019778 -0.114681765 0.7488605 0.38065186 -0.976304 -1.4826313 0.76866645 -0.2519723
0.52572036 0.2361253 0.03374292 0.21471913 0.11030977 0.1496119 0.3348064 0.7235152
-0.03802763 0.13654363 0.1599705 0.6599521 -0.4597463 -0.04937864 -0.631621 0.087951444
-0.5867596 -0.015552013 -0.5797963 -0.06786036 1.1021034 -0.88418025 0.5108324 -0.17743176
-0.033759207 -0.102214985 0.4962358 -0.2769083 0.23630817 0.42654747 -0.9567966 -0.22009443
-0.5317098 -0.45666388 -0.35681364 0.17792551 0.563499 0.016149204 -0.54214567 0.37494752
00000000: 9d88 143e 36ae 293f b46f 9f3d fcf8 83be
00000010: cfd8 503f 7a5b 61bf 45ce a53e 4e0e 503f
00000020: a4d5 643f 26a3 0e3e 054b 00bf 6b00 383f
00000030: fdf6 943e b9b8 433e eb47 34bf 2451 92be
00000040: 9c0d 8dbf 46de eabd 52b5 3f3f cde4 c23e
00000050: 0fef 79bf ddc6 bdbf 53c7 443f 8302 81be
00000060: 9c95 063f d5ca 713e 0436 0a3d 55df 5b3e
00000070: 17ea e13d dd33 193e bf6b ab3e 4b38 393f
00000080: dcc2 1bbd 18d2 0b3e 4fcf 233e 9ff2 283f
00000090: de63 ebbe 4241 4abd eab1 21bf e31f b43d
000000a0: e135 16bf dfcd 7ebc 886d 14bf 5ffa 8abd
000000b0: b911 8d3f a359 62bf eac5 023f acb0 35be
000000c0: 1847 0abd 1756 d1bd 9e12 fe3e edc6 8dbe
000000d0: c5fa 713e 6e64 da3e 9ff0 74bf 6f60 61be
000000e0: 221e 08bf d9cf e9be 47b0 b6be 1b32 363e
000000f0: 7841 103f 564b 843c 0fca 0abf 1ff9 bf3e

static_variable_selection.single_variable_grns.views_scale.fc2.bias f4 [8]
0.019128151 -0.010083355 0.039427646 -0.003402492 0.038381387 -0.0023343982 -0.028458769 -0.02612204
00000000: a4b2 9c3c a834 25bc e27e 213d 58fc 5ebb
00000010: cd35 1d3d b4fc 18bb 5d22 e9bc e3fd d5bc
